NN/CIFAR10/model/model_200.pth (torch, 588933 bytes, 10 tensors)

weight f4 [32, 3, 5, 5]
00000000: 4d72 b43a 0d22 ad3e 298a afbd 4bac bebe
00000010: e2c0 e53d c3bc 4cbe 5b4d 823e 2aa1 013f
00000020: cff4 96be 2e3d 4bbe cccb 13be 8f79 94be
00000030: 7094 d43e 29f5 963e 8815 82be 4d89 803e
00000040: fabc e9be c150 f8bb 742c 9f3e 0c70 df3d
00000050: d01f 773e 5363 0abd ed45 85be 0545 793c
00000060: 5a26 70bb 5af2 b7bd 09c3 913e c4c0 af3d
00000070: ab8a afbe cf52 243e 9a50 afbe 0129 693d
00000080: c386 f43e 9816 0bbe d3b1 b6bd cfbd 4cbe
00000090: 0d81 efbe a19e cb3e ee98 453e 32e3 d6bb
000000a0: dbfa 313e 0d28 0ebf 26d9 72be 7660 713e
000000b0: bc15 8bbd 13ac 3c3e ee1e cf3c c3aa b2be
000000c0: 29cb bebd 8578 813d 95c0 20be c196 be3e
000000d0: de02 c5bd 3331 a3be 2e27 363e 4285 6ebe
000000e0: 4720 283e d1e6 fc3e c190 28be fc00 4cbe
000000f0: 1283 62bd 7a35 a6be 06e9 da3e 1216 f83d
00000100: c3ac 4bbe 9014 2f3e 6b4c b0be 5bb0 a93c
00000110: d044 9d3e 4420 933d f3be 2d3e 38db 273e
00000120: ac3b 4ebe 7826 cf3d 3a6f 9a3d eccc 1d3e
00000130: fc37 f0bd 024e 1cbd f520 33bd 01af 7cbd
00000140: eeca f7bd f485 16be aabe 8bbe bc8e 9dbe
00000150: 5534 8bbd 25a5 a6bd c7b0 78be 169e b1be
00000160: 1ccc 07be 2026 f1bd 42bf 553e a71e afbd
00000170: af62 d7bd d10f 8ebd dca3 9fbd ef70 503e
00000180: bf35 0d3d 90a0 d639 801b 2cbd dc07 da3d
00000190: 98d1 c4bc 995b 093d a366 9bbd 36e0 673d
000001a0: fb7b 8c3d 426f 723d 7fcd 9c3c 1e1d 323d
000001b0: 1130 db3c ebe1 7cbd b10c 86bc affa 993c
000001c0: fdec 07bd 74e8 c4bd 20d7 82bd e50c 88bd
000001d0: e6e6 39bb 4e1e 2e3c 1b86 1abd 3e41 1b3c
000001e0: 1518 3cbe ba4f 39bd 6c64 d3bd abcd adbd
000001f0: 875f 8bbd af4e 26be 925c de3d 91ff 1b3e
00000200: 2a3f 363d fecc 25bc a293 a23d 2f8a 3f3e
00000210: 4b1b 9e3e ed23 a83e dc57 503e 3800 be3d
00000220: 0023 853e 95fe d53e 1af2 a03e 0a54 743e
00000230: 2ade 23be eaf3 e43d aa3d ef3d 7ec4 023e
00000240: 2d3c 0a3e 7ce6 75bd de08 d1bc 712f 9d3d
00000250: 8cf3 143e 4c09 97bd cd40 35be b2af 43bd
00000260: f977 f8bd 42ba e4bd b21b 06be 2b37 71bd
00000270: 73d3 df3d b747 1cbe 43b6 de3d 2816 d13d
00000280: 4256 f23d 6a15 69bd 939a a4bd b582 203e
00000290: 0c43 febd 5646 4b3d b9e2 2c3d 7573 7e3d
000002a0: a6c0 bc3d 0c43 8cbd 3293 693d 866b 0bbc
000002b0: 9b2c d33d 35c5 a63d df90 afbd fcfb 96bd
000002c0: fef4 163c 5311 a33d 02bd 593d 8c6a 863d
000002d0: 5472 ac3d 9307 1a3e e20a 87bd 8cd5 f33d
000002e0: b2b1 d5bc 766e ce3d da6f a43d 9ee1 2bbd
000002f0: 15cb 193e 4bf9 40bd f332 0d3d ddc0 06bd
00000300: cfda 8f3d 5e56 bd3d f9d2 3cbe 693d f0bb
00000310: 277a d3bd 66c7 0b3d f254 cabb 67f1 34be
00000320: 4057 2cbe 1218 ac3c e388 933d a373 b13d
00000330: c2a9 f93d 921e 7a3d abd6 0c3e 7724 3d3d
00000340: 3cc2 833b c83d ec3a fad7 17bd ab3d c5bd
00000350: bb74 8bbc de41 543e d0ed fbbc 4004 d23d
00000360: e32d 14be c4b6 20bd 080e 233e d07a ec3b
00000370: 76be debd a8bf 04be d459 da3d f801 b23d
00000380: 9d76 cdbd ee92 acbc 5158 e33d 6f61 34be
00000390: d33e b3bc 3138 173e b86d 133e a5b2 07bc
000003a0: 6776 99be 2dc7 74bd 08b9 943e a0b9 3d3d
000003b0: 286a 943d 6463 d6be b3e4 273d 6c96 bd3e
000003c0: b8ec 953d 3f72 eebc 35ba c1be 39c0 a63d
000003d0: 1cfb 803e c19b bbbc 0961 02be f3f8 debd
000003e0: 28bc 833d 3687 3b3e 1cd8 1dbd 643c 1dbd
000003f0: 56d1 e7bd 8530 06be 0fef a1bd 7880 9bbb
0.0013766974 0.3381504 -0.08571274 -0.37240824 0.1121843 -0.19993882 0.25449643 0.5063654
-0.2948365 -0.19847557 -0.14433211 -0.28998992 0.415195 0.29483917 -0.25407052 0.25104752
-0.4565199 -0.007577986 0.31088603 0.10910043 0.2413323 -0.03378613 -0.26029912 0.015214209
-0.0036643953 -0.08981772 0.28469113 0.08581689 -0.34285483 0.16047214 -0.34241182 0.05692387
0.47759065 -0.13582838 -0.08920636 -0.19994281 -0.46778145 0.39769462 0.1929662 -0.0065578455
0.1738085 -0.5552986 -0.23715648 0.23571953 -0.06791255 0.18425016 0.025283303 -0.34895906
-0.093160935 0.063218154 -0.15698464 0.3722439 -0.096196875 -0.31873474 0.17788383 -0.23293021
0.16418563 0.4939485 -0.16461469 -0.1992225 -0.05530078 -0.32462674 0.42755908 0.121135846
-0.19890122 0.17097688 -0.34433302 0.020713976 0.30716562 0.071838886 0.16967373 0.16392219
-0.2013995 0.10114759 0.07540746 0.15410203 -0.11729428 -0.03816033 -0.043732602 -0.061690334
-0.12099253 -0.14699537 -0.27293903 -0.3077296 -0.06797091 -0.081369676 -0.24286185 -0.34690922
-0.13261455 -0.1177485 0.2087374 -0.08550768 -0.10516869 -0.069366105 -0.077949256 0.20355581
0.034475084 0.0004093689 -0.042018414 0.1064603 -0.024025723 0.03353462 -0.07587936 0.05661031
0.06859585 0.059188135 0.019140957 0.0434848 0.026756318 -0.06173889 -0.016363474 0.018796293
-0.033184994 -0.096146494 -0.06388688 -0.066430844 -0.0028366386 0.010627342 -0.03772555 0.009476004
-0.18368562 -0.04524205 -0.10321888 -0.08486494 -0.0680533 -0.16240953 0.108575 0.1523421
0.04449383 -0.010119675 0.07938315 0.18705057 0.30880198 0.3283991 0.20346016 0.092773855
0.26003265 0.41795793 0.3143471 0.23860183 -0.16002718 0.111793354 0.11681683 0.12770268
0.13499518 -0.06003426 -0.025516924 0.07675064 0.14546031 -0.0737482 -0.17700501 -0.047774978
-0.12132258 -0.11168338 -0.13096502 -0.058890503 0.109290026 -0.15261732 0.108746074 0.10209304
0.118328586 -0.056905188 -0.08037295 0.15674861 -0.12415132 0.049627624 0.042208407 0.062121827
0.09216432 -0.06848726 0.057025142 -0.008509522 0.10311242 0.08143083 -0.08572554 -0.07372281
0.009213684 0.07962289 0.053158768 0.06563291 0.08420244 0.15041952 -0.065938726 0.11905965
-0.026085708 0.100796625 0.080291465 -0.041963212 0.15018876 -0.047112744 0.034472417 -0.032898773
0.07024156 0.09244989 -0.18439855 -0.0073315394 -0.10326033 0.034125708 -0.006174677 -0.17670213
-0.16830158 0.021007571 0.072038434 0.08664634 0.12190582 0.06106431 0.13753764 0.046177354
0.0040209573 0.0018023783 -0.037071206 -0.09630903 -0.017023435 0.20728251 -0.030753046 0.10254717
-0.1447063 -0.0392368 0.15923321 0.007216789 -0.10876171 -0.12963736 0.106616646 0.08691782
-0.10032389 -0.021066155 0.111008294 -0.17615293 -0.021880543 0.14767529 0.14397323 -0.008282338
-0.29973146 -0.05976026 0.29047418 0.046319604 0.0724681 -0.41872704 0.04098959 0.37028825
0.07320541 -0.029107211 -0.37837377 0.08142132 0.2519158 -0.022901418 -0.12732328 -0.10887327
0.06432372 0.18313298 -0.038536176 -0.03838767 -0.113192245 -0.13104446 -0.07906925 -0.0047455393

bias f4 [32]
00000000: 9e77 afbe b897 943d 860d 193e febb e2be
00000010: a077 46be f3a9 08be 50f0 68be 5299 d4be
00000020: cdff 4e3e 9bcd 4d3b 6e6d 41be 6f15 4cbe
00000030: 6be2 85be d487 3abe 76d5 51be 08d2 efbe
00000040: 3fd0 7ebe 26a1 e8bd 28f5 0dbf aaa2 7bbe
00000050: b63d 053e 4cae 463e 5c31 cdbe b437 5fbe
00000060: 7751 c8be ab23 22be a249 2cbd 4c85 5e3e
00000070: 4bed b4bd 5ff1 46be e291 bcbe 4324 1abe
-0.34270948 0.072555006 0.14946565 -0.44284052 -0.19381571 -0.1334608 -0.22747922 -0.41523224
0.20214768 0.0031403068 -0.188894 -0.19930051 -0.26149306 -0.18215877 -0.20491585 -0.4683993
-0.24884127 -0.113588616 -0.55452204 -0.2457377 0.13011822 0.19402426 -0.4007672 -0.21798593
-0.39124653 -0.15833919 -0.04206241 0.21730536 -0.088343225 -0.19428013 -0.3683005 -0.15052895

weight f4 [32, 32, 5, 5]
00000000: c476 35bd 2b99 d03c 1cc9 0abd 90b8 8dbc
00000010: 7b80 e1bc e98e 8fbd 30c2 763c b86f 74bd
00000020: 6593 cebb 4377 62bc 7c4b 08bc d074 cf3c
00000030: 7afd 62bd a017 39bd 3947 8bbd 1203 ddbb
00000040: e0d3 683d de39 0bbd a254 803b 84d8 60bc
00000050: b5a9 dcba 9543 23bc 2712 f1ba 4846 25bd
00000060: 8403 90bc e185 99bd cbbb 3e3c 8443 0d3c
00000070: c53e 253c 38e9 09bd 83b9 6bbd c630 633c
00000080: 05c8 673a c8ba a3bc e4af 21bd 0c41 75bc
00000090: 8cb7 a7ba ba2f 653c 2d98 63bc c5b9 303c
000000a0: b261 7e3b e04a 8a3d f973 9d3d 9d24 483d
000000b0: 4168 2f3d 8467 e2bc 1b1d 123d d6c1 cb3c
000000c0: 0533 883a d16c 843d d00a 113c 18d3 573d
000000d0: f4ac beba 7ab6 55bb 329a 2e3d ec27 39bc
000000e0: bf7e b43d 54fe f6bb ebe6 f2bc 57d2 89bc
000000f0: a073 3dbd 3e35 823d dbe2 1ebc 8464 e3bb
00000100: c86a a73c d731 0bbd 8bb7 fe3b 9428 37bc
00000110: dbbe 40bd d8ae f83c baeb 2ebd a560 26bd
00000120: 4b0b 4dbd 542c 80bd c6d1 90bd 671c 843d
00000130: dcac 70bd b3ab 203d ee72 0bbd 2046 91bb
00000140: e44f 773d d8fb 8dbd 48f6 c03c b31a 1dbd
00000150: e0a0 a13c 941a b13d 22d1 a3bd e081 a23c
00000160: a4f7 57bb ff28 2d3b 649c 923d 8a99 c3bc
00000170: 6f05 8e3d 72b3 ee3c a717 393c 70da d9bc
00000180: 263b 85bd fe05 44bd b523 5e3c 7132 03bd
00000190: 1431 babc a5ee d4bc 42b7 213c 0550 8abd
000001a0: 49db 50bd 60dd 6f3a ccf1 0e3b 117d 88bc
000001b0: c263 c8bc 8c5d ae3c a84a f8bb c410 eb3b
000001c0: daf4 1abd b032 b4bd 86d7 17bd 0ef2 813d
000001d0: cfd5 c63d d45a 9c3d dc75 553d 7c9e 993d
000001e0: cc47 debc 6755 373c 9c0f 5c3c 75d6 3ebd
000001f0: c207 88bd 198c 3b3d 6cfe 98bb 0374 9b3d
00000200: fcef 8cbc 4af5 293c 165b d43c a646 163c
00000210: 2c4b 983d eff5 7dbc a150 8abb 3e38 223d
00000220: 9de0 2fba 443c a43d 15d8 963c 64b6 fc3b
00000230: d244 ab3c 82b1 33bd f248 7c39 64ba a03a
00000240: 45a3 cf3c ee62 123d 821c cb3a 9bc7 033d
00000250: c0fe 16bd 0237 e23b 0ebf 04bc d795 7fbb
00000260: cb3e bebc abc9 11bb 14a4 85bc c16e 8b3b
00000270: 3688 a63c 041c 37bc 3442 09bd 1ff9 3ebb
00000280: 68ff cbbb 4143 3ebd d41b b7bc 78d5 06bd
00000290: e801 41bc c5a7 a33d ca88 be3d 7ab4 863d
000002a0: 569f af3d 5498 873d f073 b23c 52f3 da3c
000002b0: 7f6f 993c 745f a63b 029c f1bc ce1f 11bd
000002c0: 84d4 73bd 735f a4bd 9465 a8bd 46d1 6bbd
000002d0: 95b5 27bd 7241 31bd b83d 99bd fd22 debc
000002e0: f7ae 6bbd c8b0 2ebd 99b3 e13a 2300 1ebd
000002f0: ab08 c3ba 0af6 14bd 85b1 993d 87b3 483d
00000300: e802 d63d e390 ae3d 46da 173d ac45 d53c
00000310: e008 443d 0f4f 5e3d 4bff 783d 3c5e 263d
00000320: 02ab d6bc 3e5f 4e3c 4079 c2bc 0177 c83b
00000330: 15d9 efbc 995b 6a3c 2cbd 343c 35d3 023d
00000340: da14 373c c5c2 f53c 7ec8 fb3a da46 293c
00000350: 2d11 353d 74e5 2b3d 4597 813c 6529 c7bc
00000360: 8ba5 4b3d a511 163d 2aed debb f6c2 643d
00000370: 9b63 5abd b7b2 14bd 66a2 57bd 0417 3abd
00000380: 29ec 3fbd aaac 9f3d 3cac 183c 8fc0 233d
00000390: b1fc 4c3d a472 443d fcfd be3c a3a4 9c3d
000003a0: 2c48 313d 6957 883d 4108 683d c32e 3e3d
000003b0: 754b b13d 6fdc 103d 51c2 a43d c9c4 9f3d
000003c0: 0d90 cbbb e788 163d 44f9 32bd 20d8 4d3d
000003d0: ffb5 febb 55a1 abbc 7f31 9fbc 0d57 97bd
000003e0: 3d7e 4abd 70df 87bd 2c36 a9bc a58f be3c
000003f0: fb57 50bc 6798 03bc 879f a5bc 2876 ecbc
-0.044302717 0.025463661 -0.0338832 -0.01729992 -0.027527085 -0.0700968 0.015060946 -0.059676856
-0.006304192 -0.0138223795 -0.008318778 0.025324255 -0.055417515 -0.045188546 -0.06800694 -0.006744751
0.056842685 -0.033990733 0.003916339 -0.013723496 -0.0016835245 -0.009964843 -0.0018392251 -0.04035023
-0.017579801 -0.074962385 0.011641453 0.008622054 0.010085766 -0.03366968 -0.057549965 0.013866609
0.0008841756 -0.019986525 -0.039474383 -0.014969122 -0.001279579 0.01398843 -0.013891262 0.010786478
0.0038815555 0.067525625 0.07688136 0.048863042 0.042824034 -0.02763725 0.03567229 0.024872702
0.0010391182 0.064660676 0.008852676 0.05269155 -0.0014547394 -0.0032609985 0.04262752 -0.011301022
0.088132374 -0.0075376425 -0.029651126 -0.01682393 -0.046252847 0.063578114 -0.009697641 -0.0069394726
0.02043666 -0.033983078 0.007773345 -0.011179108 -0.047057014 0.03035681 -0.042705275 -0.04061951
-0.050059598 -0.06258455 -0.07071261 0.0645073 -0.0587586 0.039226245 -0.034045152 -0.0044334084
0.060378924 -0.06932801 0.023554936 -0.03835554 0.019730031 0.086476475 -0.07998873 0.01983732
-0.0032954002 0.002642214 0.071587354 -0.023876924 0.0693463 0.0291383 0.011297143 -0.026593417
-0.06505422 -0.047857277 0.013558318 -0.032030527 -0.02272848 -0.0259927 0.009870352 -0.06753544
-0.050990377 0.0009150114 0.0021811603 -0.016661199 -0.02446163 0.021284841 -0.007577259 0.0071736295
-0.037831165 -0.087987304 -0.037070774 0.063449964 0.097087495 0.076345116 0.052114353 0.075009316
-0.027133845 0.011189795 0.013431456 -0.04659124 -0.06642105 0.045787904 -0.0046690013 0.07590487
-0.017204277 0.010373423 0.02592234 0.009172117 0.07436213 -0.01550053 -0.0042210375 0.039604418
-0.000670919 0.08019307 0.018413583 0.0077121723 0.02090684 -0.043870457 0.00024059767 0.001226258
0.025346408 0.035738878 0.0015496167 0.03217278 -0.036864042 0.00690353 -0.008102192 -0.0038999224
-0.023223301 -0.0022245448 -0.01631359 0.0042551463 0.020328622 -0.011176113 -0.0335104 -0.0029140187
-0.006225515 -0.046450857 -0.022352137 -0.032918423 -0.01178024 0.07990984 0.09303434 0.06577392
0.08575313 0.06620851 0.021783799 0.026727352 0.018729923 0.005077297 -0.029493336 -0.035430722
-0.059528843 -0.08026018 -0.082224995 -0.057572626 -0.040944654 -0.043275304 -0.07482475 -0.027116293
-0.057539906 -0.04264906 0.0017219662 -0.03857435 -0.0014879903 -0.036367454 0.07504562 0.048999336
0.10449773 0.08523729 0.037073396 0.026034199 0.047860026 0.054274615 0.06079034 0.040617213
-0.02620459 0.01259595 -0.023739457 0.006117702 -0.029278317 0.014304065 0.01103143 0.031939704
0.011174405 0.0300001 0.0019209532 0.010331834 0.044205833 0.04196687 0.015819201 -0.02431173
0.04971842 0.03663792 -0.0068031745 0.05584999 -0.053317647 -0.03630325 -0.05264511 -0.045432106
-0.04685608 0.07796605 0.009318408 0.03997856 0.050045673 0.047960892 0.023314469 0.076485895
0.04328172 0.06657297 0.056648497 0.046431314 0.086569704 0.03536647 0.080448754 0.07801206
-0.0062122406 0.036751654 -0.04369475 0.05025494 -0.0077731605 -0.020950953 -0.019432781 -0.073896505
-0.049436796 -0.06634414 -0.020655714 0.023261854 -0.012716289 -0.008031941 -0.02021767 -0.028864935

bias f4 [32]
00000000: 37d4 b0bd 7ab6 0bbe 7e96 4abe 4f17 5fbd
00000010: b397 af3c 73d2 38bb 69c0 24bd 4540 19be
00000020: bdd7 f1bd e55f da3d 5fb7 373d 89c5 08be
00000030: 4f92 a0bc 8d6e 0a3c 29db b2bd ccf9 58be
00000040: 5da6 84bb 1213 90be 736c d4bd c7ac 9cbd
00000050: 1709 16bd 1a75 183d c749 98bd 0a3f 48be
00000060: 9c62 3dbe f31c 45be e94f 61bd eed2 483b
00000070: c814 d0bd f7cb 26be a3e3 66bd 3dec 08bd
-0.08634227 -0.13643828 -0.1978397 -0.05446559 0.02143464 -0.002820161 -0.04022256 -0.14965923
-0.11808727 0.10662822 0.04485261 -0.13356604 -0.019601015 0.008449209 -0.08733208 -0.2118904
-0.0040481524 -0.2813955 -0.103722475 -0.07650142 -0.036629763 0.03722105 -0.07435947 -0.19555297
-0.18494648 -0.19249325 -0.05500785 0.0030643302 -0.10160214 -0.16288744 -0.056369435 -0.03342842

weight f4 [64, 32, 5, 5]
00000000: 1758 063d 21f8 823b e7f3 af3c 48e6 c0bc
00000010: 3a75 953d 81b0 cf3a 0a59 313c a6f5 2cbd
00000020: f41b 89bd 1f0f c6bc e7db 15bd 0c05 2f3d
00000030: 611c 13bd 9a9e 74bc 629e 91bc 3ad0 d0bb
00000040: e4b6 4fbd 8642 4bbc 4c67 58bd 677e 26bb
00000050: 8ff5 383b 7f3f 8abb c65b 97bc ad25 9c3a
00000060: 213a 80bb ef46 c73c 03ee 203c ee38 783d
00000070: 78bd 9d3d 77f7 063d d78e d8bb d884 61bd
00000080: ed4b 13bd 12cd 693d 80f3 a53c 0be0 8fbc
00000090: 09fb 23bd 70c4 ac3b fbd2 fe3c bd4b eebc
000000a0: 9f09 d1bc 18f7 83bc 139f 123c 24f4 2d3b
000000b0: e260 ea3c 39f6 74bb de6b 233b 2bbe d23c
000000c0: a101 5f3d c140 703d 2798 8fbd 98d8 56bc
000000d0: 78f2 223a 3a91 abba e5df 3abc 940e 183b
000000e0: 3b2f db3c 9ccf f6bc c009 0db9 6be5 0a3c
000000f0: 9406 1f3b 988f 4bbb 101d 90bd 77f6 92bd
00000100: dc04 cebb 909d 263b fbee 653d 1d30 8d3c
00000110: a293 75bd 0304 7e3c bb7f 8abc 7ac4 5dbc
00000120: 3e27 86bd d919 9ebd f9f2 b7bc 26e0 6ebc
00000130: 3301 3abd a77b d03c 0f3a b3bc 5a55 20bd
00000140: 7c60 d2bc b08c 69bd 10ee a43b 1f7d 963b
00000150: 963a 33bc e868 0b3d 8adf da3c e2b7 bebc
00000160: d8a8 773c 850e 7f3d c9fe 523d f5de dd3c
00000170: 5f49 9f3c ffe1 983c ba58 9f3d de8d 023c
00000180: 334b bf3c 103f bcbc a863 b03b 0cd6 1e3c
00000190: d88d 263d 7756 f83b 60c3 313d a5b2 863d
000001a0: 33b9 2c3c 35e8 ac3c 553b 843c 05f6 b0bc
000001b0: c56c 30bd 7e47 763c b698 b3bc ad9f 6dbc
000001c0: 577a 533c 35f7 74bc 7ceb 9d3d 78d7 24bc
000001d0: efa9 8d3c 5ed4 39bc 0575 ddbc 1f81 d13c
000001e0: fe67 b33d f0bf 783d 84dd 463d e12e 0e3d
000001f0: 1c02 2e3d c72b 9ebc e89f 423d a392 2f3d
00000200: 5c05 e8bc f7b2 19bd ac6b 013c 10af 143d
00000210: d9ed abbb 1b76 a0bd be59 90bd 0c1e 0c3d
00000220: b258 c7bb 3195 7fbd 29e9 9abd 3196 f5bd
00000230: 5a67 843d ab45 883d 9ab7 9dbc 2a5f b3bd
00000240: 6a42 37bd a1e8 7a3d fc2d 593d 5a52 853c
00000250: ee90 67bd 05b1 91bb 4ed4 023d ad0a 713b
00000260: b563 53bd fcc7 7ebd 479a 1abd 2d6c a23b
00000270: 68d7 ca3c 119b 3cbd 156d 19bd 629c 113c
00000280: 0648 0c3c 4a83 b93c b3c0 06bd 607c 263d
00000290: d28f 2a3d 62c3 dd3c a380 5dbc a5c0 eebc
000002a0: 36a5 3bbd 1af9 a8bc e0c0 703d 5bcd b7bb
000002b0: ee63 873b b10d 023d 9a9b 023c 43a0 0f3d
000002c0: d498 943d 6ab8 5b3d 7998 00bd 1f77 e0bc
000002d0: 1beb 91ba 5202 173d cbbb 3dbd 3060 88bd
000002e0: b648 01bd 597d 29bd 4ed1 df3c 3bb0 06bd
000002f0: a8ee 8ebd d5b9 5d3b a9c0 8f3d 44b5 183d
00000300: a0a7 abbc dbb9 52bd b03c dcbb fa31 853d
00000310: 48da 3d3d 6bd9 103d c70a 1a3c 4872 ca3c
00000320: cb95 6abc 3367 5f3d 46d4 9e3b 0f9b cdbb
00000330: 5846 97bd 7f4d 193d 6a72 c1ba 769d 1b3c
00000340: 3b47 b93c 7c5b 8dbc d1ff 73bc c9d7 5bbd
00000350: 5c66 ad3b 0de2 1c3d ba6e d9bc c162 2cbc
00000360: 12cc 30bb cad1 d8bc 32b4 463d 0243 dcbc
00000370: 5bd9 ce3c 5f7c 553a 5b96 3b3d 6eb8 633b
00000380: a433 e0bc e70b 22bd 17fd dd3a 1413 b0bc
00000390: 52b7 a4bb f553 dc3c 1b17 ea39 65b4 253b
000003a0: ec4a 453a 316d e3bc ac97 2c3d a9b8 5fbc
000003b0: f691 3dbd ec9c 25bc 93fd 94bc 87b0 c43c
000003c0: 5b70 dbbc 9ad2 5abd 5e3f 82bd 3080 5abc
000003d0: c3ce 293d 10fa 03bc 0afc debc 061a 48bd
000003e0: ff36 37bd 57b4 99bb 8e55 a33c 8f48 a3bd
000003f0: 035d 2cbc d326 863c 865f 10bd 0c23 4f39
0.032798853 0.0039968644 0.021478606 -0.023547307 0.0729775 0.0015845449 0.010824451 -0.042226456
-0.06694785 -0.024177132 -0.03658667 0.042729422 -0.035915736 -0.014930392 -0.017775718 -0.006372479
-0.050711527 -0.012405997 -0.052832887 -0.0025404932 0.0028222536 -0.004218995 -0.018476378 0.0011913084
-0.0039131795 0.024325816 0.009822371 0.060601167 0.07702154 0.032950845 -0.0066088247 -0.05505833
-0.03596108 0.057080336 0.020257711 -0.017562887 -0.040034328 0.0052724406 0.031106463 -0.02908885
-0.025517283 -0.016109034 0.008949059 0.0026543224 0.02861065 -0.0037378205 0.002493612 0.025725445
0.054444913 0.058655504 -0.07011443 -0.013113163 0.000621594 -0.0013089546 -0.01140592 0.0023202049
0.02675592 -0.030128293 -0.0001345044 0.008477549 0.0024265395 -0.003106093 -0.07036793 -0.07175916
-0.0062872004 0.0025423504 0.056136113 0.017234856 -0.059955247 0.015503886 -0.01690661 -0.013535613
-0.065504536 -0.07719774 -0.022454726 -0.014579808 -0.0454113 0.025449587 -0.02187827 -0.039143898
-0.025680773 -0.057018936 0.005033262 0.0045925523 -0.010939261 0.034035593 0.02671792 -0.023281042
0.015115939 0.062269706 0.051512513 0.027083853 0.019444166 0.01866245 0.07780595 0.007968394
0.023351287 -0.02297929 0.0053829737 0.009694587 0.040662616 0.007578667 0.043399215 0.065770425
0.010542202 0.021106819 0.016141573 -0.021601686 -0.04307248 0.0150316935 -0.021923404 -0.014503402
0.012907586 -0.014951517 0.07710931 -0.010061137 0.017292945 -0.011342136 -0.027033338 0.025574265
0.08760069 0.06072992 0.048551098 0.034712676 0.04248248 -0.019307984 0.04751578 0.042864453
-0.028322868 -0.03752419 0.007899206 0.036299765 -0.0052468595 -0.07835027 -0.07048367 0.034208342
-0.0060835714 -0.06239814 -0.07564003 -0.11991537 0.06465025 0.06653913 -0.019252587 -0.087583855
-0.04474107 0.06125701 0.05302237 0.01627462 -0.0565347 -0.004446151 0.03194075 0.0036780045
-0.05160876 -0.06220244 -0.037744787 0.004956743 0.024760917 -0.04604632 -0.037457544 0.008887382
0.008562094 0.022645611 -0.032898616 0.040645957 0.041641064 0.027070705 -0.013519439 -0.029144594
-0.045811854 -0.020626593 0.05877769 -0.005609197 0.0041317856 0.03175134 0.007971669 0.035064947
0.07255712 0.053642668 -0.03139541 -0.027400551 -0.0011132689 0.036867447 -0.04632167 -0.06658971
-0.031563483 -0.041379306 0.027321484 -0.03288291 -0.06979114 0.0033832688 0.07019169 0.037282243
-0.020953953 -0.051446777 -0.0067211017 0.06503673 0.046350747 0.035363596 0.009401984 0.024712697
-0.01431794 0.054541778 0.0048470823 -0.006274588 -0.07386464 0.03742742 -0.001475883 0.009497991
0.022616973 -0.017255537 -0.014892534 -0.053672586 0.005291743 0.038301516 -0.026542056 -0.010521592
-0.0026977104 -0.026467223 0.04851169 -0.02688742 0.025250128 0.0008143838 0.045797687 0.003474738
-0.027368374 -0.039562132 0.0016936389 -0.021493472 -0.0050267363 0.026895503 0.00044649173 0.0025284525
0.0007526118 -0.027762027 0.042136833 -0.013654866 -0.046281777 -0.010108214 -0.01818732 0.024009956
-0.026786974 -0.0534235 -0.063597426 -0.013336226 0.04145695 -0.008055225 -0.027219791 -0.048852943
-0.044730183 -0.0046906876 0.019938257 -0.07972824 -0.010520223 0.016375935 -0.03524735 0.00019754114

bias f4 [64]
00000000: e7fe a3bd 576d 81bd 2db3 aa3c f3df 8ebd
00000010: 48ea 3fbc 5a0d ddbb 0a98 09bd 29d7 ccbc
00000020: 08c9 82bd 18f2 55bd 1e0c 77bd 4c21 1ebd
00000030: 3c71 8bbc 5173 a13c 6f12 27bc 7285 42bc
00000040: fb88 7fbd d14e d4bb 26db cfbc 513f 19bd
00000050: a6f3 17bd 2e13 0e3a b473 20bd 6957 63bc
00000060: 2a41 073d fc75 03bc a641 f2bc 4ee8 04bd
00000070: 519b c2bd 1f82 1dbd aaba afbd 5ee8 70bd
00000080: a221 91bc e79a ccba 196a c3bd fd71 71bd
00000090: 4fea 1bbc 8cde 11bd 202d bdbb dabb 36bc
000000a0: ee36 97bc 7b6a 6abd b282 01be 17d3 c7bb
000000b0: 3790 c63c 3c19 63bb a7af 38bd 6f25 70bd
000000c0: 39fc e1bc 875e 333c 6c79 c1bb 5671 94bd
000000d0: 98e5 98bd 8cf9 b3bc f3ef b03b 7be5 aaba
000000e0: 9d3c 31bc a638 46bb 0bc8 233d f6b8 71bd
000000f0: 5a0c 71bc e7bb c5bc 4d85 dcbb 0a19 bcba
-0.08007603 -0.06319683 0.02083739 -0.06976309 -0.011713572 -0.0067459764 -0.03359226 -0.02500494
-0.06386 -0.05223283 -0.06031429 -0.038605973 -0.017021768 0.019708307 -0.010197266 -0.011872636
-0.062386494 -0.006479122 -0.025373053 -0.0374139 -0.037097596 0.0005419728 -0.039172843 -0.013875821
0.03302113 -0.008023735 -0.02957232 -0.032448106 -0.095022805 -0.03845417 -0.08580525 -0.058815353
-0.017716233 -0.0015610129 -0.09541721 -0.0589466 -0.009516313 -0.035612628 -0.0057732016 -0.011153186
-0.01845881 -0.057230454 -0.12647513 -0.006098162 0.024238689 -0.0034652492 -0.04508939 -0.05862945
-0.02758609 0.01094783 -0.005904367 -0.072481796 -0.074656665 -0.02196958 0.005399698 -0.0013038361
-0.010817674 -0.0030246167 0.039985698 -0.059014283 -0.0147124175 -0.02413745 -0.006729758 -0.0014350724

weight f4 [64, 1024]
00000000: 067d f1bb 88a6 f8bc 28b7 7b3c 69ca 08bd
00000010: 364c e6bc 2ff7 513b b807 07ba 32ca 2bbb
00000020: 0952 133d b4fb 223d 8632 233d 8b14 f2bb
00000030: 9309 183d 6c44 1fbc e286 bfbb 7f52 d6bb
00000040: e513 93bc b821 63bd 7dbf 52bd 0333 9bbc
00000050: 0824 11bd ad30 f4bc dc4e f23c 60d9 adbc
00000060: 2b7f 2b3d cdd6 ffbb 50a1 1ebd bb32 89bc
00000070: 8915 bc3b 620d bcbc 64ba 48bd 356e 80bc
00000080: 7aba 073d 9aae 3abd fb3c 943c 0d3a fbbb
00000090: 10a2 e3ba 8099 953c 14d6 50bc 9f7c 7c3c
000000a0: 88bc 2dbd 1c40 243c 13e9 6f3d 31d5 fa3c
000000b0: 634e 2fbd e3af 2abc 8cbb 433c 625a 303c
000000c0: 6b22 67bc c97f 1e3c 5ccb 523b 41b0 9bbc
000000d0: 7b51 81bc de07 a2bb 1a9f 5dbc 0e7f ee3c
000000e0: 1a12 3abd 1336 a9bc 6268 46bd f574 65bc
000000f0: 41b4 4cbd 8d14 29bd 6a12 85bd 79a9 05bd
00000100: a5e7 eabb 2316 0bbc ba54 11bd a196 52bd
00000110: 38b1 2bbb 619b 2d3d 598c 4dbc aa1b d5bc
00000120: ef3b 99bc 4870 983b 4cfa 73ba 1894 21bc
00000130: c3bb fb3c 9f0c 63bd 02f6 9dbc 08f8 dfbc
00000140: 9f7b f23c b484 19bd df0e 0d3d a23f 00bd
00000150: 7103 a63c cba4 cd3c 59fa d83c 14e4 9cbc
00000160: a7a0 7dbc 44e4 27bd 3461 66b9 c3d4 38bd
00000170: 9eef 41bd 9cad d13c 0a16 d0bc 77fd 56bc
00000180: c7cc cfbc 7b95 24bd 4241 edba df12 d4bc
00000190: 9370 403c 739e 6fbc fa38 16bc 1b83 5dbc
000001a0: f51c 043d d594 d53c 6280 543d f593 b63c
000001b0: 687a e73c 5819 6c3b db8d 34bd b223 ff3c
000001c0: 99a0 2ebc bcf3 1cbd e1b0 89bc fa8a 8bbd
000001d0: 7e4a 943c 9b9c dabb 94fb 333c 8a18 2fba
000001e0: fc2b be3c f5cf 15bb f127 72bd 491e a13b
000001f0: c183 ec3c 6d8b 74bc 24dd dfbb 52c4 aebc
00000200: 527f bdbc 2ee9 a2bc fa40 893c fe92 2c3c
00000210: 7a45 283d 225c d03c 60c3 7b3d 01bb adbb
00000220: 13ca 913d a6c8 993c c1ce 043d 1ccb 0d3c
00000230: e420 ea3c af5c c1bc 3ba7 0cbd d275 89bb
00000240: e68b 533d cd27 0b3d 4908 a23b 6038 843d
00000250: ed2c fd3c 39f3 993d 5720 963d 7ebb 303d
00000260: 3f41 bdbb 9d90 d93a aabe 8abc 5cf9 65bc
00000270: 358b cfbc d5d5 cbbb 4022 b0bc 72e0 11bd
00000280: 112a 09bd e90b dfbc db92 07bc ae8b 153b
00000290: 573d 1cbd 8241 36bd 595d 98bd 25db 00bd
000002a0: b762 7d3c 9858 c2bc 0380 4fbb 0f45 6fbc
000002b0: d5af b23b 40c7 22bd c895 b1bc 14f4 c53b
000002c0: 6322 84bc 4327 863c 4ba3 69bc bee7 153d
000002d0: 901e 893b 876f 573d f194 d4bb 4576 083d
000002e0: 4479 eebc 86d9 d5bb 6bbd 41bd 911b 37bd
000002f0: 814f 7bbc 9cf6 f7bc 51ba acbd d20d c53c
00000300: d377 543c f9a0 7cbd 10d1 933c 744b 96bc
00000310: 18b3 17bd 560f 9bbb 570f 3e3c 5b1d 083c
00000320: a0e0 05bd 1d66 80bd 688c 103c c996 afbc
00000330: 00dc c5bb 4b94 10bd 8442 40bd 02ec dabc
00000340: 6a83 dd3c 50c0 4ebd 41a1 a83b 3585 043d
00000350: 2986 f23c b23a 553d a89c 6a3d a671 9c3b
00000360: dbcd 0f3d 32df a13c be17 763d 9f44 0e3c
00000370: f975 b13c 0c4d 133d c37c 803d 5c6b 03bc
00000380: d5cb 5cbd 72ed 90bd 8264 92bb b767 06bd
00000390: 0772 abbc 7292 d23a 6828 993c fd2b 70bd
000003a0: f3ea 5b3d a454 13bd 5c7e 45bc 3788 7fbc
000003b0: 18d1 7cbb 4592 86bc 337b a33c 08d0 6cbd
000003c0: 3a4a 0cbd a81e 00bd 9c5e dbbb 2e2d c43c
000003d0: 450c e43c a3dd 74bd d334 ecbb 0aa4 293d
000003e0: 9588 313c d67d 80bd 0af4 96bb 002d 1c3d
000003f0: 937a 97bd 4db9 45bd 41d5 3bbd 7845 49bb
-0.0073696403 -0.030352846 0.015363492 -0.03339616 -0.028112512 0.0032038202 -0.00051509915 -0.0026213047
0.035966907 0.039790824 0.039843105 -0.007387703 0.037118506 -0.009720903 -0.0058449367 -0.006540596
-0.017953822 -0.05545208 -0.05145215 -0.018945223 -0.035434753 -0.029808367 0.029578619 -0.021221817
0.041869324 -0.0078075887 -0.03872806 -0.016747823 0.005739872 -0.0229556 -0.04900588 -0.01567755
0.033136822 -0.04557667 0.018095484 -0.0076668323 -0.0017367024 0.018261671 -0.012746353 0.015410571
-0.042416126 0.0100250505 0.058571886 0.030619236 -0.042799365 -0.010417911 0.01194657 0.010763736
-0.014107327 0.009674021 0.0032164669 -0.019004943 -0.015785923 -0.0049447855 -0.013526702 0.029113319
-0.04542742 -0.020655667 -0.04843939 -0.0140049355 -0.04997659 -0.041279364 -0.06497653 -0.032632325
-0.0071687275 -0.0084891645 -0.035481192 -0.051413182 -0.002619816 0.04238451 -0.0125456685 -0.026014168
-0.018705336 0.004652057 -0.00093070115 -0.009861968 0.03072918 -0.05543196 -0.019282345 -0.02733995
0.029599963 -0.03748007 0.03443801 -0.031310685 0.020265313 0.025102993 0.026486563 -0.019151725
-0.015480197 -0.040989175 -0.0002197072 -0.04512478 -0.047347657 0.025595479 -0.025401134 -0.013121954
-0.0253662 -0.04018162 -0.0018101113 -0.025887905 0.01174559 -0.01462518 -0.009168858 -0.0135200275
0.032254178 0.026071945 0.051880248 0.022287348 0.02825661 0.0036025848 -0.044080596 0.03114495
-0.010658407 -0.03831838 -0.016807975 -0.06813617 0.018101927 -0.006671501 0.010985274 -0.0006679377
0.023214333 -0.0022859548 -0.059120122 0.0049169404 0.028871419 -0.01492582 -0.006831782 -0.021333847
-0.023132 -0.01988658 0.016754616 0.010533093 0.041081883 0.025434557 0.06146562 -0.0053018336
0.07118621 0.018772434 0.03242374 0.008654382 0.028580137 -0.023603765 -0.03433917 -0.0041949535
0.05164709 0.033973504 0.0049448353 0.06456065 0.030905211 0.07517094 0.07330387 0.043147556
-0.0057756 0.0016598884 -0.016936619 -0.014036503 -0.025334934 -0.006220559 -0.021500707 -0.03561444
-0.033487383 -0.027227359 -0.008274759 0.0022818851 -0.038144436 -0.044496067 -0.0743968 -0.031458993
0.01546543 -0.023723885 -0.0031661994 -0.014603867 0.0054530897 -0.0397408 -0.021677867 0.0060410593
-0.016129678 0.016376143 -0.0142601235 0.03659796 0.0041845515 0.052596595 -0.0064874818 0.033315916
-0.029110558 -0.006526175 -0.047299784 -0.044704024 -0.015338779 -0.03026896 -0.084339745 0.024054442
0.012968021 -0.061676953 0.018044025 -0.018346526 -0.03703603 -0.004732053 0.011600337 0.00830778
-0.032684922 -0.062694766 0.008822538 -0.021434205 -0.006038189 -0.035297673 -0.046938434 -0.026723865
0.027040202 -0.050476372 0.005146176 0.0323536 0.029604988 0.05205793 0.057278305 0.00477429
0.03510843 0.019759748 0.060081236 0.008683353 0.021662699 0.03596215 0.062737964 -0.008021202
-0.053905327 -0.07076539 -0.004467548 -0.032813754 -0.020928396 0.0016065373 0.018696025 -0.0586357
0.053690862 -0.03596939 -0.012054052 -0.015596441 -0.0038576778 -0.016427169 0.019956207 -0.05781558
-0.034250475 -0.031279236 -0.006694628 0.023947325 0.027837882 -0.05978168 -0.0072084456 0.041416205
0.010835786 -0.06274001 -0.0046067284 0.038128853 -0.07396426 -0.04827242 -0.04585767 -0.0030711573

bias f4 [64]
00000000: f39b 973c a31b 3c3a e0f6 183c 22ee 30ba
00000010: 607c 5fbc 3678 303d bed7 cebc 2881 b13c
00000020: 5d88 32bc c6f1 a83c 7843 693b ba0e 6dbc
00000030: 50ab 1ebd 54a4 0bbd f10a 013b 8ae4 543c
00000040: 16f6 213c 2813 b9bc 62ee de3c c606 36bd
00000050: 5923 e6bc dfd1 cc3c 2ac4 b3bc a332 6abb
00000060: a274 25bb 4190 8dbc c72d 40bd 8408 2cbc
00000070: 79f2 edbb 87ef 2e3c 62f4 f73c 052c 3cbd
00000080: 0107 ed3b 95cb 7b3b 106a b9bb 2677 16bc
00000090: 7ee3 623c 3b21 00bc b0a8 bd3c ef0f 2abd
000000a0: f91f e5bb 8be6 b23c 2f2f fe3c 1073 bbbc
000000b0: 2a8e 32bc 8b13 babc 20a9 d9bb c77b eb3c
000000c0: 681e 243c 2ad8 243d ac8c 39bb 1efd ae3c
000000d0: df54 33bc 71d1 453d 0ed2 c939 d4e6 153b
000000e0: 81a7 283d d2ed 0e3c 19b8 99bc 5bbb 81bc
000000f0: 6458 28bc 98bb c4bc e07d f33b 53f1 cfbb
0.01850698 0.0007175749 0.009336203 -0.0006749352 -0.013640493 0.043083392 -0.025249358 0.021668032
-0.010896769 0.020623099 0.0035593193 -0.014468843 -0.038737595 -0.034092262 0.001969036 0.012993941
0.009885332 -0.022592142 0.02721328 -0.044440053 -0.028093027 0.025002418 -0.021944124 -0.0035735748
-0.002524652 -0.0172807 -0.046918657 -0.010500077 -0.007261571 0.010677225 0.030267898 -0.045940418
0.007233501 0.0038420905 -0.0056583956 -0.009183681 0.013848184 -0.007820423 0.023151726 -0.0415191
-0.006992337 0.021838447 0.031028358 -0.022882015 -0.010898152 -0.022714397 -0.0066424757 0.028745545
0.010017015 0.040245213 -0.0028312607 0.02136093 -0.010945528 0.048295442 0.0003849421 0.002287318
0.04117537 0.008723693 -0.018764542 -0.015836408 -0.01027498 -0.024015233 0.007430777 -0.0063459068

weight f4 [10, 64]
00000000: e929 683e a60a 0db9 db22 88be 61f7 8e3d
00000010: 7049 f43d 5cf2 bdbe dfe9 abbd 07cc 40bd
00000020: 4e25 83be 5997 24bb ef23 943d b412 033e
00000030: dea8 8e3d b3d9 78be cdfd 923e 3eb5 77bd
00000040: f626 263e 5e2a 79bd 296e 92be 1f40 1ebe
00000050: 2698 03be 3111 8cbe 089e 0abd 633a 47be
00000060: 2eb0 8c3e b7ff 1bbe 8de3 72be b781 943d
00000070: b4ed d23d 331e b43e c0a2 6ebd 5880 75be
00000080: 0feb abbd 690c efbc 1ddf 0ebe 3b16 5b3e
00000090: 60c1 af3e 51e9 d6bd 43ea a53d a024 f2bd
000000a0: 0261 793e b2c7 96bd 6db2 843e 3318 893e
000000b0: 6b12 71bd 41c3 9cbe a2ce c8bd f4cd f0bd
000000c0: ab01 00be dbb4 883e b16c 2c3e 49e5 e6bd
000000d0: 9e65 573e 606d a33e 69a6 04bb ee54 f43d
000000e0: 026b a93d 3ab0 09be f12e 8fbe 1bd9 b6bd
000000f0: 3763 b3be 4764 dc3d 6b50 623e 9e4f 693c
00000100: 8e25 83be 58f3 af3e 10dd 8ebe 39f6 3dbe
00000110: 4d3f 883e 89f8 adbe b2c1 dd3e db68 9ebd
00000120: f783 083e 8355 a8bd ef27 8d3d 4bb4 67be
00000130: 7f59 b73e c161 8f3e d35d c23d 538c 93be
00000140: 4da8 ed3d 71d5 9d3e 2ca6 803e 8187 673e
00000150: 9945 93bd 7080 8e3d 1861 633d dc10 f43b
00000160: 432c d0bd 9118 c4bd 274c 48be 17d2 253e
00000170: d5d2 77bd 0f1a 883e ad6c 34be ecd1 873d
00000180: 21ac 0b3d c3b7 93bd 3301 02be a0f4 e2be
00000190: 70a6 9b3e 2764 38bd ab54 ae3d d0ee d03e
000001a0: eb24 483d 83e5 6dbe c73f c6be 77d1 383e
000001b0: 74b8 693d 0820 cbbd 4975 3bbe 69ad ac3e
000001c0: da46 55bd 6418 c0bd 0469 8b3e f8ae 523e
000001d0: 1d05 b43d 6e8b abbe d741 553d 4eed 3abe
000001e0: 9f11 15be ed0e 90be b6fe 85bc 154a 183e
000001f0: eb44 443e ea97 903e 6ffe b5bd f19e 19be
00000200: 069e 5fbd 843b ea3d daf6 e13d 4d00 513c
00000210: 28df e33d 7162 9cbc 24b2 a7be dc01 db3b
00000220: f9d9 9dbe a84b 5bbd 3212 a23e fcff 083e
00000230: 7aa5 ba3d d31c 5bbe 5fa3 b03e f011 103e
00000240: d357 263e 0d95 1fbd 1186 91bd 3cee 34be
00000250: 51f4 063e 202c 813e f92b ccbe a487 4a3e
00000260: d906 c5be 4320 6c3d 14f4 903c 9e7a a6be
00000270: 800e a53c 4ae7 b6be 1e07 16be 8b77 363e
00000280: a86d 94be 8081 30be 5a43 0e3e fb38 a93d
00000290: ef49 8dbe f8ea 50bb 1c65 7f3e 6360 49be
000002a0: a833 a3be ed7b 973e 4d6a 0f3e 4dc1 a0bd
000002b0: 23e7 723d 215b 7abe 2adf 3a3e 80f5 1ebd
000002c0: 0c9a 063e 273b 97be c3b0 f03d 8ebe 3a3e
000002d0: a77d 9c3e 3f47 cb3e 63ea 6c3e 505a af3e
000002e0: 3140 733e 6b97 1b3d 4b31 b0be a312 b43d
000002f0: a331 38be f79a ae3d f9a5 68be 0cfa 353e
00000300: 7b1b 4dbe f138 a63d 2ece 553c 1932 79be
00000310: 20d2 a0be 9cd3 473e f10c de3d b064 2d3e
00000320: 1379 4a3d 11a6 2b3e bc59 873d b358 f0bd
00000330: ad10 4fbd 8d9a fbbd c80a 86be fa28 803e
00000340: a8eb c8be 9091 73be 90f9 443d 8f4b 0abe
00000350: 8130 5c3e cff6 143e 009c 4abe d70b 85bd
00000360: 1c8a 283e c273 dcbd 29b9 713e cbc3 ecbd
00000370: fb95 ba3d 4b4c 4f3c e54f a03e d557 3cbe
00000380: 8c72 223e b4a3 f73b 48bd ea3d 6b80 45be
00000390: da04 2d3c 0e31 60bd a491 0e3d 268d 3b3d
000003a0: 6c3b f6bc a8dc e73d f4ff 21be 419c 54be
000003b0: fa8c 8d3d fffe 6fbe 1077 823e a964 b13d
000003c0: 9504 a8bd 6cf0 3cbd c156 61be b9c0 ed3c
000003d0: 59d5 6bbe 613b 0bbe a1d2 b2bc 3d0f f13d
000003e0: 8d66 d43d 2105 f7bd 4dae 85bd 1cc9 bfbd
000003f0: d9ff 8dbc 9e47 513e 7beb 613e 559f 853e
0.22672237 -0.00013450775 -0.26589093 0.069807775 0.119280696 -0.37098968 -0.08394217 -0.047069576
-0.256144 -0.0025114624 0.07233416 0.12800103 0.069658026 -0.24301796 0.2870926 -0.06047558
0.162258 -0.06083142 -0.2859967 -0.15454148 -0.12851009 -0.27356866 -0.033842117 -0.19455867
0.27478164 -0.15234266 -0.23719616 0.07251304 0.102992445 0.3517929 -0.05826068 -0.2397474
-0.08394443 -0.029180722 -0.13952298 0.21395199 0.3432722 -0.1049372 0.081013225 -0.11823392
0.24353412 -0.073623076 0.25917378 0.26776275 -0.058855455 -0.30617717 -0.09805037 -0.117580324
-0.12500636 0.26700482 0.16838337 -0.112742014 0.21034858 0.31919384 -0.002024079 0.119302616
0.08272363 -0.13446131 -0.279655 -0.08928128 -0.35036632 0.10761314 0.2210099 0.014240174
-0.2561459 0.34365344 -0.27903032 -0.18550958 0.26610795 -0.3397868 0.4331184 -0.07734843
0.1333159 -0.08219435 0.06892382 -0.2262737 0.35810468 0.28004268 0.09490552 -0.28817996
0.116043665 0.30826905 0.2512678 0.22610284 -0.07191009 0.06958091 0.055512518 0.007448299
-0.10164692 -0.09574998 -0.195603 0.16193424 -0.0605038 0.2658238 -0.17619582 0.06631836
0.0340997 -0.07212784 -0.1269577 -0.4432726 0.3040042 -0.045017388 0.08512243 0.408072
0.048863333 -0.23232083 -0.38720533 0.18048654 0.057060674 -0.09918219 -0.1830646 0.3372605
-0.052069522 -0.09379652 0.27228558 0.20574558 0.08790038 -0.33504814 0.052064743 -0.18254587
-0.14557503 -0.28136387 -0.016356807 0.1487201 0.19166915 0.282409 -0.0888642 -0.15002038
-0.054594062 0.11437133 0.11033411 0.012756419 0.11126548 -0.01908991 -0.32753098 0.0066835713
-0.30830362 -0.05353895 0.31654507 0.133789 0.091135934 -0.21397714 0.34499642 0.14069343
0.1624444 -0.038960505 -0.07105649 -0.17669004 0.13179137 0.25228977 -0.39877298 0.19778305
-0.38481787 0.057647955 0.01769451 -0.32515424 0.020148516 -0.35723335 -0.14651152 0.1781904
-0.2898991 -0.172369 0.1389288 0.08262821 -0.2759547 -0.0031878334 0.24940914 -0.19665675
-0.31875348 0.29586735 0.14005394 -0.07849369 0.05930246 -0.24448825 0.18249193 -0.038808346
0.13144702 -0.29537317 0.117524646 0.18236753 0.30564615 0.39702794 0.23136286 0.3424859
0.23754956 0.0379862 -0.34412608 0.08792617 -0.17987685 0.08525651 -0.22719564 0.17771167
-0.20030014 0.081163295 0.013049645 -0.24335517 -0.31410313 0.19514316 0.10842312 0.1693294
0.04943187 0.16762568 0.06608912 -0.11735668 -0.050553013 -0.122853376 -0.261801 0.25031263
-0.3924229 -0.23785996 0.048089564 -0.13505386 0.21502878 0.14547275 -0.19786072 -0.06496399
0.16458935 -0.107642666 0.23605789 -0.11560782 0.09110638 0.012652467 0.31310955 -0.1839288
0.15864009 0.0075573567 0.11461884 -0.19287269 0.010560239 -0.054734282 0.034806862 0.045788907
-0.030057631 0.11321384 -0.15820295 -0.20762731 0.06911655 -0.23437117 0.25481462 0.086617775
-0.08203999 -0.04612772 -0.2200575 0.029022561 -0.23030604 -0.1359687 -0.021828951 0.117704846
0.103711225 -0.12061525 -0.06527386 -0.093645304 -0.017333912 0.20437476 0.22062485 0.26098123

bias f4 [10]
00000000: c15d 6f3d 9437 debc 63ec 03be a901 9d3d
00000010: db1b bd3d df05 99bc 2e3c c13d 4079 733c
00000020: 9b68 a5bd a4aa 73bd
0.05843902 -0.027126111 -0.12883143 0.07666332 0.09233829 -0.018679557 0.094353065 0.014860451
-0.080765925 -0.059488907
