NN/CIFAR10/model/model_250.pth (torch, 588933 bytes, 10 tensors)

weight f4 [32, 3, 5, 5]
00000000: 3e4d d23a 4090 be3e 4dec 0cbe ea90 cbbe
00000010: ccd6 223e f8cf 60be dce0 943e 7b86 0e3f
00000020: b6a6 c1be 1743 3fbe 2204 0abe b04e b8be
00000030: 98e4 fa3e 582a a53e 736e 92be 14b7 9a3e
00000040: fbbf 00bf 1736 24bd 6dd2 bd3e daa7 963d
00000050: e3d8 443e c6fb 9d3b 2558 92be 2fcb 3b3d
00000060: 339a d8ba b382 e8bd 6692 9e3e 6cc9 c43c
00000070: 9ea5 c1be cbc1 583e d708 c2be ae0f 9e3d
00000080: c6e0 033f 8514 67be dba4 87bd 81ff 4bbe
00000090: 1144 0ebf ce16 e83e 1b35 5d3e f6d3 f3bc
000000a0: ce62 633e 8d86 1bbf 7101 94be 198b 903e
000000b0: 9052 e2bd b72f 0d3e 6c68 893d 42a1 c8be
000000c0: fd9a b2bd df5e 303d d43f 2abe bf52 d03e
000000d0: b7bb 1abe 74d6 b4be b2e9 623e 8eb7 7dbe
000000e0: 8bef 463e 018a 083f c6e5 82be 34de 3cbe
000000f0: 8446 f2bc 2408 c5be 9345 fc3e cb77 0b3e
00000100: 7efc 75be caa1 6f3e 1541 bbbe 1a7c b9bb
00000110: 70fc b63e 92e6 8e3c 996f 0a3e bb82 653e
00000120: f8f0 64be 1428 f13d 7d6d 693d 9f96 4d3e
00000130: 92f9 bcbd 5f7c d3bc a8d9 26bd 03b1 2ebd
00000140: 6ed1 afbd c899 0ebe 61bb 94be f9b3 a5be
00000150: 48e2 87bd ced2 75bd da9c 7cbe 4d94 bfbe
00000160: 5569 2abe 263f 09be 4f7b 753e 473d 98bd
00000170: ebaa f4bd d453 b2bd 85ba a5bd c8b8 7d3e
00000180: 7944 923d d3c7 6e3c 90db bebc 21d2 0c3e
00000190: a71e 2dbd 11e1 b63c cd5c 9dbd 7300 473d
000001a0: bab0 743d d359 4e3d 068e ab3c 898b 493d
000001b0: b059 173d 1deb 7ebd 9a02 10bd 4584 6d3c
000001c0: a999 edbc 9932 c3bd 185c 9cbd 9981 bfbd
000001d0: d97f 97bc dc5f e13a 1a7e 2bbd ae88 d6bb
000001e0: 9cb8 52be d0d3 7fbd 71f7 f0bd 1baa aebd
000001f0: 7a95 a4bd 9798 47be e6c6 cc3d 3064 273e
00000200: 0aad 193d f48e 3dbd cc3b 823d b7cb 503e
00000210: aa17 af3e 2881 b53e 2b57 433e 1f78 7d3d
00000220: b412 8b3e e4ae e93e 1990 ae3e 7553 683e
00000230: 1f14 57be a786 ce3d 2f9d 093e 882a 173e
00000240: 0e09 fb3d 84a2 f9bd ff4d 84bd 4238 7d3d
00000250: 9132 143e 2db2 cebd 0a18 3fbe a7d3 55bd
00000260: 977f f1bd 59d7 06be d494 03be 6eb6 60bd
00000270: f698 043e 5929 1ebe acdc d53d 912f dd3d
00000280: 9857 013e 4929 79bd 9ae1 b5bd 7e0b 2e3e
00000290: 8053 03be 05ba 543d 33e7 fb3c 2fd2 843d
000002a0: bdad cc3d 8f57 9fbd b807 8e3d 02ea a5ba
000002b0: d8d5 ed3d 245c aa3d e73c 8cbd fa63 9ebd
000002c0: 6909 143c 6753 aa3d 09a5 103d 7d4a 923d
000002d0: 14da c03d 7e9c 303e 15a1 90bd 6c25 ed3d
000002e0: 93e4 a5bc f660 ee3d 5164 a43d c375 57bd
000002f0: 6ab1 263e e949 5fbd 31cb 423d ba4b 11bd
00000300: f750 9d3d a76b cf3d cc58 4abe 06a8 c43b
00000310: f16e c3bd 41aa 343d 40f9 03bc 64f2 28be
00000320: 32ea 3bbe 80d8 e23b 9b3d 803d baf0 843d
00000330: d49a 003e 822a 8d3d 3ab3 1c3e af80 053d
00000340: 4c88 f03a f653 383c 915f a7bc 3f4b cebd
00000350: cf87 10bd 9f8d 633e b88e 06bd 95bb e63d
00000360: e242 1dbe 652c 1fbd 4f32 303e 3211 e6ba
00000370: 9726 dbbd 42e6 09be e7c5 dc3d 1cf7 ad3d
00000380: a5bc b7bd 2fca e7bc 888e d93d 7704 34be
00000390: 429e bbbc 2314 1f3e bfbb 0f3e 38a3 1abc
000003a0: 9644 a5be cf13 86bd d20f a13e 6829 373d
000003b0: 14f8 723d c7e1 f1be da45 273d 195e cc3e
000003c0: 12ea 9b3d cc59 37bd f2ed d4be f646 c53d
000003d0: baed 8e3e e303 bdbc 4dc9 04be 0506 debd
000003e0: 0800 983d 5f58 3f3e 9a1e 4ebd 1b5f 3bbd
000003f0: afa5 ecbd a534 0dbe ce6c 98bd aa04 1ebc
0.0016044748 0.3721943 -0.13762017 -0.39758998 0.15902251 -0.21954334 0.29077804 0.5567395
-0.37822503 -0.18677936 -0.13478139 -0.35997534 0.49002528 0.32258868 -0.2859989 0.30217803
-0.5029294 -0.040090647 0.37074605 0.07356234 0.1922336 0.0048212735 -0.28582874 0.045848068
-0.0016525447 -0.11353054 0.30971068 0.024021827 -0.37821668 0.21167676 -0.3789737 0.077178344
0.5151485 -0.22566421 -0.066232406 -0.19921686 -0.5557261 0.453299 0.2160229 -0.029764157
0.2220566 -0.60752183 -0.2890735 0.28231123 -0.11050904 0.13787733 0.0670937 -0.3918553
-0.08720968 0.043059226 -0.16625911 0.4068813 -0.1511067 -0.35319865 0.2215946 -0.24777052
0.19427316 0.5333558 -0.25565928 -0.18444139 -0.02957464 -0.38482773 0.4927183 0.13619916
-0.240221 0.23401561 -0.3657309 -0.005660546 0.3573947 0.017443929 0.13519134 0.22413151
-0.22357547 0.117752224 0.05698918 0.20076989 -0.09227289 -0.02581614 -0.040734917 -0.04264928
-0.085848674 -0.1392585 -0.2904921 -0.3236387 -0.066349566 -0.060015492 -0.24669209 -0.37417832
-0.16641743 -0.13402995 0.2397282 -0.07433563 -0.119466625 -0.08707395 -0.080922164 0.2477752
0.071419664 0.014574009 -0.023298055 0.13752033 -0.04226556 0.022324117 -0.07683716 0.048584413
0.059738852 0.05037863 0.020941745 0.049205337 0.036950767 -0.06223594 -0.03515873 0.014496868
-0.029003935 -0.09531135 -0.07634753 -0.09350891 -0.01849358 0.0017194706 -0.041868307 -0.006547055
-0.20578235 -0.06245786 -0.11765946 -0.08528539 -0.08036323 -0.19491802 0.09998874 0.16346812
0.03751854 -0.04627891 0.063590616 0.20390211 0.34197742 0.354501 0.1907622 0.061882135
0.27162707 0.45641243 0.34094313 0.22688086 -0.2100377 0.10084277 0.13438867 0.14762318
0.122575864 -0.121892005 -0.06460189 0.06182123 0.14472415 -0.10092578 -0.18661514 -0.0522038
-0.11791914 -0.13168086 -0.12849742 -0.05486148 0.12948975 -0.1544546 0.104424804 0.10800088
0.1263107 -0.06083039 -0.08880921 0.16996571 -0.12824821 0.051935215 0.030749893 0.06485402
0.099940754 -0.07780372 0.06935066 -0.0012658241 0.11613053 0.08318356 -0.06847554 -0.07733913
0.009035447 0.08316689 0.03531364 0.07143114 0.09416595 0.17247197 -0.07061974 0.11579403
-0.020250594 0.116395876 0.08026946 -0.05260254 0.16278616 -0.054513846 0.04755706 -0.03547261
0.076814584 0.10127955 -0.19760436 0.0060014753 -0.09542645 0.04410768 -0.008055031 -0.16498715
-0.18351057 0.0069227815 0.0626175 0.064912274 0.12559062 0.06892873 0.15302745 0.032593425
0.0018351167 0.011250487 -0.020431312 -0.10072946 -0.035285767 0.22221993 -0.03285095 0.11266247
-0.15357545 -0.038860697 0.17206691 -0.0017552732 -0.1070072 -0.13466743 0.107799344 0.08494398
-0.08971528 -0.02829465 0.10622889 -0.17579828 -0.022902612 0.15535025 0.14036463 -0.009438328
-0.3227889 -0.06546747 0.31457382 0.044717222 0.059318617 -0.47242567 0.0408381 0.3991554
0.07613005 -0.04476337 -0.41587788 0.09632675 0.27915746 -0.023073142 -0.12967415 -0.10840992
0.07421881 0.18686055 -0.050322153 -0.045744997 -0.11555039 -0.13789614 -0.07442628 -0.009644667

bias f4 [32]
00000000: 2091 adbe dc48 523d 75e9 123e c83e e3be
00000010: 95bb 66be 82f7 17be 37cd 83be 4eab e2be
00000020: 5416 3d3e 5a66 c2bc a25f 59be 8818 5fbe
00000030: 8f41 9bbe 938a 44be e2e7 56be e811 f7be
00000040: 340a 90be f315 02be 131d 12bf b138 79be
00000050: cabd ec3d 42fc 303e dc62 d7be cc30 70be
00000060: e4c0 d7be 4d62 40be ace6 a0bd b7ec 4d3e
00000070: 5e35 c2bd c620 6dbe cd20 c4be ac11 1fbe
-0.33899784 0.051339015 0.1434687 -0.44383836 -0.22532494 -0.1484051 -0.25742504 -0.4427132
0.18465549 -0.023730446 -0.21227887 -0.21786702 -0.30323455 -0.19193487 -0.20986894 -0.4825585
-0.28132784 -0.12703685 -0.57075614 -0.24338032 0.11559637 0.17283729 -0.4206761 -0.23456115
-0.4213935 -0.18787499 -0.07856497 0.20109831 -0.09482835 -0.23157033 -0.38306275 -0.15534085

weight f4 [32, 32, 5, 5]
00000000: 3950 39bd f9b1 743c e1f8 0cbd c482 b1bb
00000010: 1052 12bd e746 a4bd 8284 413b ff41 b9bd
00000020: 5e25 c63b 5e5c 88bc b20b 24bc a4b7 543c
00000030: 4acb a9bd 955f 47bd 545e 8cbd cac9 4a3b
00000040: 027b 5f3d 38f1 21bd 8d9a 963b 6ec4 863a
00000050: 64bd 40bc 30af 28bc 82a0 0ebb 5e07 26bd
00000060: 15e2 e9bb 186d 8fbd 6c56 c73c e04d 853c
00000070: a7b0 663c 9602 1bbd 3f25 90bd 6a4d 033c
00000080: 889a 03bc 88d1 e0bc 7501 4fbd 4e74 d3bc
00000090: f8ff 01ba 58ff 783c 5ba8 00bc c5c3 053c
000000a0: af0d 853a 000f a53d 4228 bd3d c142 893d
000000b0: 661a 633d f4c0 2dbd 217c ff3c cb7d ac3c
000000c0: 584d 31bb b836 883d 2d34 1f3c d395 743d
000000d0: 63ce 143a 49c5 0ebc 97d0 263d fe0b afbc
000000e0: be16 ad3d 5413 9dbc 54d1 36bd caa1 ebbc
000000f0: 6e88 48bd a75e 8a3d c38d 62bc 879f 51bc
00000100: 09a5 663c fddd 0fbd d85e f03b 836c 33bc
00000110: e17d 47bd 3e3c e73c 501b 3cbd 8e31 31bd
00000120: 7ec5 48bd 7a35 83bd 9d2e 8cbd 564e 9a3d
00000130: 98aa 9dbd 2a8e 273d a9fc 37bd f657 ebbb
00000140: 16bb ac3d b3e7 a6bd 8213 0d3d 6c41 35bd
00000150: f131 8f3c c0d8 b83d d15e b0bd 5ab5 a63c
00000160: 9244 f2bb 1d82 44bc be9c 963d d590 aabc
00000170: 311b 923d e4aa 113d af4d 2a3c 5fa0 a3bc
00000180: 484f 77bd 2b14 45bd ec2d 8a3c 0cbb 01bd
00000190: 2bb6 37bc 26e9 a6bc afb4 323c fc93 91bd
000001a0: 68b2 5fbd d8c4 033c 72cb 423b e4f9 a7bc
000001b0: 49cb 1ebd 7b3c 933c c5cd 54bb 9c4a 333c
000001c0: 6e6d 1ebd b15f c1bd fe2e 33bd 33bd 923d
000001d0: 0620 d53d 211e ca3d f562 8c3d 5d95 be3d
000001e0: dfad 43bc 9e4e db3c 286a ef3c 3267 09bd
000001f0: 70b3 58bd 0d9f 523d 56ab 12bc b14c a03d
00000200: 324b 34bc 5472 9ebb ee82 dd3c e5b3 973b
00000210: f0c4 993d 2a32 4abc 1734 9ebc 81bc 073d
00000220: d732 58bb 49d3 993d d5d5 953c 3908 44bb
00000230: 4ad8 323c 0aa5 1fbd e2aa 723a 593b d43b
00000240: fa7f 963c a0a2 cb3c 7c32 3e3a fb7a 043d
00000250: bb43 04bd d560 65ba 5e20 5dbc 0a8f 44bc
00000260: 2778 f0bc c45c 4abc bb91 9fbc e2ce e1ba
00000270: a147 a23c b468 a8bc 0cd8 31bd 4e94 7fbc
00000280: 47a3 a63b a095 31bd fb6a c0bc 7a64 1ebd
00000290: f6b8 76bc 5adf 8e3d c480 d23d 593c a03d
000002a0: 8ec3 c33d 0517 993d 65ba 143d 467e 1d3d
000002b0: 9284 d03c 63af 313c bf65 cebc c162 33bd
000002c0: 4263 8bbd ab2a b9bd dc99 c6bd d651 99bd
000002d0: 23a9 32bd d87e 70bd a7b1 c3bd 1578 42bd
000002e0: 9690 95bd 7d48 2dbd e65d 213a 3023 0ebd
000002f0: cc38 41bb c26a 21bd 9ec2 a93d cb6f 803d
00000300: 6aec ff3d 753d d13d 06f2 473d cf42 9b3b
00000310: d364 203d e2d0 483d bcea 453d 0e15 023d
00000320: c627 bdbc 6f1e 993c 318a a1bc 0701 263c
00000330: aa31 e1bc 2e59 143c 4cde 103c df0e f43c
00000340: d30b 4f3c 17f0 013d 4c2d 8dbb cad2 453c
00000350: cdd5 413d 9543 473d f802 b23c ec8d 0cbd
00000360: 0406 473d e563 163d 8826 80bb fe50 7b3d
00000370: 9da9 8fbd 801c 50bd c76d 87bd 5315 6fbd
00000380: ba4a 62bd e1f7 b43d f216 b43b ff3b 193d
00000390: 6df4 5e3d c31f 603d 8172 103d 1143 933d
000003a0: 99b8 583d 7597 813d 56fb 863d e8ea 733d
000003b0: 69c7 a13d 8c7f 4e3d 3bdf 913d d81b b23d
000003c0: 0f73 8cbb 4241 933c faac 3cbd 1456 063d
000003d0: 4715 5bbc b2a8 0cbd fbe0 2abd ba6c b9bd
000003e0: 6dc8 9ebd fb43 b8bd 586f c1bc 7c56 c73c
000003f0: 819c 83bc 6151 43bc 6352 a2bc 6832 ffbc
-0.045242522 0.01493501 -0.034417037 -0.0054172 -0.035722792 -0.08021336 0.0029528444 -0.09045791
0.006046935 -0.016645607 -0.010012554 0.012983236 -0.082907274 -0.04867514 -0.06853929 0.003094303
0.05456067 -0.039536685 0.0045960606 0.0010281929 -0.011763904 -0.010295674 -0.002176315 -0.04053437
-0.007137547 -0.0700323 0.024333201 0.016272485 0.014080203 -0.037844263 -0.07038354 0.008014062
-0.008032449 -0.027443662 -0.0505385 -0.025812294 -0.0004959102 0.015197597 -0.007852639 0.008164351
0.0010151173 0.08059502 0.09236194 0.067021854 0.055445097 -0.042420343 0.031187119 0.021056077
-0.0027054157 0.06651062 0.0097170295 0.059713196 0.0005676506 -0.008714029 0.04072627 -0.021368023
0.08451603 -0.019174255 -0.044633225 -0.02876367 -0.048958234 0.06756335 -0.013827744 -0.012794382
0.014077433 -0.035123814 0.007335525 -0.010951164 -0.04870403 0.028226968 -0.045924485 -0.04326015
-0.04901647 -0.06406684 -0.06844828 0.07534473 -0.07698554 0.040907063 -0.04491869 -0.0071821166
0.08434121 -0.08149662 0.034442432 -0.044251844 0.017479869 0.09025717 -0.08611835 0.020350147
-0.007393428 -0.011993912 0.07354115 -0.020821014 0.071340926 0.035563365 0.010394498 -0.019973932
-0.060378343 -0.048114937 0.0168676 -0.031672522 -0.011212866 -0.020374846 0.010907336 -0.07108304
-0.0546135 0.008042537 0.0029723314 -0.0205049 -0.038768087 0.017973175 -0.003247128 0.010943081
-0.03867858 -0.0944208 -0.043745987 0.07164993 0.104064986 0.09869028 0.06854812 0.093058325
-0.01194331 0.026770886 0.029225424 -0.03354568 -0.0529055 0.051421214 -0.0089519825 0.07827128
-0.011004256 -0.0048354063 0.027039971 0.0046295994 0.07508266 -0.012341062 -0.019311948 0.033138756
-0.0032989287 0.075110026 0.01829044 -0.0029912128 0.010915825 -0.038975753 0.0009257031 0.0064768014
0.01837157 0.02485782 0.00072554476 0.032343846 -0.032291155 -0.0008750086 -0.0134964865 -0.011996994
-0.029354168 -0.012351219 -0.01947867 -0.0017227794 0.019809546 -0.020557739 -0.04341893 -0.015599323
0.005085382 -0.043355584 -0.023488512 -0.03867004 -0.015058747 0.06976195 0.10278466 0.078240104
0.095587835 0.07475094 0.036310572 0.0384505 0.02545384 0.010845038 -0.025195 -0.04379535
-0.06806041 -0.090413414 -0.09697315 -0.07486312 -0.043618333 -0.058714718 -0.09555369 -0.0474778
-0.07302968 -0.04230546 0.00061556546 -0.034701526 -0.0029483316 -0.039408453 0.082890734 0.06271323
0.12496264 0.102168 0.048814796 0.004738189 0.039158653 0.04902733 0.048319563 0.03175836
-0.023090255 0.01869127 -0.019719215 0.010132081 -0.027489502 0.009054465 0.008842062 0.029792247
0.012637096 0.03172311 -0.0043083783 0.012074182 0.047323037 0.048648436 0.021729931 -0.034315035
0.04858972 0.03671636 -0.0039108433 0.061356537 -0.07014773 -0.05080843 -0.06612735 -0.058369946
-0.055247046 0.08836342 0.0054958994 0.037410732 0.05443232 0.05471779 0.03526545 0.07190526
0.05291042 0.06327716 0.06590907 0.059550196 0.078993626 0.050414607 0.07122656 0.08696717
-0.004286177 0.017975453 -0.0460634 0.032796934 -0.013371772 -0.034340568 -0.041718464 -0.09053941
-0.07753072 -0.08997341 -0.023612663 0.024333231 -0.016065838 -0.011921258 -0.019814676 -0.031151965

bias f4 [32]
00000000: 2c18 bcbd cbeb 2abe e7ae 64be cb11 a5bd
00000010: 9298 1d3c 63a1 a0bc 76d3 27bd dd78 33be
00000020: 202a 07be 783f 103e e732 383d cc0f 30be
00000030: 596a eebc 32bc 333c e59d babd 97e3 73be
00000040: 77e5 54bc 0246 9dbe 2afa d6bd 4051 b6bd
00000050: 1165 44bd cdc3 6f3d 168c bcbd e1c5 63be
00000060: d2e9 5cbe 70d3 62be be8f 85bd 770a 1e3c
00000070: d0b2 e2bd d3e0 2ebe 9ac5 8cbd d1d5 a8bc
-0.09184298 -0.1669151 -0.22332345 -0.08060034 0.009618895 -0.019608205 -0.04097315 -0.17526574
-0.13199663 0.14086711 0.04497042 -0.17193526 -0.029103445 0.010970162 -0.09112147 -0.23817287
-0.012994162 -0.30717474 -0.10496934 -0.08902216 -0.047947947 0.05853634 -0.09206407 -0.22243454
-0.2157357 -0.2215097 -0.06521557 0.00964605 -0.11069262 -0.17077951 -0.06873627 -0.020609768

weight f4 [64, 32, 5, 5]
00000000: 1d16 0f3d d09e 4b3c 690a 953c cf72 0fbd
00000010: 092c 933d adb9 2dbc 34e4 eb3b 5868 63bd
00000020: 28ec acbd 452b 32bd 1bb3 24bd c638 563d
00000030: 3895 05bd 89b7 26bc ac26 adbc 42fb 7ebc
00000040: fe96 43bd b572 85bc cd3d 51bd 47ec 3ebb
00000050: 0aa0 e7ba 66b7 b439 7632 04bd 2787 a23b
00000060: d81f 2ebc fabf 6c3c b772 143b 6f67 7d3d
00000070: b997 a13d 4cce e73c d6b7 9ebc 4b2b 84bd
00000080: 48d2 2abd 4459 5a3d ffd1 f93b 288c 65bc
00000090: 7ca3 2fbd 7803 093b 989f f03c 64ce 35bd
000000a0: 986e adbc c392 98bb b14a 3d3c 88f3 393c
000000b0: 3b23 b43c e1e6 06bc a395 80b8 2b1d ce3c
000000c0: 1f69 7c3d 37a5 8a3d 1a3f a2bd 7f98 64bc
000000d0: 3b07 b73b b6cc f83b 6071 9abb 062b 85bc
000000e0: cd8c b73c ae51 0bbd aa12 46bc dc1b d63b
000000f0: 07a6 26bb 6bf2 55bc 54a8 aabd 8cd6 a9bd
00000100: aca9 64bc 3aa7 3fbb 59f1 8d3d 2675 d63c
00000110: b918 4bbd f89a e33c 2fb9 a2bc 8e14 42bb
00000120: 1fa1 70bd deb4 a8bd a62d b6bc 5f15 d2bc
00000130: 9a29 4fbd 8f57 333d 2e7d 38ba bae5 65bd
00000140: 63de 40bd 5d1b 84bd f912 30bc 74b6 c0ba
00000150: eed3 74bc 8f10 073d 2177 fc3c c30f 20bd
00000160: e5a7 7e3c 45f6 793d 065c 713d aa71 1a3d
00000170: 514c 9b3c ab4e 193d 8d7c c23d 0193 b83b
00000180: 62d8 063d 7ea1 5bbc ab89 8f3c 076c ae3c
00000190: d374 7c3d 6b74 ab3b 2b0d 6d3d a62a d43d
000001a0: 1141 163d 6669 ea3c 3a35 b43c cf4c 9fbc
000001b0: ab49 28bd 5a75 ae3c 0e89 a8bc 677d fcbc
000001c0: 1dfa 8a3b 9769 8fbc 3b7b ab3d 75bf 87bc
000001d0: 689c 35bb b735 2cbc 9e6f c6bc 4de9 1c3d
000001e0: 17f0 c23d 066d 703d dff2 873d b5b8 133d
000001f0: 550b 7d3d 2dcd c4bc 46f5 483d 9c79 763d
00000200: 584b e3bc c3b1 32bd b4c8 ef3b faa9 2d3d
00000210: 2318 0d3c eb48 9dbd ab23 acbd 9025 d43c
00000220: 6acb 03bc 8b5e 79bd 720c b9bd 1f6d 04be
00000230: a299 793d 74e5 aa3d 1473 26bd 4533 c1bd
00000240: 9e1d 20bd 148c 553d 1616 4c3d 298f 4cbc
00000250: c98f 6ebd 7701 cabb f8e4 cb3c e148 d439
00000260: 2e73 87bd c47a 99bd 4ff9 3abd 9779 e63b
00000270: 043d fd3c 7cce 2bbd 494e 1dbd e699 f73b
00000280: 70dd aa3b fc1b bf3c 2e8a d6bc 19da 503d
00000290: a772 6a3d 0f0d 1a3d f142 61bc 815e 01bd
000002a0: 461b 39bd 0f59 debc 042b 993d af64 03bb
000002b0: aab4 cf3b 238f 1b3d 44aa 3d3b 0fcb 253d
000002c0: cee8 9e3d f307 393d bac3 06bd 8c36 04bd
000002d0: 3697 9939 3d79 3a3d 94b1 45bd fa1c 90bd
000002e0: 4205 22bd eab1 35bd 3e94 023d 3a62 22bd
000002f0: addc a8bd c116 92bb ce93 893d 8663 083d
00000300: ab3b f0bc 51df 8abd f86d 27bc 655a 8d3d
00000310: 3ae4 5d3d cb6e 023d 74ef 603b ad0f b63c
00000320: 2ac5 6fbc b594 7c3d 8997 fbba 8413 96bc
00000330: a4d6 a9bd 91ae c73c b0c8 893b 4694 f23b
00000340: 9369 3f3c 9be4 75bc b882 fdbc 0123 4cbd
00000350: 5d1f 043b 2e85 453d 5ec8 acbc 86f0 7dbc
00000360: fb5b d5bb 9e5c e0bc a55e 063d f694 9bbc
00000370: 092c 063d a167 a63b cfef 853d 9a7a 11bc
00000380: 60d8 c9bc b9ed 28bd b802 e13b 3406 8fbc
00000390: 2183 35bb ca39 263d 3f81 113b 80ea 8bba
000003a0: 6683 61b9 4bec cebc 89e0 4e3d 3177 15bc
000003b0: aabf 41bd 568e 3ebc d7ec cabc 6673 e43c
000003c0: 3736 11bd 0891 8cbd ed1a 8fbd b7a8 05bd
000003d0: 482e 303d 1c1b 49bc bb22 28bd b64c 70bd
000003e0: 9e32 59bd e940 86bb 5133 cd3c 3426 a5bd
000003f0: 9665 b63a 4b3b 043d 4bed 3dbd 3273 c63a
0.0349332 0.012428001 0.01819344 -0.0350216 0.071861334 -0.010603351 0.007198835 -0.05551943
-0.08443481 -0.043498296 -0.04020987 0.052300237 -0.03261301 -0.010175594 -0.021136604 -0.015562834
-0.04775142 -0.016290048 -0.05108433 -0.0029132531 -0.0017671597 0.00034468918 -0.032274686 0.004959959
-0.010627709 0.014450068 0.0022651383 0.06186622 0.07890267 0.028296612 -0.01937477 -0.0645357
-0.041704446 0.053307787 0.0076239104 -0.014010467 -0.04288052 0.0020906609 0.029372975 -0.044386283
-0.0211709 -0.0046561672 0.011553452 0.011349566 0.021989455 -0.008233757 -6.1313876e-05 0.025160393
0.06162369 0.067697935 -0.07922192 -0.0139523735 0.0055855787 0.007592763 -0.0047132224 -0.016255867
0.022406006 -0.034013443 -0.012089411 0.006534083 -0.002542855 -0.013058285 -0.08332887 -0.08292875
-0.013956469 -0.0029243962 0.06930799 0.026178908 -0.049584124 0.027783856 -0.019863693 -0.0029614302
-0.058747407 -0.08237623 -0.022238564 -0.025644956 -0.050576784 0.043784674 -0.0007037696 -0.056127287
-0.047087085 -0.06450532 -0.010746711 -0.0014702813 -0.014943106 0.032974776 0.030818524 -0.03907753
0.015542959 0.061025877 0.05892565 0.037706055 0.018957289 0.03742854 0.094964124 0.0056327586
0.032921202 -0.013405202 0.0175217 0.021291746 0.06163485 0.005232384 0.057873886 0.10359697
0.036683146 0.028614711 0.021998037 -0.019445805 -0.04108588 0.021296192 -0.020573165 -0.030821515
0.0042412416 -0.017506404 0.08373114 -0.016570786 -0.0027711634 -0.0105108535 -0.024223145 0.03830843
0.0951845 0.058697723 0.06638121 0.036064822 0.061778385 -0.024023617 0.049062036 0.06017457
-0.027745888 -0.043626558 0.007317627 0.04239843 0.008611712 -0.076799236 -0.084052406 0.025896817
-0.008044103 -0.06088118 -0.09035577 -0.12932251 0.06093753 0.08344546 -0.04063709 -0.09433607
-0.039090745 0.052135542 0.04982575 -0.012485304 -0.058242593 -0.0061647254 0.024889454 0.0004049009
-0.06613766 -0.07494119 -0.045647915 0.0070335376 0.030912884 -0.041944966 -0.038404737 0.007556188
0.0052143857 0.023328774 -0.026188936 0.050989244 0.057238247 0.03761011 -0.01374887 -0.031584267
-0.045192026 -0.027142076 0.07478908 -0.0020049026 0.0063386755 0.037978303 0.0028940598 0.040476855
0.07759248 0.045173597 -0.032901503 -0.032278582 0.00029295095 0.045525778 -0.048265055 -0.07036777
-0.039555795 -0.044359125 0.031879656 -0.039644457 -0.082452156 -0.004458279 0.06717645 0.033298038
-0.029325327 -0.067808755 -0.01021909 0.06902007 0.054172732 0.03184394 0.0034322413 0.022224272
-0.01463441 0.061665256 -0.0019194941 -0.018319853 -0.082928926 0.024375232 0.004204832 0.0074029295
0.011682886 -0.015008117 -0.03094612 -0.04983807 0.0020160296 0.048222713 -0.021091636 -0.01549924
-0.006511209 -0.027387913 0.032805104 -0.018991929 0.03275684 0.0050782715 0.065398805 -0.008879328
-0.024639308 -0.041242335 0.006866779 -0.017459013 -0.0027696567 0.040582456 0.002220228 -0.0010674745
-0.00021506622 -0.025259158 0.050507102 -0.009122656 -0.047301926 -0.011630615 -0.024771137 0.027887058
-0.035452094 -0.068636 -0.069875576 -0.032631602 0.043012887 -0.01227453 -0.041048747 -0.058666907
-0.053026788 -0.0040970934 0.025048884 -0.08063927 0.0013915773 0.03228311 -0.04636888 0.0015140532

bias f4 [64]
00000000: 12e6 bcbd a053 8cbd 1fd3 c13c 9a06 a8bd
00000010: 7552 58bb cbe9 61bc 8aff 1abd cf28 07bd
00000020: 7410 8fbd 6f33 80bd 321e 8abd 76f0 21bd
00000030: b52c e5bc 02a4 f53c 9a66 57bc eac9 6ebc
00000040: a246 8bbd 7ea9 39bb 9cc2 c7bc f3ba 0cbd
00000050: d36a 4fbd ce1d 093c f827 49bd b776 b0bc
00000060: 5c1c 153d aff4 67bc bd15 eebc fd8b 14bd
00000070: dc2b ebbd 1c99 50bd 4f37 c3bd fb72 83bd
00000080: e434 ffbc 732f 66bb 0752 ddbd 9d55 90bd
00000090: 97ea 74bc 60b6 39bd 1f99 2cbb aac9 8dbc
000000a0: 77fa 7ebc 5a74 8fbd 5e94 14be c19c abbb
000000b0: a90e 0c3d 7fa0 29bc 9b9b 8abd 9431 72bd
000000c0: ec78 dabc 8b68 e23b aad1 20bb 2611 b5bd
000000d0: 81ec aebd 689e fcbc c664 bfbb 91b1 8fbb
000000e0: 823c 97bc 7758 a3bc 85ed 1c3d 6315 75bd
000000f0: ad35 a0bc 40e2 21bd ea2d 96bc 0432 b1bb
-0.0922357 -0.06851888 0.02366024 -0.08204384 -0.0033008133 -0.013788651 -0.037841357 -0.032997902
-0.0698556 -0.0625981 -0.067440405 -0.039535962 -0.02797542 0.029985432 -0.013147021 -0.014574507
-0.068005815 -0.0028329785 -0.02438479 -0.034357976 -0.050638985 0.008368922 -0.049110383 -0.021540983
0.036404 -0.014157458 -0.0290631 -0.036266316 -0.11482975 -0.050927266 -0.09532034 -0.06418415
-0.03115315 -0.0035123497 -0.10806661 -0.070475794 -0.014948509 -0.045339942 -0.0026336384 -0.017308075
-0.015562645 -0.07004614 -0.14509723 -0.0052371924 0.03419367 -0.010353207 -0.06767961 -0.059129313
-0.026668988 0.006909435 -0.0024539032 -0.088411614 -0.08541203 -0.030837253 -0.0058408706 -0.0043851812
-0.01846147 -0.019939644 0.038312454 -0.05983485 -0.019556845 -0.03952241 -0.01833244 -0.0054075737

weight f4 [64, 1024]
00000000: 3071 1bbc 17e8 95bc a110 763c ce5d 23bd
00000010: 764c 14bd 51c7 ae3b d0bd 27bb d8db bebb
00000020: 541d 2e3d 9c12 3f3d dd2e 2e3d 9849 c0bb
00000030: 5c1f 303d afd3 bdbb 5d66 92ba e161 533b
00000040: e349 75bc 9fb2 8cbd 30d0 38bd e96d 97bc
00000050: 2327 19bd cf66 06bd 0ee3 ab3c 6d4b b2bc
00000060: 6984 493d 015f 13bb 6297 13bd 43d9 b2bc
00000070: 638b 133c 8e34 b8bc 0e22 2fbd e988 cbbc
00000080: 4b0f 033d 60a2 66bd 6b70 533c cd40 5abb
00000090: 2e15 33bc 77bc 0a3c 48d6 71bc d73c 803c
000000a0: 68d8 14bd 77a3 bd3b 98d1 8e3d ac9c e33c
000000b0: f010 22bd 1f2f eabb a124 bb3b 4add d43c
000000c0: 5fe5 64bc 9465 7c3c e794 0abb 19dd adbc
000000d0: 51b6 27bc 75fd dbbb 9b48 34bb 3ba1 fc3c
000000e0: af00 31bd 435a 04bd 26bb 81bd e833 83bb
000000f0: 5c42 41bd d11b 4dbd 4178 9cbd 789e 1bbd
00000100: c8b5 debb 7e53 fabb face b8bc 317c 3cbd
00000110: 5346 10bc 6e3c 233d 52a2 89bc 26ce b8bc
00000120: 5ea1 b2bc a562 e83a 79f5 2f3b 6ab5 55bc
00000130: 7a87 d73c 8b3e 56bd eb4a a1bc eb61 00bd
00000140: 0240 d23c cd43 30bd 28a3 103d 0c7d 03bd
00000150: 36dc 8c3c e5b1 f93c 6f21 0b3d 51b7 94bc
00000160: 1719 75bc a75f 2bbd f9de 78ba d737 32bd
00000170: 4a27 3fbd f627 e53c 9922 f5bc 61f2 88bc
00000180: 4c1c e3bc 0e90 3bbd 13ff 8cbb 9de3 f3bc
00000190: 9773 e2b9 b286 82bc 9155 27bb 8e31 32bc
000001a0: 8a1b d43c e533 e43c 70cd 573d 7bfc e33c
000001b0: b850 143d feb0 283c 4916 39bd af5f 103d
000001c0: 28b4 3fbc 0f54 28bd 191f 9ebc 58e5 94bd
000001d0: 7838 d53c 8bd7 07bc d323 8a3c 7172 473b
000001e0: 41d2 b83c 7d2a 3fbc 3b7c 6fbd 95e5 fa3b
000001f0: de4c 083d 71f9 eebc 9e84 39bb 3715 86bc
00000200: 8a38 a4bc ed22 83bc 7195 8e3c ccfd 4e3c
00000210: 9946 403d 6967 163d 2131 7f3d 149f a2bb
00000220: 2ca9 8b3d 9e00 a23c 31f2 b63c 2851 223c
00000230: 4500 003d 2ddc a8bc 7308 eebc 80f5 17bc
00000240: 7034 553d 2f31 1d3d c4c7 553b c480 963d
00000250: 04a3 0a3d 4d96 b23d 3389 ba3d d3dd 333d
00000260: e527 01bc bdaf 903b 80c5 6abc 1d2e 8cbc
00000270: 8e59 12bd 76b4 83bc ace8 bcbc 0a9a 0dbd
00000280: d1c8 14bd 934c 06bd 8d43 c8bb ca94 333b
00000290: 397b 47bd a472 5dbd 1471 b8bd 13d1 09bd
000002a0: 944e 123c 2ddd fbbc 7bcc 18bc 5d26 c7bc
000002b0: 0adb b73b 14bf 2dbd e9ad b2bc ac93 94b9
000002c0: 820f 79bc 1d31 b03c 39b3 1bbc dfcd 513d
000002d0: 532b 1b3b 773d 5a3d e525 babb 77a9 1e3d
000002e0: 2188 f7bc 2be7 65bc ace9 70bd c159 3dbd
000002f0: f915 6dbc f32f febc b2ad aabd 0b18 9b3c
00000300: 592a 713c c20e 5ebd 473c b33c 329b 8ebc
00000310: 3073 22bd 9a5f a339 5375 623c ac51 7f3c
00000320: 1bd6 2bbd a64e 81bd 2bcc 033b aa4f c2bc
00000330: 32c2 0cbc 7a46 09bd 3982 4dbd b449 ddbc
00000340: 34d9 f53c 6313 45bd bfae 273c 9ab4 0e3d
00000350: 5ebf 1e3d 638a 833d 64ac 5a3d 21f8 173c
00000360: ffcd 163d 5595 8a3c ce28 673d 7fa0 513c
00000370: 47d0 cc3c d715 2d3d 7b2c 893d f72f 65bb
00000380: 3375 7bbd 3d3d a0bd aeac 643b 5c8a efbc
00000390: b2c9 9ebc 0947 5dbb 42a0 383c 9f15 89bd
000003a0: e5e0 453d 6fe0 2dbd 8e91 24bc 73b2 92bc
000003b0: 75b9 04bc a6ed a7bc 841f 9c3c 2111 85bd
000003c0: d19d fdbc 95ee 18bd 61b9 babb 03f1 ff3c
000003d0: eed6 e63c 4d17 73bd 1997 2dbc 23d4 2f3d
000003e0: 1213 013c 1659 8cbd 66db 21bc 9564 503d
000003f0: a5dc a3bd 2470 60bd 15b3 2dbd 4291 8d3a
-0.009487435 -0.018299146 0.015018613 -0.03988438 -0.03620573 0.005333819 -0.0025595315 -0.0058245473
0.04250844 0.046648607 0.04252516 -0.005868148 0.042998657 -0.005793057 -0.0011169423 0.0032254385
-0.014971229 -0.06870007 -0.045120418 -0.018485026 -0.03739084 -0.03281289 0.020982292 -0.021764481
0.04919854 -0.0022487047 -0.03603304 -0.021832114 0.0090054 -0.022485998 -0.042757086 -0.024845557
0.031997006 -0.056307197 0.0129052205 -0.0033302784 -0.010930343 0.008467785 -0.014760561 0.01565401
-0.036339194 0.005787309 0.069735706 0.027784668 -0.039566934 -0.0071467306 0.0057111536 0.025984425
-0.013970702 0.0154050775 -0.0021145882 -0.021223592 -0.010236339 -0.006713564 -0.0027509097 0.0308386
-0.043213543 -0.032312643 -0.06334524 -0.0040039904 -0.047182426 -0.050075356 -0.07640124 -0.037992924
-0.0067965724 -0.0076393476 -0.022559632 -0.046016876 -0.008805829 0.039852552 -0.016801033 -0.022559237
-0.021805461 0.0017729594 0.0026849194 -0.013043741 0.026309717 -0.05230574 -0.019689044 -0.03134338
0.025665287 -0.04303341 0.035311848 -0.032101676 0.017194849 0.030480335 0.03396743 -0.018153818
-0.014959595 -0.041839268 -0.0009493675 -0.043510284 -0.04666833 0.027973156 -0.029923724 -0.016717138
-0.027723454 -0.045791678 -0.004302868 -0.02977162 -0.000431922 -0.015933368 -0.002553318 -0.010876073
0.025892038 0.027856776 0.052686155 0.027830353 0.036209792 0.0102961045 -0.04518727 0.0352475
-0.011700667 -0.04109579 -0.019301938 -0.07270306 0.026027903 -0.008291136 0.016862785 0.0030433203
0.022561194 -0.011667845 -0.058468085 0.007656763 0.03327643 -0.029171677 -0.0028307806 -0.016367538
-0.020046491 -0.016007865 0.017405244 0.012633752 0.046942327 0.036719713 0.062302712 -0.0049628112
0.06819376 0.019775685 0.022332283 0.0099070445 0.031250257 -0.0206128 -0.029056763 -0.00927484
0.05205196 0.038376983 0.003262029 0.07348779 0.03384687 0.08720074 0.091082 0.04391272
-0.007883047 0.004415481 -0.014329314 -0.017111832 -0.035729937 -0.016077261 -0.023060165 -0.03457073
-0.036324326 -0.03278787 -0.0061115683 0.0027401918 -0.0487015 -0.054064408 -0.09005943 -0.033646654
0.008929867 -0.030745113 -0.009326096 -0.024310285 0.0056108283 -0.042418554 -0.021811442 -0.00028338784
-0.015201451 0.021507794 -0.009503179 0.051221725 0.0023676946 0.053281274 -0.005680787 0.038735833
-0.030216279 -0.0140321655 -0.058816597 -0.046228174 -0.014470571 -0.031028723 -0.08333911 0.018932363
0.014719569 -0.054213293 0.021879328 -0.017407987 -0.039660633 0.0003116101 0.013821918 0.015583437
-0.041952234 -0.06313829 0.0020110707 -0.023719627 -0.008591222 -0.033514477 -0.050173018 -0.027012683
0.030010797 -0.04811419 0.010234534 0.034840204 0.03875672 0.064228795 0.05338706 0.009275467
0.036817547 0.01691691 0.0564354 0.012794613 0.025001658 0.042257156 0.06697937 -0.0034971216
-0.061391067 -0.0782418 0.0034892964 -0.02924078 -0.019383285 -0.0033764264 0.011268677 -0.06693577
0.04831018 -0.042450365 -0.010044469 -0.017907357 -0.008100857 -0.020499062 0.019057997 -0.06497408
-0.030959042 -0.037336905 -0.0056983684 0.031242853 0.028178658 -0.059348393 -0.0105951065 0.04292692
0.007878082 -0.06852929 -0.009878969 0.050877172 -0.08001069 -0.054794446 -0.042407114 0.0010800736

bias f4 [64]
00000000: 1eb9 983c 8601 12bb 4c5b 1c3c d683 6f3a
00000010: b010 83bc 52a3 383d 7c13 debc dce0 b03c
00000020: 8e38 25bc aee6 b43c df9e 533b 9d49 65bc
00000030: 0790 28bd 1c60 09bd 5539 0e3b dd69 553c
00000040: 1645 1b3c a353 c7bc d1cc dc3c 1871 30bd
00000050: 6904 edbc 36bd d13c 9cab aebc 8bbe 1fbb
00000060: 5fb3 cfba 8865 8bbc 557a 3fbd 6b68 21bc
00000070: 8f40 d8bb 4759 1a3c 28d3 ec3c 415f 3dbd
00000080: 9fc7 e03b 068d ae3b e3ac d4bb 58a5 babb
00000090: 337f 4b3c ae28 bcbb f47b bb3c c9da 2ebd
000000a0: 4bf2 d1bb afa1 ab3c d59f 013d 3657 cebc
000000b0: 8fd1 26bc 4559 a7bc f2c1 c4bb 4968 e23c
000000c0: cb9f 123c 3bf9 243d b781 6cbb 7c18 b13c
000000d0: 373d 56bc a7a5 483d 5bde 0e3b 644c bdb9
000000e0: b532 2c3d 2929 433c e437 9bbc 44b4 87bc
000000f0: daef 10bc 3a79 dcbc 09b8 993b f117 02bc
0.018642958 -0.002227874 0.009543251 0.00091367716 -0.015999168 0.04507763 -0.0271089 0.021591596
-0.0100842845 0.022082653 0.003229074 -0.013994602 -0.04115298 -0.033538923 0.0021701653 0.013025728
0.009476921 -0.024331873 0.026953133 -0.043076605 -0.028932767 0.025602918 -0.021322064 -0.0024375047
-0.0015846303 -0.017016187 -0.046747524 -0.009851555 -0.006599493 0.009420699 0.02890928 -0.04623342
0.006859734 0.00532687 -0.0064903363 -0.00569598 0.012420463 -0.005742154 0.022886254 -0.04268912
-0.0064070574 0.02095112 0.03164657 -0.02518807 -0.010181799 -0.02042831 -0.0060045654 0.027637618
0.00894923 0.040276747 -0.0036088058 0.02161812 -0.013076118 0.048986103 0.0021800015 -0.00036105805
0.042040545 0.011911669 -0.01894755 -0.01656545 -0.008846248 -0.026913274 0.004691128 -0.007940278

weight f4 [10, 64]
00000000: c669 643e 3e2b 523c 1638 89be ac24 4e3d
00000010: 83c4 e03d 69ff bdbe 4930 97bd df57 2cbd
00000020: e3e8 83be d9a2 9fbb e65d 8c3d b247 f33d
00000030: cd69 a43d 4127 80be 4eee 8e3e 0ed4 89bd
00000040: 3f3a 1c3e 4f70 71bd b17c 90be 1460 17be
00000050: 5d3b f9bd 273a 90be beaf 38bd 1ca0 48be
00000060: f92b 8f3e 6a03 19be 0388 66be fc40 5e3d
00000070: 78f3 d23d 7cc0 b43e 852d 4bbd 7ee1 6ebe
00000080: 5f1c acbd c4e8 1dbd 2dd9 05be 0e34 4c3e
00000090: 2dd5 ad3e 93e6 f6bd eb73 a93d 9f47 dabd
000000a0: 5fd5 803e 9a7d 74bd 074c 853e 433a 8c3e
000000b0: 4869 73bd 129d 9ebe db4f c9bd 2bde ddbd
000000c0: 4413 f8bd 1cf1 8a3e cf43 263e 6953 febd
000000d0: 2cce 733e 4161 a33e c21f ccbb b8d9 073e
000000e0: e068 8d3d ae2d 15be 2460 8ebe ece5 b3bd
000000f0: 134e b8be 8752 fa3d 90dc 643e 3497 dc3c
00000100: 70a0 82be 565c b93e a374 8dbe cb3d 3bbe
00000110: 2eca 953e 1894 b8be 6f48 e03e 7b8b b4bd
00000120: 0218 083e 652c b8bd 53c9 853d 6a0b 73be
00000130: 240b c23e f68a 963e e24d d73d b25b 9bbe
00000140: 63b1 103e 09bc aa3e d411 843e f389 763e
00000150: ac79 a5bd 95bf 423d c1a3 693d b715 073c
00000160: 46df e8bd 8c29 b1bd 70b6 54be a123 303e
00000170: ae04 91bd c3ce 8e3e e412 41be e4f5 993d
00000180: 9bf0 bd3c 23d4 b7bd 1da0 01be 0a24 e9be
00000190: ea3f a33e de6f 52bd 9dc6 ad3d 08ca d43e
000001a0: a183 5d3d dff8 70be 89b7 c9be 0c98 523e
000001b0: 366e 2c3d 5767 e3bd bb3d 4abe bcc3 af3e
000001c0: f0df 29bd a67b babd 6cf3 903e 33bf 593e
000001d0: d5ba d83d 99c8 b0be 86ea 423d 49cf 3abe
000001e0: 536a 22be 8a1c 93be aed5 09bc 7347 233e
000001f0: 04db 4d3e 8273 903e af92 a3bd b9f7 29be
00000200: 07f6 81bd 34a3 e73d 2630 ee3d 7bfb 6b3c
00000210: fe5d f23d 0c93 e2bb 52d9 acbe 4d4d 74bb
00000220: 15cc 9dbe 0e3c 8fbd 73b3 a73e f6c0 143e
00000230: 0700 b63d 3e98 58be 5e9b aa3e c84c 0f3e
00000240: 388f 283e 2c0c 1dbd c49d 8abd 7f08 3dbe
00000250: e37a 0b3e 29fa 863e 2857 cebe 4771 483e
00000260: a7b8 cbbe 4305 6b3d 57dd 613c b126 a5be
00000270: 0ce0 803c 5afe c2be 2e9a 18be 439a 443e
00000280: 4432 95be 7054 33be 112e 083e 1bf2 c13d
00000290: 16e2 91be f1f4 51bb 580b 7e3e 5354 4cbe
000002a0: 4526 aebe 7108 973e 9f7c 0f3e 0f85 aebd
000002b0: ccd6 633d ce10 6bbe 707e 353e dfa4 3fbd
000002c0: 5be7 043e cf1c 9cbe 3f71 e73d f5e8 403e
000002d0: ce7a 9a3e 9d06 ce3e 391c 6a3e 64e9 b13e
000002e0: 5063 7c3e 481a 443d e93e adbe 35d1 bb3d
000002f0: caf0 31be 50a9 c23d 6faf 74be ca68 383e
00000300: 3347 4fbe 0410 8e3d 6622 cb3b 5083 7bbe
00000310: 6124 a6be c0b6 4b3e 4961 e43d f5a0 303e
00000320: 7216 533d e09a 303e 5558 723d 742e debd
00000330: 315b 87bd cfe5 fabd d97c 87be 7db2 893e
00000340: 2da6 cbbe a035 84be 02d2 263d 5fdd 0dbe
00000350: 973c 713e d993 1b3e 3741 50be ab21 a1bd
00000360: b838 313e 10a4 efbd 24b3 7f3e 3465 f7bd
00000370: c330 d83d edce 8f3c e099 a63e c23d 4abe
00000380: 4a4d 253e c20d 7d3c 5a5a ec3d fa10 42be
00000390: 8c8f 803c f07f 4abd 0cb9 1d3d 31bb 4d3d
000003a0: 8c3a e6bc cb2c f73d 11b9 1cbe 0483 56be
000003b0: e851 963d fa15 7bbe 1b1a 873e 3d0b a93d
000003c0: f76a aabd ab2a 1abd 9b2c 6fbe afe8 bc3c
000003d0: aedb 73be 5186 0abe af79 acbc 98d0 043e
000003e0: e7b8 c93d 4eaf ffbd 993e 92bd 4ffc cbbd
000003f0: 7f7c 85bc d00d 553e b8ca 6a3e 4869 873e
0.22305974 0.012827693 -0.26800603 0.05032794 0.10974982 -0.37108925 -0.073822565 -0.042075988
-0.25763616 -0.004871708 0.06853847 0.11878909 0.080279924 -0.25029948 0.27916187 -0.06729899
0.15256594 -0.058944996 -0.28220132 -0.14782745 -0.12169526 -0.28169367 -0.045089476 -0.19592327
0.27963236 -0.14942709 -0.22512822 0.054261193 0.10300344 0.35303104 -0.049603958 -0.23328206
-0.08403849 -0.03855206 -0.13071127 0.19941732 0.33951703 -0.12055697 0.08274063 -0.10658192
0.2516279 -0.059690095 0.26034567 0.273882 -0.059426576 -0.3097921 -0.09829684 -0.10833391
-0.121130496 0.27137077 0.16236804 -0.12418253 0.23809117 0.31910136 -0.0062293718 0.13266647
0.06904769 -0.14568207 -0.27807724 -0.087840885 -0.35997066 0.12222772 0.22349763 0.026927568
-0.2551303 0.3620326 -0.2762805 -0.18285291 0.29255813 -0.36050487 0.43805262 -0.08815666
0.13290408 -0.089928426 0.0653254 -0.23734823 0.37899125 0.29402894 0.10512902 -0.30343395
0.14130168 0.33346584 0.25794852 0.24076061 -0.08079848 0.047545988 0.057040934 0.008244923
-0.11370711 -0.086505026 -0.2077272 0.17201091 -0.07080971 0.27892122 -0.18854862 0.07517603
0.023186019 -0.08976009 -0.12658735 -0.45535308 0.318847 -0.051376216 0.08485148 0.41560388
0.05408061 -0.23532437 -0.3939784 0.20565814 0.042097293 -0.11103695 -0.19750111 0.3432902
-0.04147333 -0.09105615 0.28310716 0.21264343 0.105825104 -0.34528044 0.04758694 -0.18243136
-0.15860872 -0.2873271 -0.008412762 0.15945224 0.20103079 0.28213125 -0.07986962 -0.16598405
-0.06345754 0.113104254 0.11630277 0.014403219 0.11834334 -0.006914502 -0.33759552 -0.003727752
-0.30819765 -0.069938764 0.32754096 0.14526734 0.08886724 -0.21151826 0.3332166 0.13994133
0.16460884 -0.038341686 -0.06768373 -0.18460272 0.13621096 0.26362732 -0.4030087 0.19574462
-0.39789316 0.057378065 0.013785682 -0.32256082 0.015731834 -0.3808468 -0.14902565 0.19199471
-0.29139912 -0.17512679 0.13298823 0.09470006 -0.28492802 -0.0032036866 0.24809015 -0.19954042
-0.34013572 0.29498628 0.14012383 -0.08521473 0.05562477 -0.22955629 0.17724013 -0.046788093
0.1297888 -0.3049073 0.11300897 0.18838866 0.30171818 0.4023942 0.22862329 0.34748375
0.2464726 0.047876626 -0.3383706 0.091707624 -0.1737701 0.0950495 -0.23895048 0.18008724
-0.20242004 0.069366485 0.006199169 -0.2456181 -0.3244963 0.19893932 0.11151368 0.172489
0.051535077 0.1724658 0.05916627 -0.10848704 -0.0660919 -0.12250864 -0.2646244 0.26893988
-0.3977522 -0.25822163 0.040727623 -0.13853978 0.2355827 0.15193118 -0.20337377 -0.0786775
0.17306793 -0.11701214 0.2497068 -0.1207985 0.105561756 0.017554725 0.32539272 -0.19750121
0.16142765 0.015445175 0.11540671 -0.18951789 0.015693448 -0.049438417 0.038506553 0.050227348
-0.02810409 0.120690905 -0.15304972 -0.20948416 0.07339841 -0.24520102 0.26387104 0.08254097
-0.08321183 -0.037638348 -0.2335686 0.023060171 -0.2381427 -0.135278 -0.021054117 0.12970197
0.098497204 -0.124846086 -0.07140846 -0.099602334 -0.016294716 0.2080605 0.22928894 0.2644751

bias f4 [10]
00000000: f562 663d 130a f8bc e5b7 04be 8b1b 9a3d
00000010: 2c7a c83d 8b8d 92bc fab5 c03d 5018 6d3c
00000020: fb63 a5bd 5228 6cbd
0.056246717 -0.030278241 -0.12960775 0.07524785 0.097889274 -0.017889759 0.09409709 0.014471129
-0.080757104 -0.05765564
