NN/CIFAR10/model/model_100.pth (torch, 588933 bytes, 10 tensors)

weight f4 [32, 3, 5, 5]
00000000: f066 713c 0955 613e 6ac3 033a 8adb 72be
00000010: 60b6 8ebd 0730 f3bd 0971 143e efcc a63e
00000020: 63b9 cdbd e10b 44be 4f67 25be 493f 10be
00000030: 3d9e 723e 0109 663e 35a1 3abe 23d8 c83d
00000040: 0b94 90be 9d93 963d 42ee 333e 1702 f23d
00000050: ac19 4d3e 0988 03be 0e3b 30be 13c1 923c
00000060: 749c 76bc fa3f 26bd a7f2 333e 0c49 303e
00000070: 947e 4fbe da21 e5bc 39b2 6bbe 09c0 acbc
00000080: 4b59 9f3e 8967 6a3d 4d98 dfbd 2f9a 4dbe
00000090: 56b5 8ebe 6290 863e 8ecd 0c3e 7502 343d
000000a0: 4579 2c3c 408f c3be 3630 ffbd 6053 013e
000000b0: b324 77bd cee2 0d3e 48f2 9abd f6ac 6ebe
000000c0: 9db7 50bd fb96 913d 0c09 01be 99be 7a3e
000000d0: ceaf e6bc fd9d 3fbe 5ad7 573c 3a38 16be
000000e0: a615 9e3d ec23 aa3e ca84 063d 956b 46be
000000f0: 5a2c a7bd 4e2c 3bbe 38a0 8e3e b194 ac3d
00000100: 5332 cdbd 5c68 10bc 9a32 6ebe 7ec6 ac3d
00000110: b255 463e a52c ed3d cfc2 e53d 0dd4 b13c
00000120: 5a65 0abe 7f5c e63d 5244 aa3d c9a0 7a3d
00000130: d28e 1cbe 78dd 20bd eb4b 5fbd d267 f3bd
00000140: c6fd 27be 9c47 e1bd e32c 45be 7525 7bbe
00000150: 6c58 a6bd 29a3 02be 9b01 56be 4976 83be
00000160: 4662 33bd c748 ebbd 4f44 d53d f7de f8bd
00000170: 1d38 b6bd 8a33 60bd f520 eebd cd75 903d
00000180: 7bd0 6fbd 8393 0bbd 1ae4 94bd d20b e93c
00000190: a5a4 27bc 6795 553d d832 5abd 72f5 9b3d
000001a0: 7a6c b43d de4d 8a3d 09a5 223d 42b4 633d
000001b0: 930f d13c fb39 8abd 8778 23bc 258a db3c
000001c0: 9839 dfbc 7e01 b8bd c807 8fbd fbc2 52bd
000001d0: ea86 1a3c fee5 813c 1ee9 31bd 766b 4a3c
000001e0: a92c 28be e2cf babc 2211 94bd 2e3c 86bd
000001f0: 056e 3ebd e373 bdbd 2a28 043e fb99 0a3e
00000200: 2010 2c3d aaf0 4b3d d7e0 e03d d53d 2c3e
00000210: 5a63 773e d0ec 893e 6501 523e a6ca f63d
00000220: 5ed9 663e 22ae ab3e c048 803e 3231 5e3e
00000230: cb0f a3bd b369 fa3d cd5a 933d 9d7c a43d
00000240: 7444 0b3e 4cef 5c3d d2a0 103d 32f0 c53d
00000250: c38a 1b3e f3b8 efbc 37ab 2dbe 0d82 3dbd
00000260: a3d2 c9bd ce49 9bbd 6d4b 1dbe 6435 95bd
00000270: 2a77 a53d b681 d5bd 48af f83d 7c62 a53d
00000280: 44cc bb3d 44cd 0ebd 10e2 c7bc f28b 0b3e
00000290: ecb9 02be d9af 353d d29f ad3d d891 bf3d
000002a0: 505e ba3d b4a2 31bd 2dd5 853d b2e7 443b
000002b0: 2fa1 e53d 2d29 de3d c2c2 a6bd d66e 9ebd
000002c0: 1cae babb 2a7b ba3d 765d 9b3d 9491 fb3c
000002d0: 359a 783d c840 e63d 1973 bebc 4dd1 f33d
000002e0: f642 65bd 72d7 873d 1827 c73d 21fe 5a3c
000002f0: 9c5d 003e 420c 3bbd ad12 743c db00 c5bb
00000300: 33ad bd3d b907 b23d dc21 1bbe d579 b7bb
00000310: 0eda cebd 4a5f 303d 5d32 ba3c 4fa4 29be
00000320: fbe2 10be 661b 1e3d 6ea4 d43d 19a2 de3d
00000330: 01b5 b63d 9363 473d 7d27 f63d 3c5c cf3d
00000340: d73b 1ebc e0ff 19bd ef41 7ebd 4a9d 77bd
00000350: 9573 483d 2675 303e bac4 01bd d9d0 c83d
00000360: 1c21 ccbd f7cf 82bc a712 0f3e 033c 273d
00000370: bc70 a1bd 57da c2bd 124b 003e 3e44 df3d
00000380: a6f1 a9bd ed2b 223d 6262 de3d 15fa 52be
00000390: 9cbd bcbc 91c6 0f3e bee0 263e 9430 1ebd
000003a0: 9064 88be 6691 8fbd 75de 553e 64e9 553d
000003b0: a83e 9e3d 8c23 99be 34ef b13c 9036 933e
000003c0: 3c5d 833d f65d dbba d471 95be 924d c63c
000003d0: f003 4b3e dbc9 16bc d309 c8bd 66f2 d5bd
000003e0: 01bc 5e3c f6e2 3a3e d274 453c 5634 26bd
000003f0: 872c f9bd 4b75 cabd 74f3 84bd e0dc ed3b
0.014734015 0.22005095 0.00050263724 -0.2371656 -0.06968379 -0.11874395 0.14496244 0.32578227
-0.10045125 -0.19145156 -0.1615269 -0.14086641 0.23693176 0.22464372 -0.18225558 0.0980685
-0.28237948 0.07352374 0.17571357 0.11816805 0.20029324 -0.12844862 -0.17210028 0.01791433
-0.01505195 -0.040588357 0.17573033 0.17215365 -0.2026313 -0.027970243 -0.23017205 -0.021087663
0.31122813 0.057227645 -0.10917721 -0.20078348 -0.27872723 0.2628203 0.13750288 0.043947656
0.01052696 -0.3819523 -0.124603674 0.12629461 -0.060337733 0.1385605 -0.07565743 -0.23308167
-0.050956357 0.07108875 -0.12601107 0.2448677 -0.028160002 -0.18712611 0.013173902 -0.14669886
0.07718973 0.3323053 0.03284148 -0.19376977 -0.08162756 -0.1827862 0.27856612 0.08426798
-0.10019364 -0.008813944 -0.2326149 0.08436297 0.19368628 0.11580781 0.112187974 0.021707559
-0.13515225 0.11248111 0.08313812 0.061188493 -0.15288857 -0.03927371 -0.05451576 -0.118850365
-0.164054 -0.109999865 -0.19255404 -0.24526007 -0.08122334 -0.12757553 -0.2089905 -0.25676182
-0.043794893 -0.114884906 0.104134195 -0.12151902 -0.088974215 -0.05473665 -0.1162738 0.07053719
-0.05854843 -0.034076225 -0.072700694 0.02844802 -0.010232125 0.052144434 -0.053271145 0.07615174
0.08809753 0.06753133 0.03970817 0.05559183 0.025520122 -0.0674934 -0.009977466 0.02679927
-0.027249143 -0.089846596 -0.06983906 -0.05145548 0.00943158 0.01585674 -0.04343521 0.012354722
-0.16423286 -0.022804204 -0.0722983 -0.06554447 -0.04649164 -0.09250619 0.12905946 0.13535301
0.042007565 0.049790062 0.10980385 0.16820462 0.24158993 0.26938486 0.20508344 0.12050371
0.22543857 0.3353129 0.25055504 0.21698454 -0.07961997 0.12227192 0.07195053 0.080315806
0.13600332 0.05393915 0.03530962 0.09664954 0.15189652 -0.029262995 -0.16959845 -0.046266604
-0.09854629 -0.075824365 -0.15360804 -0.07285574 0.08079369 -0.10425131 0.12142807 0.08075425
0.0916982 -0.034863725 -0.024399787 0.13627604 -0.12766236 0.044357155 0.08477749 0.09353989
0.0910002 -0.043368056 0.06534801 0.0030045328 0.11212384 0.108476974 -0.08142616 -0.07735984
-0.005697025 0.09105523 0.07586186 0.030709065 0.06069394 0.11242825 -0.023248242 0.11905155
-0.055972062 0.0663289 0.097242534 0.013366253 0.12535709 -0.045665987 0.014897031 -0.006012065
0.09261551 0.08692879 -0.15149635 -0.0055992403 -0.101001844 0.043059625 0.022729093 -0.16566585
-0.14149086 0.038600348 0.10382925 0.108707614 0.089212425 0.048678946 0.120192505 0.10125014
-0.009657822 -0.037597537 -0.062074598 -0.060452737 0.048938353 0.17232189 -0.031681754 0.098054595
-0.099672526 -0.015968306 0.13971959 0.040828716 -0.078828305 -0.09514301 0.12528637 0.10901688
-0.08298044 0.039592672 0.10858609 -0.20603211 -0.023039632 0.14040591 0.1629667 -0.038620546
-0.26639223 -0.070101544 0.20885642 0.05222453 0.077267945 -0.29909933 0.021720506 0.28752565
0.064142674 -0.0016736377 -0.29188406 0.02420691 0.19825721 -0.0092033995 -0.09767499 -0.104466245
0.013594628 0.18250641 0.012051778 -0.040577255 -0.12166696 -0.09885653 -0.064917475 0.0072589964

bias f4 [32]
00000000: e326 a4be de86 eb3d f3a7 193e 7bee c2be
00000010: f840 11be bf5a afbd 4332 3bbe 62ca a9be
00000020: 5fb5 4c3e d851 da3d b4ad 1bbe b758 1bbe
00000030: b9a7 20be fa53 33be 7ee6 39be 001e e2be
00000040: 6e27 1bbe f14b 7abd 52af f6be 2fee 5abe
00000050: 8b63 053e 1933 4f3e b8c8 aebe a3ab 01be
00000060: fc93 a2be c6da 7dbd 72aa e2bb 1f0e 4a3e
00000070: e7b3 abbd f921 9dbd 7d32 acbe b47b 05be
-0.32060918 0.11500333 0.15005474 -0.3807257 -0.1418494 -0.0856223 -0.18280892 -0.33162218
0.19991063 0.10660142 -0.15202981 -0.15170561 -0.15688981 -0.17512503 -0.18154332 -0.44163513
-0.1515176 -0.06110758 -0.48180634 -0.21379922 0.13026254 0.20234336 -0.3413751 -0.1266313
-0.31753528 -0.061976217 -0.0069172913 0.1973195 -0.08383923 -0.076724954 -0.3363227 -0.1303547

weight f4 [32, 32, 5, 5]
00000000: 0632 84bc e56c 2f3d 4444 91bc cb51 bfba
00000010: e89d babc 5c16 5ebd 8bdc 0d3d 8dfd 2bbd
00000020: 1881 983c 3424 faba 1598 c73b 8161 4d3d
00000030: 2111 c7bc 5816 54bc a437 3bbd 2fef 3abc
00000040: 0ec1 493d bb4e 8fbc f6ae db3b 7063 2fbc
00000050: 4a14 44bc c583 b2bb c0c4 173c eb1d 58bc
00000060: b98e 27bc f585 21bd e03b 863c 9776 823c
00000070: b2a9 d13c bd8b 9cbc d479 d6bc 5343 593c
00000080: d2d9 b23b cf3d 3dbc 89f8 0bbd 1345 133c
00000090: a4ca 03bc 328f fb3b 70d7 a7bc ce37 633b
000000a0: 1974 913a 564a 173d 6b15 5d3d 8a39 fe3c
000000b0: 5d5c b33c 6f71 febc 6072 8e3c 23d6 1c3c
000000c0: 6a89 32bc 36c2 1e3d 4865 853c 80e6 cc3c
000000d0: b675 923a 34e4 f8bb bdbe 183d 0505 5c3c
000000e0: 6d5c 9b3d 011b 283c b08b 7cbc 3432 a7bb
000000f0: a8c7 fabc a38f 413d 3a71 32ba e44c 15bc
00000100: a818 e43c 72ec 41bc 1b60 0d3c 8cd3 513b
00000110: 6d77 0ebd 59a3 1a3d 9bb0 bbbc 06ff 0cbd
00000120: f99d 26bd 2172 57bd d2c1 91bd 7038 3e3d
00000130: 7cc9 acbc 8245 513d 9520 17bc 1024 853b
00000140: 38e8 fb3c b01c e0bc 8ca5 093d b887 01bc
00000150: bc1c 923c fd09 8c3d 271d e1bc 30b7 043d
00000160: 495b fb3c 76b0 7c3c 37d0 783d 00f2 c3b5
00000170: d42e aa3d c0fc 0f3d 5144 863b 722e ebbc
00000180: c54b 29bd 1cb5 8dbc 6a42 833c 8f9e 02bc
00000190: 8a48 03bd ca89 f6bc be8e 423c e361 75bd
000001a0: 25c6 3cbd 82c2 283b c760 0e3c 7ec4 87bc
000001b0: f6f6 07bc 3b9d ce3c 585a 223c 0ae6 d73c
000001c0: 574c a3bc be80 6abd b754 2dbc 5342 083d
000001d0: 7989 953d 48dc 053d 2499 d93c b41a 3c3d
000001e0: 3a8a 25bd 1233 18bc 8ca6 d5bb 65c6 4fbd
000001f0: 5042 90bd 0ba2 043d a4da 613b 2250 8b3d
00000200: d0e2 04bc 0ad2 123c 2f27 7c3c ce30 bd3c
00000210: 21a9 8a3d 432c c1bb ae65 d7bb 3fc3 273d
00000220: 5ff5 3f3c 8e5b a53d 5f99 053d bbeb 043c
00000230: 3a59 063d 2bbc 02bd ae22 0f3b b531 423c
00000240: 1280 ed3c 3074 173d d2a3 023c 9a3b 053d
00000250: e03c 29bd 4b7d 0c3c 1033 c13a c4ed 323c
00000260: d5ec 6fbc facb a33c 491d 6eba 2c3f f03b
00000270: c83f 963c 0135 43bc 0846 0dbd 2117 11bb
00000280: aa15 7a3a b870 15bd 8f4f 18bc c6c9 98bc
00000290: 0c8e 913b e6d5 8f3d 73c2 683d e6ba 063d
000002a0: 23f2 693d 8f9a fb3c 3812 afbc 6d24 edbc
000002b0: 9ed5 2fbd 0911 36bd cc80 73bd 84ad fb3a
000002c0: 109d a2bc bdd7 02bd 462f 32bd 1ad6 9cbc
000002d0: b687 01bd 677c aebc 64c7 0ebd 597c 2c3c
000002e0: dc8d ffbc 68b0 1cbd 739b 103c 3e62 efbc
000002f0: ba5a 3d3c ab5d babc e7c1 563d 16c6 923c
00000300: c158 8b3d 8caf 7c3d 67d1 7b3c 8313 2d3d
00000310: f50c 693d 2859 613d c917 8a3d a77c 203d
00000320: 5201 d3bb 4a75 cc3c 928a 92bc 25e3 8f3c
00000330: 704e dabc 2e5d 013d 07c7 9c3c 970e fe3c
00000340: 3d7d 613c e94c a63c c345 343c ee2b a83b
00000350: e7f8 093d 744e 113d 9477 36bb c515 8bbc
00000360: a021 333d 83da f73c 6d30 26bc 6b4c 1f3d
00000370: 86f3 cfbc 0b57 17bc 4d44 dcbc 54eb bcbc
00000380: 3bf1 27bd 6734 403d 3b77 bb3b db4d bf3c
00000390: f8ca 0c3d 0c77 223d 195e 77bc 2d54 703d
000003a0: 3886 aa3c 35ca 003d d6ff 1a3d 396b c93c
000003b0: bab9 8d3d 5153 d33c 8a12 553d 2527 6d3d
000003c0: 746c 1b3c ab2c 783d 0407 71bc e67b 603d
000003d0: 2055 f93b 4214 b03c f033 273d be93 ccba
000003e0: fea2 e2bb 6424 aebc fe45 a1bc a600 103d
000003f0: 278c ef3b fb26 683a 7757 a3bc 2ef4 1abd
-0.016137134 0.04282846 -0.017732747 -0.001459652 -0.022780374 -0.054220542 0.034634154 -0.04198985
0.018616244 -0.0019084276 0.0060911276 0.050141815 -0.02430016 -0.01294478 -0.04570736 -0.011409565
0.049256377 -0.017493596 0.0067042066 -0.01070486 -0.011967728 -0.005447837 0.009263217 -0.013190727
-0.010226899 -0.039434392 0.016385972 0.015925689 0.025593612 -0.019109601 -0.026181139 0.01326068
0.005458095 -0.011550381 -0.03417257 0.008988637 -0.008043919 0.0076769823 -0.02048847 0.0034670713
0.0011097222 0.036936127 0.053975504 0.031033296 0.021894628 -0.031059949 0.017388523 0.009572539
-0.01089702 0.038759433 0.016283646 0.025012255 0.0011173997 -0.0075955633 0.037291277 0.013428931
0.07585988 0.0102603445 -0.0154141635 -0.00510242 -0.030612782 0.047256123 -0.0006807033 -0.00911257
0.027843788 -0.011836158 0.00862887 0.003201696 -0.034781862 0.037753437 -0.02291136 -0.034422897
-0.040678 -0.052599076 -0.071170464 0.04644054 -0.021092169 0.05109168 -0.009224077 0.004063137
0.030750379 -0.02735743 0.033605143 -0.007905893 0.017835967 0.068378426 -0.027479721 0.032401264
0.030683177 0.015422931 0.060745444 -1.4599063e-06 0.08309713 0.03515315 0.0040974994 -0.02870867
-0.041332025 -0.017298274 0.01602288 -0.007972374 -0.0320516 -0.030095 0.011874853 -0.059907805
-0.046087403 0.0025750701 0.008690066 -0.016573187 -0.008298626 0.025221458 0.009909235 0.026354808
-0.019933863 -0.057251684 -0.01057928 0.033266377 0.073016115 0.03268078 0.026562281 0.045923904
-0.040415026 -0.00928952 -0.006520098 -0.050726313 -0.07043898 0.0323811 0.0034462595 0.068023935
-0.008110717 0.00896121 0.0153902015 0.023094561 0.0677054 -0.005895169 -0.0065734005 0.040957686
0.011716216 0.08074103 0.03261697 0.008112843 0.032799937 -0.031917732 0.002184074 0.011852671
0.028991733 0.03697604 0.007973628 0.032527544 -0.04131782 0.008574794 0.0014739949 0.010920946
-0.0146438675 0.019994725 -0.00090833433 0.0073317494 0.01834096 -0.011914493 -0.034490615 -0.002213903
0.00095399714 -0.03648445 -0.009296312 -0.0186509 0.004441982 0.0702322 0.056826066 0.032893084
0.057115685 0.030713348 -0.021370992 -0.028948033 -0.04292833 -0.04444984 -0.059449002 0.0019201492
-0.019850284 -0.031944025 -0.043502115 -0.01914506 -0.031623565 -0.021299554 -0.034858122 0.010527694
-0.031195574 -0.03825417 0.0088261245 -0.02922165 0.011557275 -0.022749742 0.052431013 0.01791672
0.06804038 0.061690852 0.01536975 0.042254936 0.056897122 0.055016667 0.06742818 0.039181378
-0.0064393664 0.024958272 -0.017888341 0.017564366 -0.02664873 0.031583004 0.019137872 0.031012816
0.013762769 0.020300345 0.011002961 0.00513219 0.033684637 0.03547521 -0.002784227 -0.016978154
0.04373324 0.030255562 -0.010143382 0.038891237 -0.025384676 -0.009237061 -0.026888037 -0.023061432
-0.04100154 0.046924975 0.0057210005 0.023352554 0.034373254 0.039664313 -0.015098118 0.058674026
0.020815954 0.03144284 0.03784164 0.02458726 0.0692019 0.025796564 0.052019633 0.05789866
0.009486306 0.060589474 -0.014711145 0.05480566 0.0076090246 0.021494035 0.040821016 -0.0015607995
-0.006916403 -0.021257587 -0.019686695 0.03515687 0.0073104086 0.0008855906 -0.019939167 -0.037830524

bias f4 [32]
00000000: 85ee 6ebd 6a5a b4bd a233 eabd 1fc0 0ebd
00000010: 9675 9b3c f83d db3c 9259 37bc 4cdd acbd
00000020: b5c9 a1bd 21e0 813d 0166 0f3d f332 30bd
00000030: b50b 0abd ae43 373c 6e34 8cbd 88da 34be
00000040: 44d3 0d3c 7509 48be 1bb5 dbbd f792 c3bc
00000050: 79f4 00bc eae3 aa3a b22b f3bc 2b71 04be
00000060: 6173 cabd 0973 04be c4a7 76bd cf2a 8bba
00000070: e02d b8bd 3ce1 12be e7d0 3ebd cc0d 3cbd
-0.05833294 -0.088063076 -0.114356294 -0.03485119 0.018976968 0.026762947 -0.011190789 -0.084406465
-0.07899801 0.06341577 0.035009388 -0.04301734 -0.03370257 0.01118557 -0.06845938 -0.17661488
0.008656327 -0.19534858 -0.107279025 -0.02387379 -0.007870787 0.0013037894 -0.029683921 -0.12933795
-0.09885288 -0.12934507 -0.060218588 -0.0010617616 -0.08993125 -0.14343733 -0.046585944 -0.045911595

weight f4 [64, 32, 5, 5]
00000000: 39ce 383c deb7 90bc 4d34 9e3c ccd6 a3bc
00000010: 464f 4d3d 02e3 02bc de38 f8bb 9d68 1abd
00000020: 70f8 6ebd 1578 97bc e05f a9bc 49a5 393d
00000030: ad1f a1bc 0ae1 b0bc 6840 11bc 1095 5dba
00000040: 5f0d 37bd b25e 4d3c 5000 49bd a698 cf3b
00000050: 9355 4fbb fb84 e93b b252 b03b 2bd0 c0bb
00000060: c98c 0ebc 607b ac3c 749d 613c 9abf 5c3d
00000070: 5260 273d c4b9 3b3c 04cd c53b 04f9 c7bc
00000080: a773 cdbc c6a8 403d 5657 013d 49c9 e1bc
00000090: 6b54 35bd 27b7 023c 03e8 a63c 8d0c 8bbb
000000a0: 0944 8ebc 0330 74bc 4ec3 183c 3e37 21bc
000000b0: 385b 0a3d 404b 4839 9956 623b c299 063d
000000c0: a647 0c3d 041f 0d3d e213 46bd b90c 1ebc
000000d0: 0990 833b 387c 033c 38f6 d5bb 4a7e 9f3c
000000e0: 6399 aa3c cc30 eebc bc4c afba b5a5 21bc
000000f0: 51f9 953c 4b7b 83bc 1f69 5bbd 8470 2ebd
00000100: 133c 85bb 3c4b 853b 64b3 e43c d865 b13c
00000110: 98c2 47bd 2a5a 26ba e4d9 84bc d422 1bbd
00000120: a4d2 81bd eb08 88bd 8cef b0bc 980d a23c
00000130: 2044 acbc 95b3 9a3c b293 36bc 6c7f 15bc
00000140: 491d 803b f982 1ebd d385 4fbb b836 683b
00000150: fe08 81bc 517f 0c3d 0555 8c3b fc24 dbbc
00000160: 8f2c c33a 4904 143d 9ee3 053d 3681 13bc
00000170: fa22 b63c dffd 473c e51d 523d 34e3 9dbc
00000180: 703a bcbc 416c f2bc 57fe e8ba afac 4dbc
00000190: de35 193d dfb9 d93c a460 863c 7942 f53c
000001a0: b214 63bc a553 6b3c 8555 e33c 197a 72bb
000001b0: ce94 4fbc a266 123d 32df c6bc b1b9 54bc
000001c0: 27ec 5f3c f366 c2ba 48fe 5d3d 9201 1cbc
000001d0: 8681 643c 9fb9 23bc 3306 aebc f1ba 09bc
000001e0: 3402 993d 0168 123d c127 093d a1d3 323d
000001f0: 0f1a 263c c3fb dcbc 8ea0 753b 99c8 4d3c
00000200: 9548 dd3b 687e e23c d29d 5abc 7efe 7b3c
00000210: 3adb 21bc 5978 dbbc 7fa5 15bc adf3 3b3d
00000220: 9f6c 86bc 8257 13bd 8c37 cabc 5b61 a5bd
00000230: 9a46 7a3d d945 3f3d 66e1 9f3b 66fb 8fbd
00000240: 6d75 46bd 73ac 5b3d b0ca de3c 72d7 2b3d
00000250: 2d65 3cbd a786 d8bb 84d0 b73c 8eb1 5bbc
00000260: 23db 4dbd 4f35 35bd e96a b5bc eb32 a83b
00000270: 2be1 7d3c b930 17bd 9847 ccbc d8f4 983c
00000280: c1e4 c23b 356d 893c e2d9 2abd d325 663c
00000290: 601a 123c 25b9 e63b 5e4c 5bbc 0fa8 a4bc
000002a0: 2e06 45bd ba18 dcbc dab0 1b3d 0b95 27bc
000002b0: 4328 46ba 20b5 a13c 1c9a c23b 832e d43c
000002c0: 30a2 843d 8084 393d 37d8 9abc 7823 633c
000002d0: 80cd a53b 7d8f 213d a2a5 f0bc f43a 09bd
000002e0: f033 c23b 9f38 18bd 0eb3 1b3d acec e2bc
000002f0: c99f 5cbd fa65 c23b cb62 263d 83d1 ab3c
00000300: de84 debc 5ee3 4fbd d62b d8bc 9bf1 d53c
00000310: d76d 183c fe54 203c 1c85 073c 446d 9f3c
00000320: d8f9 08bc ebdb 143d 3d99 b83c 1562 bc3c
00000330: 0452 23bd cf70 0a3d 2ed5 b1bc 5ae0 593c
00000340: 8a60 933c 4f62 c03a 1045 82bb 6a87 54bd
00000350: 82d8 0a3c 854d 8e3c 81aa 0cbd 3337 993c
00000360: 5f95 323b ba14 eebb 5035 273d 8648 33bd
00000370: 09fc 023d 2aeb 3cbc 92c3 023d 9c05 583c
00000380: 5a94 00bd 0c1e 03bd 1add 9aba 07ce 8fbb
00000390: 87b4 1aba 51fc 763c 9f00 333c 924f e13b
000003a0: fe2a 853c 493a ddbc 0ced 873c eda4 6abc
000003b0: 7164 10bd 6921 4a3c edf6 9cbb 2048 203c
000003c0: 6a7e babc 525f 27bd 5a9c 55bd 5e80 a73a
000003d0: 9494 0c3d 70b3 d63a b99a 43bc a4d8 33bd
000003e0: 1da4 44bd 1418 1cbc 82ee f23c 124d 5cbd
000003f0: 08dd d53b b36e 8ebc 1098 49bd 96aa 293c
0.011279636 -0.0176658 0.019312048 -0.019999884 0.05012443 -0.007988693 -0.0075751385 -0.037697423
-0.058342397 -0.018489877 -0.0206756 0.045323644 -0.019668425 -0.021591682 -0.008865453 -0.0008452693
-0.044690486 0.012534784 -0.049072564 0.006335336 -0.00316367 0.007126448 0.005380952 -0.0058841906
-0.008700558 0.021054924 0.01377045 0.053893663 0.040863343 0.011457864 0.0060364027 -0.024410732
-0.025079561 0.047035955 0.03157743 -0.0275618 -0.04426996 0.007978237 0.020374304 -0.0042434395
-0.017366426 -0.014904025 0.009323908 -0.009839831 0.0337784 0.00019101519 0.003453648 0.03286148
0.034248017 0.034453407 -0.048358805 -0.009646588 0.004014973 0.0080252215 -0.0065295957 0.019469399
0.020825094 -0.029076003 -0.0013374309 -0.009866168 0.01830736 -0.016050002 -0.05356705 -0.042587772
-0.0040659993 0.0040678065 0.027917571 0.021655008 -0.048769563 -0.0006345833 -0.01621718 -0.03787501
-0.06339005 -0.06642326 -0.0215986 0.019781873 -0.021028578 0.01888446 -0.011143612 -0.009124618
0.003909741 -0.038699124 -0.0031665459 0.0035433006 -0.015751358 0.034301106 0.004282596 -0.026751034
0.0014890599 0.0361369 0.032687776 -0.009002974 0.022233475 0.012206524 0.05129804 -0.019273378
-0.022977084 -0.029592635 -0.0017775994 -0.012553378 0.037404887 0.026577888 0.016403504 0.029938923
-0.013859915 0.014363204 0.02775074 -0.0036999045 -0.012669755 0.03574241 -0.02427635 -0.012983725
0.013667143 -0.0014831707 0.05419758 -0.009521859 0.013946896 -0.009992986 -0.02124319 -0.008406387
0.07471123 0.035743717 0.033485178 0.043658856 0.010138049 -0.026975518 0.0037479731 0.012560033
0.006753037 0.027648166 -0.013343291 0.0153805 -0.009878928 -0.026790785 -0.009133696 0.045886684
-0.016409216 -0.035972126 -0.02468469 -0.0807521 0.061102487 0.04669747 0.0048791645 -0.07030372
-0.04845183 0.053631257 0.027196258 0.04195351 -0.045994926 -0.0066078487 0.022438295 -0.013409032
-0.050257813 -0.044240292 -0.022145705 0.005133023 0.015495579 -0.0369117 -0.024936482 0.018671438
0.0059476797 0.016775707 -0.041711695 0.014047104 0.008917421 0.007041114 -0.013384907 -0.020099668
-0.048101597 -0.02686726 0.038010456 -0.010228406 -0.00075591 0.019739687 0.0059387814 0.025901085
0.06476247 0.045292377 -0.018901927 0.013863437 0.005059898 0.03944348 -0.029375855 -0.033503488
0.0059266016 -0.037163373 0.038012557 -0.027700745 -0.05386332 0.0059325667 0.04062156 0.020973926
-0.027162965 -0.050753944 -0.02638809 0.026116183 0.009303532 0.009785889 0.008271482 0.019461282
-0.008360349 0.036342543 0.022534007 0.022995988 -0.039873138 0.03379899 -0.021708097 0.0132981185
0.01799037 0.0014677736 -0.003975518 -0.051886953 0.008474471 0.017370949 -0.034342293 0.018703079
0.0027249677 -0.0072656544 0.040822327 -0.043770336 0.03197864 -0.011530677 0.03192479 0.013184931
-0.03139148 -0.032011077 -0.0011815161 -0.004388574 -0.00059015345 0.015074805 0.010925441 0.0068759406
0.016255852 -0.027005332 0.016592525 -0.014321548 -0.03525204 0.012337067 -0.004790178 0.009782821
-0.022765357 -0.04086239 -0.05215106 0.0012779345 0.034321383 0.0016380381 -0.011938744 -0.043907776
-0.048008073 -0.009527225 0.029654745 -0.053784437 0.006526593 -0.01738677 -0.049217284 0.010355612

bias f4 [64]
00000000: 8601 73bd 49b7 5cbd 8a87 6a3c ddea 49bd
00000010: abe2 b6bc faa9 0d3c f604 94bc ae38 83bc
00000020: a9f2 5fbd 9fb9 ffbc 73b7 44bd ceb2 17bd
00000030: 7efa cebb 90c8 b13b a449 2cbb f7ac 9dba
00000040: e42b 2cbd a0ac 64bc 0807 bcbc 19e0 34bd
00000050: c674 42bc 8b1c 82bb de6d 9ebc 6780 8439
00000060: bf0e dc3c f7a3 053b 6800 f6bc b7d7 83bc
00000070: 4218 89bd 0886 91bc 6d97 7bbd ded2 3bbd
00000080: 0fe9 183c 7081 41b9 67e1 8dbd ec5b 24bd
00000090: 9e78 6d3a a4c4 9abc 475e 45bc 9cbb a8bb
000000a0: ec7e d5bc 76bc 1fbd 72be b0bd dcc9 0cbc
000000b0: 81ee c73b de94 a53c 78b5 b4b9 f857 84bd
000000c0: 34cb bcbc b022 9e3c 407c 0abc 4848 08bd
000000d0: 0f2e 85bd 092a 3dbb 4e25 dc3c 5dd0 e53b
000000e0: 725c b2ba 102f d23c 40dd 1d3d 85d4 60bd
000000f0: 81a7 c4bb a21a a13b 41b9 af3c f6b9 78bb
-0.059327625 -0.05388573 0.014314542 -0.04929625 -0.02232488 0.008646483 -0.018068772 -0.016018238
-0.054674778 -0.03121644 -0.048026513 -0.037035756 -0.006316482 0.0054255202 -0.002628901 -0.0012029697
-0.042034045 -0.013957173 -0.022952572 -0.04415903 -0.011868661 -0.0039706877 -0.019339498 0.0002527267
0.0268625 0.002039192 -0.03002949 -0.016094072 -0.0669408 -0.017764106 -0.061423708 -0.045855395
0.009332909 -0.00018454134 -0.06927758 -0.040126726 0.0009058806 -0.018892594 -0.012046403 -0.005149318
-0.026061498 -0.03899809 -0.086300746 -0.008593049 0.00610143 0.020212587 -0.0003446748 -0.06462091
-0.023046114 0.01930365 -0.008452475 -0.033272058 -0.065029256 -0.0028864166 0.026873257 0.007013364
-0.0013607873 0.025657207 0.03854108 -0.054890174 -0.0060014133 0.004916505 0.02145064 -0.0037952638

weight f4 [64, 1024]
00000000: b76b 46bb a65f a8bc 6e8c 973c 7fa4 b9bc
00000010: 04da 5abc d42c dfba 26ae 613b 7bf3 ea3b
00000020: 4812 ec3c f961 993c be60 ea3c a749 d4bb
00000030: 01b8 f63c b594 6cbc d97c 58bc 6f5c afbc
00000040: c47e 97bc b3d2 09bd dcae 39bd 582d b2bc
00000050: 8ead 3cbd adbc b7bc 4243 3f3d abc2 f2bc
00000060: 6025 113d 2b0c 8b3b 7803 32bd 44da 1abc
00000070: d28c febb 3c4e dfbc dbc5 39bd 886c 63bc
00000080: 9d0a 183d 1756 b2bc 402e 613c 0112 42bc
00000090: fa92 0abc 24c9 493c 98f2 3e3b 5f5b c33c
000000a0: 44b4 1bbd e37f 8b3c 40b1 5d3d 7fea dd3c
000000b0: 4e07 49bd fb39 eebc b17f 073c f1d9 7f3b
000000c0: 7a54 9cbc 2970 003b e240 873c 07c5 88bc
000000d0: 513b 42bc e3e1 3a3b f815 a0bc 97fd ad3c
000000e0: ea92 00bd ddef b6bc 1a89 f6bc 0f47 923b
000000f0: 4c35 13bd 1c31 05bd 13a6 6ebd 7592 b7bc
00000100: f87e 6fbc 4f7c 98bc f48a 30bd 45cf 3fbd
00000110: 778f 6a3b 7fd1 203d 0155 88bc 410d d9bc
00000120: 8c78 90bc b803 863c 04cd f0ba 6004 f639
00000130: dabf fd3c db12 1dbd d568 90bc d311 d5bb
00000140: ad74 073d 8080 e1bc d7bd 173d 81ba c7bc
00000150: 2984 d03c a5a7 133c 3aca 7ebb 9ff6 5dbc
00000160: ff6a 7cbc a444 30bd 673c 3dbc f30b fdbc
00000170: b348 25bd edb3 323c 0641 bbbc 102e 1dbc
00000180: 1c38 17bc 165c a1bc 0090 76b9 1d17 b3bc
00000190: 0f6e c83c 22a4 19bc e3e9 743b d665 c6bb
000001a0: 779e 203d 8695 0b3c 796f 543d 5c69 013c
000001b0: 31f8 aa3c 24e3 7abb 6b31 bdbc 24c9 e33c
000001c0: 748c c0bb f7bd f9bc 4222 20bc e7d9 59bd
000001d0: 0a4f 0a3c 6152 4e3b 817a 6d3c 59b5 75ba
000001e0: 4b8e 953c 6f64 b43b 61a6 17bd b19f 5c3c
000001f0: 9195 923c 6591 9a3b fac0 72bb 5ccf 37bc
00000200: 8d69 51bc f5dd 8bbc dd08 933c 6e25 a53c
00000210: 2090 c13c 1cf6 df3c 25d6 5a3d 8572 80bc
00000220: 1e5b 9b3d 069c c83c 6492 0a3d e10b eebb
00000230: 86ac c63c 9f53 05bd 0262 03bd eb33 63b9
00000240: ab1f 363d 364f df3c aa11 913c e9b4 353d
00000250: cd4d 993c 5461 263d eab0 4c3d 66f3 193d
00000260: d847 9ebc 1636 12bc bd2f 97bc f524 a1bc
00000270: e68b 7fbc a4a6 913a 84f9 84bc c598 b3bc
00000280: 14e2 cbbc a484 90bc 0f85 93bb ffb5 e03b
00000290: b07f 5ebc 6d1e 06bd 658e 64bd fe56 8bbc
000002a0: 55a3 ad3c 2dbc 8dbc 854a be3b 51cc 12bc
000002b0: 1120 b93c 7cc4 d9bc 5660 5abc b48b 9c3a
000002c0: 06cf debb a8d5 823c e475 8bbc 29c1 c53c
000002d0: db60 a83c 61b9 1b3d 10c0 99ba 040a 1a3d
000002e0: 8e79 12bc e56e bf3b 88c2 19bd 6658 f4bc
000002f0: 8b20 8abc 36c4 c9bc 16f1 82bd fcdc ca3c
00000300: 67f6 253c c7de 4bbd 4474 9d3c 127c 54bc
00000310: c333 16bd 3c84 f63a b8b7 cf3c 6cf5 d239
00000320: 806a a0bc f49e 3fbd d67a 573c 07ba 95bc
00000330: d7f1 0cbc 1d5c b6bc 45cd 2cbd 06e2 04bd
00000340: 2717 ca3c 4f74 25bd 33f8 ca3b bb36 d23c
00000350: 7bc7 473c 69f8 f93c e770 593d a914 4e3b
00000360: f3a8 153d 9c0b c23c 0cd5 6d3d 0474 c63c
00000370: c2dc 233c 0f88 663c d686 2f3d fedd 88bc
00000380: bfe2 b5bc f8b8 35bd fcd6 16ba 07fe 72bc
00000390: 256f f4bc c8cb d7bb 6032 e83c 0ead 14bd
000003a0: 35b0 563d 0916 87bc a38c 63bc 44a5 39bb
000003b0: 3039 6f3c 76e4 7b3c 2bc3 113c e376 10bd
000003c0: aa7a 26bd fad0 6bbc e814 6dbb d6e9 e23c
000003d0: 63a8 003d 526c 82bd 4d9a efba 5a60 193d
000003e0: 6f3f 033d d6c5 81bd b0e4 0a3b 04ec 873c
000003f0: acad 58bd 3fca 3fbd f302 6ebd c256 7dbc
-0.0030276605 -0.020553421 0.01849958 -0.022661446 -0.013357643 -0.001702691 0.0034436076 0.0071701384
0.02881731 0.018723475 0.028610583 -0.0064785066 0.030117037 -0.014439751 -0.01321336 -0.02140638
-0.018493064 -0.033648204 -0.045332775 -0.021750137 -0.046063952 -0.022428835 0.046695 -0.02963384
0.035436034 0.004243394 -0.04346034 -0.009451453 -0.007768252 -0.027258985 -0.045354705 -0.013880856
0.037119497 -0.021769566 0.013743937 -0.011845113 -0.0084578935 0.012316022 0.0029136296 0.02384728
-0.03801371 0.017028755 0.054124117 0.027089356 -0.049079232 -0.029080382 0.00827019 0.0039039815
-0.01908325 0.0019598103 0.01651043 -0.016695512 -0.011854962 0.0028515987 -0.019541726 0.021239085
-0.03139011 -0.022331173 -0.030094672 0.0044640373 -0.0359395 -0.032517537 -0.05826385 -0.022408703
-0.014617674 -0.018613962 -0.043101266 -0.046828527 0.0035791078 0.03926229 -0.016642096 -0.026495578
-0.017635606 0.016359195 -0.0018371646 0.00046924036 0.030975271 -0.03834806 -0.017628113 -0.006502369
0.033070255 -0.027527094 0.03704628 -0.024380924 0.025453644 0.009012138 -0.003887786 -0.013547569
-0.015406369 -0.04303421 -0.011550046 -0.030889487 -0.040352535 0.010907155 -0.022858154 -0.009593502
-0.009229686 -0.01969723 -0.00023514032 -0.021861607 0.024466543 -0.009377511 0.0037370853 -0.0060546203
0.039213624 0.008519536 0.05186412 0.007898655 0.0208703 -0.003828236 -0.023094853 0.027805872
-0.0058761183 -0.03048609 -0.009773793 -0.053186323 0.008441696 0.0031482207 0.014494539 -0.0009373031
0.018256327 0.0055051367 -0.037023906 0.013465808 0.017893584 0.0047170394 -0.0037041293 -0.011218872
-0.012781513 -0.01707361 0.017948562 0.02015945 0.023628294 0.027339034 0.05342688 -0.015679607
0.075857386 0.02448846 0.033831015 -0.0072645997 0.024252187 -0.03255045 -0.03207589 -0.00021667748
0.044463795 0.02725945 0.017708618 0.044361982 0.018713856 0.040620163 0.049973406 0.03758564
-0.019321367 -0.008924028 -0.01845538 -0.019670943 -0.015597319 0.0011112285 -0.01623226 -0.021923432
-0.024888076 -0.017641373 -0.004501946 0.006857633 -0.013580248 -0.03274386 -0.05579986 -0.017009255
0.021196047 -0.017301643 0.0058072233 -0.008959846 0.022598298 -0.026582949 -0.013328632 0.001194349
-0.0067995815 0.01597102 -0.017023988 0.024139958 0.020553997 0.038018588 -0.0011730213 0.037607208
-0.008940114 0.005842077 -0.037539035 -0.029827308 -0.01686122 -0.024629693 -0.0639364 0.024763577
0.010129548 -0.049773004 0.019220479 -0.012969034 -0.036670458 0.001880772 0.025356159 0.00040237175
-0.019582033 -0.04678245 0.013151845 -0.018277181 -0.008602581 -0.02226072 -0.042187948 -0.032442115
0.024669243 -0.040394124 0.0061941384 0.025660863 0.012193556 0.030513959 0.053086188 0.003144542
0.036538076 0.023687176 0.058064505 0.024225242 0.010001363 0.014070525 0.0428532 -0.016707417
-0.022202848 -0.044365853 -0.0005754081 -0.014831073 -0.029838154 -0.006585572 0.028344333 -0.03629785
0.052414138 -0.01649 -0.013888511 -0.0028327266 0.014601037 0.015374294 0.008896629 -0.03526963
-0.040644325 -0.014393086 -0.0036175791 0.027699392 0.031410586 -0.06368317 -0.0018280238 0.037445404
0.032042917 -0.06336562 0.0021193437 0.016592033 -0.0529 -0.046823736 -0.05810828 -0.015462579

bias f4 [64]
00000000: 1c3f a43c 966b 043c e753 0f3c 4d0e 13bb
00000010: 2727 eabb da80 1a3d 2dcc b6bc 10d5 a43c
00000020: 69b1 6ebc 5ab6 673c 7071 973b 532f 76bc
00000030: a79a 06bd 5076 16bd 5e7a 343b ae61 453c
00000040: ba48 723c c15f 90bc 8d66 dc3c 00be 4dbd
00000050: e753 e8bc 063a b43c f0a6 b6bc 0b59 02bc
00000060: 1375 78bb 703f 89bc 40ce 4bbd 7d6b 46bc
00000070: a277 13bc 0c53 643c 747e 0a3d 1961 37bd
00000080: bdfe 0b3c 1294 e13a 4d5c aabb 04ce 85bc
00000090: c876 873c b227 5bbc 5a2d c13c a3c2 22bd
000000a0: 2287 0bbc 9644 c43c fd9b 023d 1962 7ebc
000000b0: be92 60bc 99d3 d9bc 4202 2bbc fc49 f63c
000000c0: e86c 433c 4025 2e3d ed79 c939 cc79 8f3c
000000d0: 6611 81bb e429 493d 37d7 b6bb fbeb 073c
000000e0: 3775 223d 0595 e63a 3c26 8cbc 157b 67bc
000000f0: 72bf 70bc 7b5f 99bc 38dc 6e3c 4c29 8fbb
0.020049624 0.008082291 0.008748031 -0.0022438944 -0.0071457806 0.03772054 -0.022314155 0.020121127
-0.014568665 0.014142597 0.004621677 -0.015025931 -0.03286233 -0.036733925 0.0027538757 0.012047214
0.014787847 -0.017623784 0.026904369 -0.050230026 -0.02836032 0.022000324 -0.022296399 -0.0079558
-0.0037911579 -0.016753882 -0.049757242 -0.012110588 -0.009000691 0.013935816 0.033812 -0.044770334
0.008544621 0.0017210266 -0.0051989914 -0.016333587 0.016536132 -0.013376163 0.023581196 -0.0397364
-0.008516105 0.023958486 0.031887043 -0.015526318 -0.013706861 -0.026590155 -0.01043755 0.030064575
0.011927821 0.042515993 0.0003842855 0.017514132 -0.0039388416 0.049112216 -0.005579855 0.008296008
0.039662566 0.0017592019 -0.017108075 -0.014128466 -0.014694082 -0.018722286 0.014578871 -0.0043689366

weight f4 [10, 64]
00000000: f953 473e 6a47 853b b2eb 7ebe 07cd ac3d
00000010: 6916 ef3d 71b4 b1be e3b4 d6bd 19e7 89bd
00000020: d1e9 76be ed07 ff3b 903c e33d 8727 dc3d
00000030: 23f5 8d3d 1760 63be 3774 993e 2ec6 44bd
00000040: c327 3b3e 515d 86bd e2ef 84be c1d5 27be
00000050: e44d 13be c311 6ebe cab3 b9bc 7586 31be
00000060: f2a2 723e ad97 09be 3e69 7fbe a662 ae3d
00000070: 3995 ca3d 11a2 a93e 0e60 54bd dbe6 67be
00000080: 820c a9bd fecc 1dbc 538e 13be 2804 543e
00000090: 5293 a83e 305b cfbd edfb b33d c1f9 02be
000000a0: a58c 613e 5dd5 9fbd 8cdd 773e de57 833e
000000b0: c9bd 39bd 70fc 95be 3879 81bd 4152 e8bd
000000c0: bc24 efbd f82c 813e dcb9 2b3e 8d6d c1bd
000000d0: df17 393e c02a 973e b977 a03b 2d69 cf3d
000000e0: 0bce d23d 82e7 efbd f89b 85be c467 9bbd
000000f0: 8e11 a3be 3845 863d 35b5 3c3e 55d2 1abc
00000100: 5443 72be cd4a 933e 8fe2 86be e1a9 34be
00000110: 0929 683e 693e 92be 0010 bf3e 8827 5abd
00000120: 16aa f33d 79cd a1bd 1811 983d dcfb 44be
00000130: 05a4 9a3e e38f 823e b2d6 8d3d 0122 75be
00000140: 3176 8e3d c4dd 743e 635d 533e 1253 513e
00000150: 8a20 73bd 045f e13d a211 273d 2bcd 8ebc
00000160: c194 bdbd 01bd e6bd 4f62 1dbe fe63 163e
00000170: 8dd8 edbc 5c8f 743e 2f7e 18be 3a11 623d
00000180: ad58 1b3d 3beb 68bd 47cc 11be bec9 c6be
00000190: cce4 803e 1cd3 34bd 8849 b33d 467b b63e
000001a0: 3b68 163d eb05 4cbe de79 b5be 7247 163e
000001b0: d52b 963d 1eb1 c0bd 4a37 15be 4f35 913e
000001c0: 9c29 98bd 243a adbd 3839 663e 6450 413e
000001d0: 5865 4a3d f5d4 92be 020a 423d a7a4 27be
000001e0: 27c3 ccbd 124b 79be 0e0e fbbc 946a 023e
000001f0: e5cb 263e 3401 863e 7501 a1bd 8912 eebd
00000200: fb7f 03bd 63d2 aa3d e0c7 bd3d 6cd7 e43c
00000210: 85a2 e43d 6ecf d0bc d360 8dbe 9847 463c
00000220: aade 88be 5f89 83bd ac38 7a3e 2e25 203e
00000230: aa94 b43d 4809 43be 8094 943e 8815 083e
00000240: fbbe 1d3e 6dca e6bc d3e3 adbd 065f 29be
00000250: 4896 073e 66e8 793e 1e5d b1be 9ddf 0f3e
00000260: 63d4 b4be f900 db3c 6aae 0e3d 483b 9ebe
00000270: 5e30 2b3d fbb3 adbe 4846 1bbe 7f01 313e
00000280: e996 80be 6427 2dbe b1c5 df3d ece8 9e3d
00000290: f2ee 6dbe 4652 bd3c 5acd 503e bc89 27be
000002a0: be82 94be 95d5 7a3e b617 ef3d ac70 85bd
000002b0: 4895 8f3d fed2 57be 2691 043e 13a0 80bd
000002c0: 14d0 da3d ed72 87be ddf5 e83d 38e2 343e
000002d0: b2b0 8b3e 47a7 bc3e cabf 4f3e 1928 a53e
000002e0: 6d85 6a3e 166b 1e3d a696 a9be 0286 983d
000002f0: cae2 2abe db0b c23d 59b4 62be b961 2d3e
00000300: 4dcb 2bbe 5114 033e 159f e63c e56d 6ebe
00000310: 8d40 a3be d743 2e3e b8cd b63d 47ea 0f3e
00000320: d192 e23c 12f0 2a3e 501a 9a3d 6e14 1abe
00000330: e21e 46bd 782e 00be 4f2f 7abe 67e7 613e
00000340: 0ece a9be 2b2b 38be f8f0 983d 50bc 0fbe
00000350: 0b16 4c3e 3915 b43d 279b 40be 0b6a 40bd
00000360: ce28 2a3e 333a aebd 80c3 503e ed71 0cbe
00000370: 325c 853d 3696 ed3c 2d35 9c3e de51 2abe
00000380: dd63 103e 4886 5f3b 060e 0f3e 20e3 59be
00000390: 3688 2b3b eade 1cbd f8d0 573d 0ee1 473d
000003a0: 5c43 06bd 07dd fa3d f46d 03be cfef 44be
000003b0: 4401 733d 4268 5bbe 83f9 683e beb0 e73d
000003c0: 0770 39bd e390 36bd 1828 47be f25c ba3b
000003d0: 45a4 36be 2a33 0bbe 04b5 35bc 27b3 c33d
000003e0: 8428 9c3d 33bb efbd 2ac5 31bd 523a d8bd
000003f0: 19c0 72bc 1efd 233e 01f6 773e b26f 733e
0.19465627 0.004067351 -0.24894598 0.08437543 0.11674196 -0.34707978 -0.1048372 -0.067335315
-0.24112631 0.0077829272 0.11095536 0.10749727 0.06931522 -0.22204624 0.29971477 -0.04804056
0.18276887 -0.065607674 -0.25964266 -0.16390134 -0.14385182 -0.23248963 -0.022668738 -0.17336448
0.23694971 -0.13436766 -0.2494249 0.085149094 0.09891743 0.3313146 -0.051849417 -0.22646658
-0.08254339 -0.0096313935 -0.14409761 0.2070471 0.32924896 -0.101248145 0.087882854 -0.12790586
0.22026308 -0.07804368 0.24205607 0.25652975 -0.04534701 -0.29294157 -0.06321949 -0.11343814
-0.116769284 0.2522962 0.16770118 -0.09444723 0.18075512 0.29524803 0.0048970846 0.101274826
0.10293206 -0.117140785 -0.26095557 -0.07588151 -0.3184933 0.06556171 0.184285 -0.009449561
-0.23658496 0.28768006 -0.26344725 -0.17642929 0.22671904 -0.2856324 0.37316895 -0.053260356
0.11897676 -0.07900519 0.074251354 -0.19236702 0.30203262 0.25500402 0.069257155 -0.23938753
0.06956137 0.23912722 0.20641093 0.20441845 -0.059357204 0.11004451 0.0407883 -0.017431816
-0.09256888 -0.112665184 -0.15369533 0.14686581 -0.029033924 0.23882812 -0.14891885 0.05519221
0.037926365 -0.05686496 -0.14238082 -0.38825792 0.25174558 -0.044146642 0.08754259 0.35640925
0.036720496 -0.19924133 -0.3544454 0.14675692 0.07332579 -0.094087824 -0.14571872 0.28360984
-0.07429811 -0.08458355 0.22482765 0.18878323 0.049413055 -0.28678098 0.047372825 -0.16371404
-0.0999816 -0.24345043 -0.03064635 0.12735969 0.16288717 0.26172793 -0.07861606 -0.11624629
-0.032104474 0.08340909 0.09266639 0.027934752 0.11163811 -0.025489535 -0.27612934 0.01210203
-0.2673238 -0.06422686 0.24435681 0.15639183 0.08817418 -0.1904651 0.29019547 0.13289464
0.15404885 -0.028172696 -0.0849072 -0.16540155 0.13240921 0.24405059 -0.34641355 0.14050145
-0.35318288 0.026733862 0.034834303 -0.30904603 0.041794173 -0.33926377 -0.15163529 0.17285727
-0.25115135 -0.16909558 0.109263785 0.0775927 -0.23235682 0.02311052 0.20390835 -0.16361135
-0.29005998 0.24495538 0.116744444 -0.06515631 0.07010895 -0.21076581 0.12945995 -0.06280532
0.10684219 -0.2645487 0.1137502 0.1766442 0.27283245 0.36846372 0.20288005 0.32257155
0.2290246 0.038676344 -0.33122748 0.07447435 -0.16688076 0.094749175 -0.2213911 0.1693181
-0.16776772 0.12800719 0.028152028 -0.23284109 -0.31885186 0.17018066 0.089259565 0.14054213
0.027657898 0.16693142 0.0752455 -0.15046856 -0.048369296 -0.12517726 -0.2443211 0.22060929
-0.3316502 -0.17985217 0.07467836 -0.1403668 0.19930284 0.087931104 -0.18809186 -0.04697613
0.16617128 -0.08507194 0.20387077 -0.13715334 0.065117255 0.02900229 0.3050932 -0.16632792
0.14100595 0.0034107137 0.13970193 -0.21278048 0.0026173717 -0.038298525 0.052689523 0.048798613
-0.032779083 0.12249189 -0.12834913 -0.19232105 0.05932738 -0.2142649 0.22751431 0.11313008
-0.045272853 -0.04457177 -0.19448888 0.0056873495 -0.17836101 -0.13593736 -0.011090521 0.09555655
0.07624915 -0.11705627 -0.04340092 -0.10557999 -0.014816307 0.16014525 0.24214937 0.23773077

bias f4 [10]
00000000: 6924 8c3d 50bb a8bc af8b 02be 95f4 983d
00000010: 9941 9c3d db05 a0bc fe2b cb3d 2385 7c3c
00000020: 293f a2bd a3fb 85bd
0.06842882 -0.02059713 -0.12748598 0.07468525 0.07629699 -0.019534042 0.099205 0.015412602
-0.07922203 -0.065421365
