NN/CIFAR10/model/model_300.pth (torch, 588933 bytes, 10 tensors)

weight f4 [32, 3, 5, 5]
00000000: 3a71 1c3c a7e9 c83e 09e5 3ebe 7993 cfbe
00000010: ae23 3d3e 8e93 58be fcb1 a13e 072a 1b3f
00000020: 79cd e1be 5600 30be 5abb 05be a413 debe
00000030: a12f 0f3f 0fba ae3e cc7a 9ebe cfe7 b03e
00000040: 8f2b 06bf 7c82 8bbd ccbf d63e b38b 703d
00000050: 451c 293e fb6f 7e3d ee0e 9abe e872 aa3d
00000060: 0904 e23a 79b6 f6bd 856d a73e fffd dcbc
00000070: 94ea c2be 55ed 803e 7695 c3be 7095 c43d
00000080: 0ceb 0e3f 858d 92be 4f87 09bd 65de 52be
00000090: 38ad 24bf c81c 013f 8d71 6b3e e4b9 29bd
000000a0: b12a 833e 6c25 23bf 0744 abbe b323 a63e
000000b0: 25ee fbbd 35db c63d 5b55 e73d 1483 dcbe
000000c0: 4327 94bd 745d 0a3d 1945 1fbe 1f92 de3e
000000d0: d636 4abe afe7 b7be 9802 803e faa2 6cbe
000000e0: 367f 683e 953c 133f bcc6 a6be 9578 2abe
000000f0: 37d8 a9bc 350d e5be e6a6 0b3f e9d0 043e
00000100: c438 90be eeee 8a3e ec19 bfbe 2b87 01bd
00000110: 1262 ca3e acb6 a5bc f8ec b83d 7df5 8c3e
00000120: ba9a 7ebe d573 0d3e b6de 0f3d 1a04 723e
00000130: 9962 abbd 4347 f8bc d206 32bd c5cb ecbc
00000140: 6426 77bd 1c31 15be d238 a3be 07c5 adbe
00000150: 081f 7cbd f6ce d8bc 5dc0 7cbe d1be cdbe
00000160: 7da3 3fbe 1a23 fdbd 53f1 953e 6a2f 6bbd
00000170: 0d2b 0dbe 203a cdbd dbf0 88bd 7747 9c3e
00000180: 0cf2 db3d f5d2 a03c 989d b9bc 15e6 253e
00000190: 9eda 74bd 74b1 223c e689 a8bd 650d 523d
000001a0: d757 7f3d 85f7 0c3d 0b98 063c d635 333d
000001b0: 2195 553d 2cf1 66bd 6a33 39bd d1bc b23b
000001c0: d8b8 fcbc e028 a6bd dfcb 84bd 0e0e ccbd
000001d0: 206a 01bd 5e65 27bc a175 18bd aca8 18bb
000001e0: 5596 54be 61b8 9cbd f92f 0cbe c053 c7bd
000001f0: aaa9 b9bd 336a 5ebe a986 c83d 712e 353e
00000200: 80bb 393d b4ce 89bd afce 483d 057f 583e
00000210: 39b5 bb3e 0563 c63e 432e 403e 002e 4d3d
00000220: 46c8 903e f120 f93e a31f c13e 9c8f 723e
00000230: e05e 65be 5c34 d13d 2659 1b3e e42f 333e
00000240: 3dab 023e c823 19be 0efe b4bd 2726 463d
00000250: 5aa4 0b3e ab37 febd 932d 49be b81b 51bd
00000260: 54ac f1bd 5517 1abe 9c4f f8bd 98d3 72bd
00000270: 0866 0f3e 0fd2 2bbe 6e5b c43d f1b5 ee3d
00000280: 0df2 003e 6b40 92bd 84a3 c8bd ff3a 3e3e
00000290: 3f54 fcbd 482b 303d 7c79 953c 918c 8a3d
000002a0: 25a6 d63d 335b a2bd bc6e 9d3d e179 043c
000002b0: bc00 003e 465d 9d3d fabb 59bd fed7 abbd
000002c0: 5a1a 613c 7486 b13d 459c a93c a158 a53d
000002d0: e5dc be3d d243 3d3e 2993 a6bd ce78 e43d
000002e0: 9e41 60bc 0737 f33d e108 8c3d 1033 82bd
000002f0: 87c5 343e 622f 70bd 020d 283d 1fc8 46bd
00000300: 638d 9c3d 51f4 cb3d b473 58be 61d0 363c
00000310: 1d38 b8bd b22e 393d 8057 ccbc dec0 27be
00000320: 3d1a 4dbe 18a5 8138 442c 623d 1c4c 533d
00000330: 6296 073e 7158 903d a3cd 273e af2e 883c
00000340: aacb 943b 68a6 ae3c 193b 88bc 20d5 eebd
00000350: fc0d 61bd ec6b 743e d055 10bd 6ef3 cb3d
00000360: 3ee9 35be b3c9 4fbd 8430 2e3e ded8 82bc
00000370: cd50 e3bd 5c39 10be 7e31 d03d cc7e 933d
00000380: 6ec8 b1bd a666 04bd db5a d03d 2eb3 2abe
00000390: affe cdbc eed7 1e3e fdc4 0e3e 0654 54bc
000003a0: 18e6 afbe 0bae a3bd db54 aa3e 3866 633d
000003b0: 5229 633d 8567 03bf ef30 f43c e21b d93e
000003c0: 9e9a ba3d 8ba9 3cbd edf1 e1be 8cf6 c83d
000003d0: f263 9a3e f221 a3bc 656d 00be fa87 d6bd
000003e0: 851d 953d e2b7 413e 8941 77bd d1b6 5dbd
000003f0: d80d e5bd cd1b 14be c838 92bd 5e0a 93bc
0.00954848 0.39240763 -0.18642057 -0.405422 0.18470642 -0.21150038 0.31581104 0.60611004
-0.44102076 -0.17187628 -0.1305975 -0.4337436 0.5593205 0.34126326 -0.30953062 0.34551856
-0.52410215 -0.06811997 0.41943204 0.058726978 0.1651469 0.06211851 -0.30089515 0.08322698
0.0017243634 -0.12046523 0.32700744 -0.026976584 -0.38069594 0.2518107 -0.38199967 0.095988154
0.55827403 -0.28623596 -0.033576306 -0.2059265 -0.6432681 0.5043454 0.22992535 -0.041437045
0.25618508 -0.63728976 -0.33450338 0.3244911 -0.12301282 0.09709779 0.11295577 -0.43068755
-0.07234051 0.03378053 -0.15553702 0.43470857 -0.19747481 -0.35918948 0.2500198 -0.23109046
0.22704777 0.57514316 -0.32573497 -0.16647561 -0.020732982 -0.4473664 0.5455154 0.12970318
-0.2816831 0.27135414 -0.37324464 -0.031623047 0.39527947 -0.020228706 0.09029573 0.27531043
-0.24863711 0.13813718 0.035124503 0.23634377 -0.083684154 -0.030307418 -0.043463536 -0.028905759
-0.060339347 -0.14569515 -0.31879288 -0.33939382 -0.06155303 -0.026465874 -0.24682756 -0.40184644
-0.1871471 -0.12360211 0.29285678 -0.057418264 -0.13785954 -0.10020852 -0.066865645 0.30523273
0.10739526 0.019631842 -0.022658154 0.1620105 -0.059778802 0.009930003 -0.08229427 0.051282305
0.06233963 0.03441574 0.008214961 0.043752514 0.052144174 -0.056382343 -0.045215048 0.0054546376
-0.03084986 -0.08113265 -0.06484198 -0.09963618 -0.03159535 -0.010217039 -0.037221555 -0.0023293896
-0.20760472 -0.07652355 -0.13690175 -0.09732771 -0.09065564 -0.217202 0.097913094 0.17693497
0.04534483 -0.067288786 0.049025234 0.21142204 0.366617 0.3874742 0.18767647 0.050092697
0.28277797 0.48657945 0.3771945 0.23687595 -0.22399473 0.10215065 0.15170726 0.17498738
0.12760635 -0.14955056 -0.088375196 0.04837623 0.13636914 -0.124129616 -0.19646291 -0.051051825
-0.11800447 -0.15047963 -0.12124559 -0.059283823 0.14003766 -0.1677935 0.09587751 0.11655796
0.12592335 -0.07141193 -0.09796813 0.18577193 -0.12320756 0.043010026 0.018246405 0.06765092
0.10480908 -0.07927551 0.076871365 0.008085699 0.1250028 0.07683806 -0.053157784 -0.083908066
0.013739193 0.08668223 0.020704398 0.08073545 0.09319476 0.18482903 -0.08133537 0.11155854
-0.013687519 0.1187573 0.06837631 -0.06357396 0.17653476 -0.058638938 0.04102803 -0.048530694
0.07644155 0.09958709 -0.21137887 0.01115808 -0.08995078 0.045210548 -0.024944067 -0.16382167
-0.2002954 6.1819504e-05 0.055217996 0.051586255 0.1324096 0.07048119 0.16387038 0.016623823
0.00454088 0.021319583 -0.016629742 -0.11661744 -0.054944977 0.23869294 -0.035238087 0.0995854
-0.17764756 -0.050729465 0.17010695 -0.015972551 -0.11099396 -0.14084381 0.1016569 0.07201919
-0.08680807 -0.032324456 0.10173579 -0.16669914 -0.025145857 0.15512058 0.13942333 -0.012959486
-0.34355235 -0.079921804 0.33267865 0.055517405 0.055459328 -0.51329833 0.02980849 0.42404085
0.09111522 -0.046060126 -0.44129887 0.0981265 0.30154377 -0.019913647 -0.1254173 -0.10475154
0.07281021 0.18917802 -0.060365234 -0.054129425 -0.11184281 -0.1446373 -0.071397364 -0.01794928

bias f4 [32]
00000000: 41e5 afbe 55c1 ad3c 56cf 0b3e 4228 e8be
00000010: 0e0e 77be e18b 1cbe 3a4a 8bbe 71ac e5be
00000020: e4df 2e3e c6b7 18bd 3049 5bbe 0194 62be
00000030: de44 a3be 03f1 4dbe b7d9 5ebe 27d4 fbbe
00000040: e279 9fbe a76f 09be eb10 18bf bd13 7ebe
00000050: deaf da3d e4ab 223e a11d dcbe a3e8 89be
00000060: 52d7 e2be 4a74 50be a98d c5bd 66a9 453e
00000070: 780f bfbd 4408 8bbe f5f9 c5be 0b08 22be
-0.34354594 0.021210352 0.13653311 -0.45343214 -0.24126455 -0.15287735 -0.27205068 -0.44858125
0.17077595 -0.037284635 -0.21414638 -0.22126772 -0.3188848 -0.2011147 -0.21762739 -0.49185297
-0.31147677 -0.13421498 -0.59400815 -0.24812217 0.10678075 0.15885884 -0.42991355 -0.269353
-0.443049 -0.20356861 -0.0964616 0.19302902 -0.09329122 -0.27154744 -0.38667265 -0.1582338

weight f4 [32, 32, 5, 5]
00000000: 23f2 3bbd e24c a13b 8c55 15bd 2f68 b539
00000010: fa47 f7bc 679d bdbd 85c0 d7bb b8cc d3bd
00000020: 309c 183c b894 10bc 60f3 d2bc 4b5f ccbb
00000030: 87c3 cebd 76c0 71bd 6d00 5bbd b4c2 a73c
00000040: aa6f 3e3d 7aae 40bd e461 203c 7913 9a3c
00000050: d3b0 61bc 92bd c1bc 6c37 96bb 005c 4dbd
00000060: 129a 973a d2b4 8ebd 7a4e fb3c 58dc a33c
00000070: bbbd a13c a6bb b3bc 827f 9dbd 7af8 553c
00000080: 3823 85bb 0680 b4bc 91de 16bd 9340 0bbd
00000090: 899c c53a a907 a93c ab0d 723b b985 cd3c
000000a0: b888 0737 1c07 bb3d e28a d23d 681a a43d
000000b0: 2947 963d 6138 32bd d8af 203d 2f56 eb3c
000000c0: 28db f639 2ca1 9d3d b13a 423c 9c52 773d
000000d0: 34d6 01bb 8e48 0dbc 370d 303d a562 cfbc
000000e0: 890e b03d 414f d0bc 6384 3dbd 4d37 ddbc
000000f0: c5f9 5abd 810c 8f3d d997 98bc fb25 08bc
00000100: ddad 913c 86a1 22bd 4554 083c 45d2 48bc
00000110: 849d 30bd 0f70 0c3d 897d 41bd 6fc4 2bbd
00000120: 501d 4cbd a291 83bd 0717 8abd b908 803d
00000130: 6675 d6bd 75c4 4e3d fe8a 4cbd f932 c7bc
00000140: 4456 9c3d 05fa a8bd 275e 0b3d 2541 02bd
00000150: f6f2 b539 b14a 873d 4a5b afbd 2efa 023c
00000160: 5af6 2ebc 3bcc 1dbd 7b60 4c3d ab08 34bc
00000170: 9267 713d fba1 203d d778 d439 96eb 09bd
00000180: c6b7 5ebd b070 7bbd 4bb0 d83c 0aec 99bc
00000190: 9dac 75bb 2b78 b2bc 8e1c 3c3c 3d95 92bd
000001a0: 7d54 80bd 2977 983c 196d eb3b a68b 9bbc
000001b0: 30bb 30bd 92cd 8e3c 50e2 c3bb 9c0f cc3a
000001c0: 5b68 4dbd 5b79 c8bd 514c 4ebd 6f92 a73d
000001d0: 77c6 ee3d 3d6c f03d b535 9b3d 33ec d03d
000001e0: 974c c3b8 f97d 0d3d 2d38 143d a4a4 0ebd
000001f0: 3d75 57bd a7d8 443d 8333 98bc 5644 9b3d
00000200: ca17 31bc 9750 44bb bfb8 8c3c c6a4 ccbb
00000210: 5186 963d 956e 73bc 1d13 c4bc 6dee f53c
00000220: b564 76bb 39b4 a93d 2c4d aa3c bc9b d737
00000230: 5fe5 2b3b 9c04 32bd 00cf 863b 5289 273a
00000240: a32b 4a3c c1c4 843c afb0 d0bb e799 1b3d
00000250: cd8e 0abd e857 8837 e9a1 a4bc 3c0f 83bc
00000260: e3e8 e5bc 4527 99bc 1e38 b6bc 8955 babc
00000270: 13fa c43b 9198 28bd 2b31 85bd d7f3 12bd
00000280: 688a cb3b e34f 0ebd bfa6 7abc b0fa e3bc
00000290: 0ae8 3bbc 7108 8e3d 2b93 e33d 04ee a23d
000002a0: 06f3 ad3d d3f3 813d af92 033d 9ccf 1d3d
000002b0: d80d b73c a041 953b f131 e2bc a13e 6fbd
000002c0: 02a8 b1bd 4264 e4bd af0a f4bd d339 cdbd
000002d0: 18a1 32bd 0b50 6fbd f9b2 cfbd cfbc 6cbd
000002e0: eab3 a6bd 9512 36bd 0a32 c83a ea20 25bd
000002f0: ba75 57bc 1dcc 36bd cdd1 a83d b323 823d
00000300: 4cf1 073e 0558 e23d cd93 513d b879 51bc
00000310: c246 a63c d0da 2b3d a34e 2a3d 0d34 023d
00000320: d3d4 bcbc 79ea bc3c 7daa 58bc 8cd2 733c
00000330: ceb1 64bc 27b7 a03b a4ee 163c 6a38 0e3d
00000340: dafe 8c3c d032 343d 8f97 f3bb 92ca 4f3c
00000350: 8d3f 5a3d db41 613d 7d37 083d 42cc 1dbd
00000360: 67bc 4b3d b078 283d cee4 27ba 8df4 8e3d
00000370: 8bba a5bd 2ddb 67bd b503 88bd 4d9f 80bd
00000380: 0824 5fbd 48f3 c33d 339f 883b c052 f93c
00000390: 70a8 8c3d 99f7 383d f7c6 2b3d ac3e 933d
000003a0: b7db 653d 2190 963d 8098 823d 8c4e 873d
000003b0: 9657 a23d 6c1e 603d 0d7c 9e3d c753 a73d
000003c0: d857 07bc dcc7 143c 0165 68bd 6262 ed3c
000003d0: 5102 dcbc 97b6 53bd fb16 7ebd 9efd d9bd
000003e0: 8780 bebd 1454 e8bd 0559 d2bc 2afc 9a3c
000003f0: 6acd b7bc ceeb 61bc 6fcc bbbc 2133 9dbc
-0.045885216 0.004922495 -0.036458537 0.00034600633 -0.030185688 -0.09258538 -0.0065842294 -0.103417814
0.009314582 -0.00882452 -0.025750816 -0.0062369457 -0.10095888 -0.059021436 -0.053467203 0.020478584
0.04649321 -0.047041394 0.009788964 0.018808113 -0.013775068 -0.023649964 -0.0045842435 -0.050136566
0.0011566302 -0.069680825 0.030677069 0.020002529 0.01974379 -0.021940064 -0.07690336 0.01305973
-0.0040630363 -0.022033703 -0.03683335 -0.03399713 0.0015076558 0.020633535 0.0036934416 0.025088178
8.078459e-06 0.091322154 0.10280396 0.08012849 0.073377915 -0.0435108 0.039230198 0.028727619
0.0004708406 0.07696757 0.011854813 0.060381517 -0.0019811513 -0.008623255 0.042981353 -0.025315592
0.08596522 -0.025428416 -0.046268832 -0.027003909 -0.053460855 0.06984807 -0.018627094 -0.0083098365
0.0177831 -0.039704822 0.008320873 -0.012257163 -0.04311897 0.034286555 -0.04723886 -0.04193538
-0.049832642 -0.06424262 -0.06742673 0.06251664 -0.10471611 0.050480325 -0.04993724 -0.024316298
0.07633641 -0.082508124 0.034025338 -0.031800408 0.0003470403 0.06606043 -0.08562334 0.007994218
-0.010678852 -0.038524847 0.0498967 -0.010988395 0.058936663 0.039216977 0.00040525824 -0.033671938
-0.05437448 -0.061386764 0.02645125 -0.01878931 -0.0037486919 -0.021785816 0.011481417 -0.07157371
-0.06266115 0.018611507 0.0071846363 -0.018987488 -0.043147266 0.017432008 -0.0059779063 0.0015568617
-0.05014835 -0.09788772 -0.05036575 0.08182227 0.11658948 0.11739395 0.07578603 0.102013014
-9.3125906e-05 0.034543965 0.036186386 -0.034824982 -0.05260204 0.04805818 -0.01857925 0.075813934
-0.010808894 -0.0029955262 0.017177938 -0.0062452285 0.073498376 -0.014857908 -0.023934895 0.030020917
-0.0037596647 0.08286328 0.020788752 2.5702517e-05 0.0026229245 -0.043461427 0.004114032 0.0006391007
0.012339505 0.0162071 -0.0063687186 0.03798857 -0.03382759 1.6253398e-05 -0.020096736 -0.015998475
-0.02806515 -0.018695483 -0.022243556 -0.022745864 0.0060112565 -0.041161124 -0.06503519 -0.035877075
0.0062115677 -0.034744155 -0.015298544 -0.027829498 -0.011468897 0.06935204 0.111120544 0.07955554
0.08493619 0.06345334 0.03212231 0.03852807 0.022345468 0.0045549423 -0.027611705 -0.058409337
-0.08674623 -0.11151935 -0.119161 -0.10020795 -0.043610662 -0.058425944 -0.10141558 -0.05779725
-0.08139785 -0.044451315 0.0015273702 -0.040314592 -0.013150627 -0.04462825 0.08243141 0.06354465
0.13275641 0.11051945 0.051166344 -0.012785368 0.020297412 0.041956723 0.0415789 0.03178792
-0.023050701 0.023061024 -0.013224241 0.014881741 -0.013958408 0.004904646 0.00921217 0.03472177
0.017211366 0.04399377 -0.0074338387 0.012682574 0.053283263 0.054994445 0.033256043 -0.038524874
0.04974022 0.04113072 -0.0006404639 0.06980238 -0.08092221 -0.056605507 -0.06641332 -0.06280384
-0.05447772 0.095678866 0.0041693687 0.030434966 0.068680644 0.045158003 0.041937795 0.07189688
0.05611774 0.07351709 0.06376743 0.066067785 0.07926862 0.054716513 0.077385046 0.08170276
-0.00826069 0.009080853 -0.05673695 0.028977577 -0.026856573 -0.051687803 -0.062033635 -0.10644077
-0.093018584 -0.11344162 -0.025677213 0.01891907 -0.022436816 -0.01378913 -0.02292463 -0.01918942

bias f4 [32]
00000000: 575a b9bd 31e6 50be 183a 7fbe cdac dfbd
00000010: 67e7 b0bb 366f ebbc 6d5e 3bbd bd2a 56be
00000020: 8c71 15be d0ae 2c3e 7378 553d a23d 66be
00000030: c174 24bd d1f1 9b3c 6ae5 c1bd 936b 8abe
00000040: 9733 bdbc cc5a afbe 9014 dcbd 7171 c8bd
00000050: 1e5a 7dbd 79e2 a33d c400 e3bd fc55 80be
00000060: ff4b 7fbe 502e 7fbe 6e2a 97bd 268e ed3b
00000070: a379 eabd 7014 2fbe 0c30 a7bd f229 f9bb
-0.09050434 -0.20400311 -0.24924505 -0.10921631 -0.005398679 -0.028739553 -0.04574435 -0.20914741
-0.14594096 0.1686356 0.052116822 -0.22484449 -0.040150408 0.019036205 -0.094675854 -0.27035198
-0.023095889 -0.3424896 -0.107461095 -0.09787262 -0.06185352 0.080021806 -0.110841304 -0.250656
-0.24931334 -0.2492001 -0.0738114 0.0072496114 -0.114489816 -0.1709764 -0.08163461 -0.007603877

weight f4 [64, 32, 5, 5]
00000000: 9300 ef3c 0237 253c 7483 ea3b 8fd3 20bd
00000010: 50b2 9e3d 1ebd 0bbc eec8 a33b bdf8 91bd
00000020: 00de babd 476c 50bd 2402 33bd 48f5 513d
00000030: e0f7 2dbd 6658 d7b8 a5ae 1cbc 4937 95bc
00000040: c9ad 40bd 4683 b4bc d6de 3cbd 0ca5 1639
00000050: 600b 08bc b9ed d7bb 0d05 1ebd 383e 733a
00000060: 2f3a bfbc 462e f53b 15d5 a0bb c3f9 6b3d
00000070: 0a13 963d 30e2 dd3c aaf5 0dbd 34e7 9abd
00000080: 35a9 0fbd 9f1f 933d 3fd2 7a3c 8fb6 64bc
00000090: c74e 24bd d16a 58bb 52b5 fc3c 4e37 72bd
000000a0: 72cd 68bc 0aa0 ee3b c1f8 653c 9703 0e3b
000000b0: 722a 763b 43ea c1bb 3c80 b73a a397 db3c
000000c0: 68c5 873d 0a87 893d 26e8 acbd c059 a4bc
000000d0: 8d07 263c 92d5 753c d2f2 0d3c 0e96 aebc
000000e0: 8ccd 953c 6394 6fbd 6827 04bd d70b 343b
000000f0: 9ef9 02bc 4de5 88bb 26b2 a8bd 2e7b 9cbd
00000100: 4881 ac3a f64c 67bc eb32 ae3d 6b12 c63c
00000110: ea79 64bd dce6 143d aeec 70bc 3120 543c
00000120: ac86 6fbd 9e17 b9bd 74dd c9bc f035 23bd
00000130: 7bec 93bd 5667 123d aaf5 d13b 51d3 40bd
00000140: 669d 27bd af78 83bd 554a f4bb 2db8 9fbb
00000150: 9069 93bc 57fe 1d3d a2c0 083d 5f5c 0abd
00000160: ae32 af3c a150 9d3d fd5b 513d aab3 e03c
00000170: cf4d af3c 4eb9 253d 7c2b e03d bd37 4b3b
00000180: 56c9 273d e5a9 8abc a28e 5dba 3c1c 983c
00000190: 36db 573d e6d0 ceba 7409 963d 2118 073e
000001a0: 9efb 783d 8757 023d b43d 0a3c 45ff 5bbc
000001b0: f2ea 5dbd 71af b33c 56e7 15bc 87a1 08bd
000001c0: 4f01 6d3b f5af fcbc 616c 973d 59f8 9fbc
000001d0: 22f3 84bc 2327 1cbc 40c5 6fbc 7711 3d3d
000001e0: aa3e c63d 6b13 6e3d 4976 9b3d 18d6 373d
000001f0: 4f26 b83d 8674 e0bc 93ce 563d cee8 a23d
00000200: b53f 43bd 8a59 acbd fbd9 933c d851 3a3d
00000210: 18f1 be3b 33f7 abbd f09f d7bd eaab e93c
00000220: c628 ac3a 6818 99bd 5643 e2bd 7675 febd
00000230: 799a 813d b911 883d 0079 82bd 668e bcbd
00000240: 562f 02bd 34a5 3e3d 51ac 103d e89b a8bc
00000250: 6843 6fbd f6f7 293c 3a4a e13c 9dcd 653b
00000260: c8d7 84bd a32e b9bd bbc4 6cbd c1f9 1e3c
00000270: 56ec ea3c 2835 4bbd 9358 50bd bf2a e73b
00000280: c197 e33b a683 eb3c de2f a8bc 5790 7b3d
00000290: ce92 843d cb94 3c3d d15d 51bc 760b d6bc
000002a0: 860a 0cbd 676b babc efa6 a83d 1617 a4b9
000002b0: 792b 073c ab2c 233d 1f3c 473a dba2 2f3d
000002c0: aee0 973d 1c20 083d d224 0bbd 6ad2 23bd
000002d0: f62e aa3c 4f0e 393d b8ad 81bd 7101 b9bd
000002e0: a388 68bd 173c 25bd 1475 e23c 17bf 26bd
000002f0: 91db abbd 5508 4dba 0d4a 863d 3fa3 1a3d
00000300: 97db 06bd 24ab 85bd a501 053b a543 a33d
00000310: d6f4 883d f15a b33c eb78 b6ba d9cf 083d
00000320: 50cb c4bc 35e3 803d 18c8 2a3b fa41 0ebd
00000330: 1208 b6bd a03e 273c 032c 803c 0380 1e3c
00000340: e076 07bc b1b7 dbbc a0a7 66bd c930 0ebd
00000350: d5c5 a53c 54d9 543d 6558 a1bb ba5d e1bc
00000360: 80ab bbbb f6b8 05bd e7fc 8d3c 06a8 57bc
00000370: b4b6 1b3d ac66 28ba 1103 7b3d 8718 84bc
00000380: 926e 10bd 6a3a 23bd 4f12 a43b a9cc 9abc
00000390: accf 00bc 8309 2f3d bcaf b13b 62ea 5dba
000003a0: d7a0 04bc 8de4 12bd 9865 473d 447d cfbb
000003b0: c432 5dbd 131c babc d82b 06bd 7758 033d
000003c0: ba91 32bd f7a0 bfbd 4891 afbd 21ec 6dbd
000003d0: efc7 103d 4b2e 9dbc a5a1 7abd 64ef 89bd
000003e0: 9f60 81bd ebae a5bc 543d f03b 9a6d c4bd
000003f0: 6598 abbb a714 443d 4df6 cabc 875d b2bc
0.029175078 0.010083916 0.0071567837 -0.039264258 0.07748854 -0.008528976 0.004998318 -0.07127521
-0.091243744 -0.05088451 -0.043703213 0.05125931 -0.04247272 -0.000102684644 -0.009563123 -0.018214839
-0.047040734 -0.022035252 -0.04611095 0.000143666 -0.008303493 -0.006589618 -0.038579036 0.00092789857
-0.023343174 0.007482323 -0.004908214 0.05761124 0.0732785 0.027085394 -0.03465811 -0.0756363
-0.035073478 0.071837656 0.015308916 -0.013959541 -0.04011419 -0.0033022652 0.030848179 -0.059134774
-0.014209138 0.0072822617 0.014036358 0.002166962 0.003756192 -0.0059178188 0.0014000009 0.026805704
0.06629449 0.0671521 -0.08442716 -0.020062327 0.010133636 0.015004532 0.00866385 -0.021311786
0.018286489 -0.058491122 -0.032264143 0.0027472877 -0.007994084 -0.0041777254 -0.08237104 -0.07640682
0.0013161087 -0.01411747 0.085058056 0.024178704 -0.05578033 0.036352977 -0.014704866 0.012947128
-0.058478042 -0.09037708 -0.02464173 -0.03984636 -0.072228394 0.03574308 0.0064074593 -0.047076527
-0.04092159 -0.06419503 -0.00745515 -0.0048742504 -0.017994672 0.038572636 0.033386834 -0.0337795
0.02138647 0.07681394 0.051113117 0.02742942 0.021399407 0.040459923 0.10945794 0.0031008564
0.040963493 -0.016926715 -0.0008451735 0.01856815 0.05269929 -0.0015778809 0.07326022 0.13192798
0.060786836 0.031821754 0.008437563 -0.01342756 -0.05417914 0.021934243 -0.009149393 -0.03335717
0.003616411 -0.030845622 0.073937185 -0.019527601 -0.016229216 -0.009530815 -0.01463443 0.046159234
0.09679921 0.058123987 0.075909205 0.04488191 0.08991682 -0.027399313 0.0524431 0.0795456
-0.047668178 -0.08415516 0.018048277 0.04548821 0.0058270805 -0.08396759 -0.105285525 0.028524358
0.001313471 -0.07475358 -0.110479996 -0.12424748 0.063282914 0.06644005 -0.06370735 -0.09206848
-0.031783424 0.04654427 0.035320584 -0.020582154 -0.058413893 0.01037406 0.027501214 0.0035065182
-0.064864695 -0.090420984 -0.057804804 0.009703101 0.028677147 -0.04961124 -0.05086572 0.0070546563
0.0069455807 0.028749298 -0.020530637 0.06141695 0.06473313 0.046040338 -0.012778715 -0.026128512
-0.034189723 -0.022756292 0.08234965 -0.00031297718 0.008250111 0.03983752 0.00076002063 0.04287992
0.07415901 0.033233747 -0.03397066 -0.03999559 0.020774346 0.04517966 -0.06331962 -0.09033478
-0.056770932 -0.04034051 0.027643718 -0.04070958 -0.08391488 -0.0007821371 0.06557093 0.03775334
-0.03292426 -0.06526783 0.002029517 0.079718865 0.06687324 0.02189395 -0.0013921534 0.033401344
-0.024022728 0.06293336 0.0026059207 -0.03473089 -0.08888258 0.010207802 0.015645986 0.009674075
-0.008268088 -0.02682099 -0.056312203 -0.034714494 0.020235935 0.051965073 -0.0049238675 -0.027510513
-0.0057272315 -0.032647096 0.017332507 -0.0131626185 0.038016036 -0.00064239907 0.06128222 -0.016124977
-0.035261698 -0.03985063 0.0050070654 -0.018896418 -0.007862013 0.04273368 0.0054225605 -0.0008465407
-0.008094988 -0.035862494 0.04868087 -0.0063320715 -0.054003492 -0.022718465 -0.032756656 0.03206679
-0.043596007 -0.093568735 -0.08572632 -0.05808652 0.03534692 -0.019187113 -0.061189312 -0.06735113
-0.06317257 -0.020225009 0.0073315296 -0.09591217 -0.0052366727 0.047871258 -0.024775648 -0.021773113

bias f4 [64]
00000000: 0749 dabd ed02 96bd 31f4 de3c 32d1 b8bd
00000010: 8924 c33b e98b b7bc 8cab 2abd a00b 29bd
00000020: b15c 9cbd 0fdc 96bd f0a3 9abd e36d 1fbd
00000030: 2e79 1cbd 6992 193d 19f9 7bbc 6a2e 72bc
00000040: d446 96bd 1d5f d4ba e740 b1bc 20fe ecbc
00000050: 05f2 80bd 247a 8b3c 383e 65bd 09ab bfbc
00000060: 1949 173d e169 84bc 639e 02bd 3e9c 23bd
00000070: a9b3 09be d8fa 81bd a3e2 d7bd d040 90bd
00000080: 44f6 2cbd 531c d3bb c1d7 f3bd 12d3 9ebd
00000090: 2764 9bbc 03a0 5abd 9a9d 0cbb 1bf4 d4bc
000000a0: 4414 4dbc 66ce a8bd 68f2 27be 1f00 42bb
000000b0: 7199 2c3d de41 64bc 8429 b6bd 4e5b 7abd
000000c0: b956 cbbc 50a8 4f3b 4967 f7ba c9fb cebd
000000d0: 859a c4bd 9aa2 25bd eeb2 8dbc c761 1fbc
000000e0: 463b d3bc f42a 0abd df1f 073d 1fa4 77bd
000000f0: 224a d6bc 8882 6cbd 3644 e2bc 95f5 e2bb
-0.1065846 -0.07324777 0.027216049 -0.09024276 0.005955283 -0.022405582 -0.041667506 -0.041270852
-0.07634867 -0.073661916 -0.075508 -0.038923156 -0.038201503 0.037493143 -0.015379214 -0.014781574
-0.07337728 -0.0016202662 -0.021637393 -0.02892977 -0.062961616 0.017026015 -0.05596754 -0.023396986
0.036934946 -0.016163768 -0.03188933 -0.039943926 -0.13447441 -0.06346673 -0.105412744 -0.07043612
-0.042227045 -0.0064425855 -0.11906386 -0.07755102 -0.018968655 -0.053375255 -0.0021456243 -0.025995305
-0.012517039 -0.082424924 -0.16401064 -0.0029602123 0.04213852 -0.01393172 -0.08894637 -0.06112223
-0.024821626 0.0031686015 -0.0018875386 -0.10106618 -0.09599785 -0.040438272 -0.017297234 -0.009727902
-0.0257851 -0.03373237 0.03298938 -0.060459252 -0.026158396 -0.05774167 -0.027620416 -0.0069262483

weight f4 [64, 1024]
00000000: 9f5e 32bc aa53 a6bc beb1 9d3c b5c7 41bd
00000010: 3904 13bd befb 3f3c f6b4 9cbb 0d07 33bc
00000020: b969 323d 4ac5 693d 957e 2e3d 0cf8 aabb
00000030: e31a 4d3d 5afb 073b 5825 0b3c 8f75 863b
00000040: c877 65bc e712 a0bd a622 65bd acdf 87bc
00000050: aa90 26bd 42f9 16bd f169 d83c c9d1 83bc
00000060: c1ca 413d 8cd7 cfba 727b 1fbd 47ce dabc
00000070: 597d f63b 1251 23bc 2c0b 59bd f268 fdbc
00000080: 7919 f23c 1f74 9ebd 9a18 643c 634b 32bc
00000090: 4e4e 37bc b4e0 413c 8830 92bc c517 ac3c
000000a0: 6719 05bd 7ca7 b83a b5cd 8a3d 397f 0f3d
000000b0: 7ef2 15bd f371 6fbb 40a9 863b a90b cb3c
000000c0: 2d2e 94bc 1a80 533c 19ea 273b 612f bbbc
000000d0: 6011 84bc 6fd7 8ebb 11b7 c6bb 78b5 f73c
000000e0: c645 59bd c248 e3bc 7c25 99bd fc45 28bc
000000f0: d064 41bd 7deb 67bd b619 9dbd 6162 29bd
00000100: 91ac 8bba 1a84 c1bb fcd7 5ebc efc0 31bd
00000110: 76fe 4bbc 8ded 2e3d 59fa 58bc ccca 92bc
00000120: fee8 b1bc 8188 8aba 841f 0e39 25f0 8ebc
00000130: 3392 c33c d0e2 48bd 490c 9bbc 5235 23bd
00000140: 6756 cc3c 6ca3 30bd 963a cf3c dbb0 f7bc
00000150: 7357 923c 0d0b d03c 8607 2d3d 72be 3ebc
00000160: 20e8 3cbc a5b2 66bd 8f04 95bb 7a4b 27bd
00000170: 090e 41bd 0cce ee3c 188d ecbc 3495 87bc
00000180: 7d7c 16bd 371f 46bd b5f4 83bb acbf f8bc
00000190: 7555 dabb e220 89bc 0bdb be39 28b7 94bc
000001a0: fd09 d43c 74c7 e33c f2f9 503d da90 b03c
000001b0: 8def 0b3d f11a cd3b ab08 38bd 8e82 093d
000001c0: 71e8 9abc 83bc 33bd dc0a cabc 9e95 aebd
000001d0: 3d07 e23c 1a95 aebb 800e 4a3c 37ab 8abb
000001e0: 2194 873c e4bd 4fbc 1b20 72bd bd71 1c3c
000001f0: 4885 1c3d 2b2c 06bd 0915 62bb f7de 32bc
00000200: ed3c c6bc ced3 b7bc 1e82 df3c 1158 623c
00000210: 40b6 5d3d c1b8 103d b7cc 803d ce2d b53b
00000220: cc64 733d dad7 dd3c 03d3 353a 485e a43c
00000230: a786 f73c 98b5 b3bc ba4d f5bc 9279 46bc
00000240: d1ca 523d b94c 153d dfe3 703b 67ec a73d
00000250: 6a46 193d f8d3 c13d bb45 c73d 6643 523d
00000260: 5607 61bc 6ec6 493c e99c 2dbc 3693 8cbc
00000270: 8f1c 29bd 8f1c a3bc 04d7 c5bc 5a41 17bd
00000280: 1306 2bbd 7236 17bd c9c2 52bc 51ca ad3b
00000290: 9890 66bd 520d 77bd 3cd1 d3bd 4cab ffbc
000002a0: 3f61 063c e821 1cbd c653 c3bc 6a73 d8bc
000002b0: 9b97 3e3c 0bbc 4abd 845f 07bd 85b3 95bb
000002c0: 0f38 93bc 3b4d ab3c 08f6 6fbc 9a9b 633d
000002d0: 08cc 7fba 15a3 7f3d 830f b4ba aa63 1b3d
000002e0: 4560 1cbd eefb 6ebc 5bfe 48bd 8c02 48bd
000002f0: e16f 34bc ac6b 07bd 1eeb b4bd cdf2 943c
00000300: 40fe 053c d359 48bd 5777 ae3c fe48 87bc
00000310: ad67 22bd 6160 f7bb 2bd2 403c c271 e53c
00000320: 1cf2 13bd 0a41 87bd d176 f23a 861b 46bc
00000330: 03d5 8dbc 4d97 fdbc 99c5 48bd 35a6 f7bc
00000340: 2c4e ea3c 6fe0 42bd 2221 4f3c 3203 153d
00000350: f003 1d3d 627f 8b3d 01d5 7f3d 9b06 dc3b
00000360: cb97 113d ad33 823c 42de 6f3d 3130 8a3c
00000370: ee33 e93c c0b5 353d d2a4 893d 280b 783b
00000380: bb22 99bd 7db8 b3bd 826e 51bb 29c7 09bd
00000390: 1c05 b0bc 164e 26bb 16dd c3ba 0ce4 8cbd
000003a0: f672 253d be7b 39bd 6d32 1cbc de4a 9fbc
000003b0: c581 3bbc 26eb abbc de62 963c be6b 93bd
000003c0: c76c e1bc 2931 34bd 4bf6 70bc cdbf 153d
000003d0: 2cb3 043d 95fa 5fbd e2df 1dbc 3fdd 393d
000003e0: a2f7 6b3c cb09 93bd 5383 fcbb 7dd4 583d
000003f0: 7124 b2bd 39a1 5cbd 6b83 30bd 493d 993a
-0.010886817 -0.020303566 0.019249793 -0.047309596 -0.0358927 0.011717735 -0.0047823144 -0.010926974
0.043557856 0.057072915 0.042601187 -0.005217558 0.05007447 0.0020749182 0.00849279 0.0041033695
-0.014005609 -0.07816105 -0.055941246 -0.016586147 -0.040665306 -0.036858805 0.026417704 -0.016091244
0.0473125 -0.0015857085 -0.038936086 -0.026709689 0.007522267 -0.009968059 -0.05298917 -0.03093383
0.029553162 -0.07736992 0.013921881 -0.010882231 -0.011188103 0.011833359 -0.017845407 0.021007428
-0.03249493 0.0014088 0.06777517 0.03503344 -0.03660821 -0.0036536425 0.0041095316 0.024785833
-0.018088425 0.01290896 0.002562171 -0.02284974 -0.016121566 -0.004359178 -0.0060643037 0.030237898
-0.053045057 -0.027744655 -0.07477853 -0.010270592 -0.047215283 -0.056621064 -0.076709196 -0.041353587
-0.0010656287 -0.0059056403 -0.013601299 -0.043396886 -0.012450805 0.042707015 -0.013243281 -0.017918967
-0.021717545 -0.0010569246 0.00013553916 -0.017448494 0.023873424 -0.04904443 -0.018926756 -0.039845772
0.024943544 -0.0431246 0.02529649 -0.030235698 0.017863965 0.025395894 0.042243503 -0.011642085
-0.011529952 -0.056322712 -0.0045476626 -0.040843464 -0.047132526 0.029150985 -0.028875872 -0.016550638
-0.036739815 -0.048369613 -0.004026974 -0.030364834 -0.0066630193 -0.016739313 0.00036402824 -0.018153742
0.025883669 0.027805068 0.051019616 0.021553446 0.034164 0.006259315 -0.04493014 0.033571772
-0.018909665 -0.04388095 -0.024663381 -0.08524631 0.027591342 -0.005327833 0.012332559 -0.004231836
0.016550126 -0.012679551 -0.05911265 0.009548602 0.038213044 -0.032756966 -0.0034497401 -0.010917417
-0.024198974 -0.022439864 0.027283724 0.013814942 0.054128885 0.035332445 0.06289046 0.005529142
0.0594223 0.027080465 0.0006936045 0.020064488 0.030215574 -0.021937177 -0.02994429 -0.012113946
0.051462952 0.03645012 0.0036756916 0.08199387 0.037420668 0.09464258 0.09730097 0.051333807
-0.013734659 0.012315376 -0.010596492 -0.01716004 -0.041287 -0.019911079 -0.024150379 -0.03692756
-0.04175384 -0.036917157 -0.012863823 0.005303659 -0.05629024 -0.060315438 -0.10342643 -0.03120961
0.008201896 -0.038118273 -0.023843657 -0.026422221 0.011632825 -0.049495738 -0.033050075 -0.0045685195
-0.017971067 0.02091085 -0.014646061 0.055568315 -0.0009757881 0.062411387 -0.0013737533 0.037936844
-0.038177747 -0.014586432 -0.049070697 -0.048830554 -0.011013002 -0.03306167 -0.088339075 0.018182183
0.008178294 -0.048913788 0.02129714 -0.016514298 -0.039649654 -0.007549331 0.011768858 0.028008346
-0.036119565 -0.06604202 0.0018498545 -0.012091523 -0.017313486 -0.030955935 -0.04901657 -0.03023062
0.028601728 -0.047577318 0.012642177 0.03638 0.038333833 0.06811406 0.062458996 0.0067146546
0.03554515 0.015893782 0.05856157 0.016868683 0.028467145 0.044362783 0.0672089 0.0037848447
-0.074773274 -0.08775423 -0.0031956737 -0.0336372 -0.021486811 -0.0025376133 -0.0014943208 -0.06879434
0.04039284 -0.045284025 -0.009533507 -0.01944488 -0.011444514 -0.020986151 0.01835769 -0.071982846
-0.02751769 -0.043992195 -0.014707158 0.03655987 0.032397434 -0.054682333 -0.009635897 0.045377012
0.014402302 -0.07179602 -0.0077060848 0.05293702 -0.08698357 -0.05386469 -0.04309408 0.0011691238

bias f4 [64]
00000000: e3d3 983c d5ab 8cbb 797d 273c 09ee 113b
00000010: 9e7a 96bc b6fb 413d 0ecc e8bc bc9f ae3c
00000020: 224a 17bc c142 bd3c 228e 363b 1693 67bc
00000030: b31c 31bd 21ba 07bd 3323 e43a e7f9 563c
00000040: ce6b 183c a695 d0bc 95e2 df3c e511 2dbd
00000050: 892f f4bc a3b3 d33c e127 a9bc f800 caba
00000060: 616a 63ba 7935 85bc c5a1 3ebd 000b 1bbc
00000070: a030 cebb 20ab 083c d600 ea3c db1f 3dbd
00000080: dce2 e23b cdfc e33b 947a e0bb 2ea2 64bb
00000090: 6ea6 2e3c eab1 89bb 7432 b83c b192 32bd
000000a0: ebb2 c9bb c5b0 a63c d076 033d 43c0 dcbc
000000b0: 7368 1fbc f6ec 94bc af97 b6bb 38d8 dc3c
000000c0: 5f75 083c 03e6 253d bdd6 90bb efc8 ad3c
000000d0: 0497 72bc 7df8 483d 3704 463b 8961 29bb
000000e0: 47ba 2d3d 0a25 6f3c f834 94bc 4721 8dbc
000000f0: f179 ebbb 7c0b f4bc d6e1 463b 26be 18bc
0.018655723 -0.004292945 0.010222786 0.0022267124 -0.018369015 0.04735919 -0.028417613 0.021316402
-0.009233983 0.02310312 0.0027855714 -0.014134189 -0.04324026 -0.03313649 0.001740551 0.013121105
0.009303046 -0.025461983 0.027329722 -0.042253394 -0.029807823 0.025842493 -0.020648899 -0.0015411666
-0.00086752145 -0.01626085 -0.046540994 -0.009463072 -0.0062924176 0.008341581 0.028564852 -0.046172958
0.0069240164 0.0069576264 -0.00685055 -0.0034886706 0.010659797 -0.004202117 0.022484995 -0.043596927
-0.006155362 0.020347962 0.03209573 -0.026947146 -0.0097294925 -0.018179398 -0.0055722813 0.02695857
0.008328765 0.04050256 -0.00442013 0.021213977 -0.014806513 0.049065102 0.0030214915 -0.002584549
0.042413976 0.014596233 -0.018091664 -0.017227782 -0.0071861674 -0.029790632 0.003034701 -0.009322679

weight f4 [10, 64]
00000000: 82f8 6f3e 9f91 6e3c ab28 85be 3fc2 383d
00000010: a188 d23d f5be c0be 878c 92bd 68ef 33bd
00000020: e028 88be 92e1 743b 4f45 603d 9b9d f23d
00000030: 02ab 823d a673 86be 82ff 8e3e b5ff 8abd
00000040: 245f 153e a9dd 6ebd b143 92be 33a5 10be
00000050: 97fc e4bd b2c9 9cbe 8e7f 38bd 69c8 46be
00000060: a964 963e 2778 1cbe 6479 61be 03ff 1c3d
00000070: c3d2 d63d 6899 b93e 929f 3bbd d482 74be
00000080: 96e0 bfbd 97c7 18bd 34c1 f9bd c467 4e3e
00000090: 92e2 ad3e f70a f6bd 995d a23d d2df e1bd
000000a0: 15c4 853e 1a91 6abd dccf 8b3e d0ce 903e
000000b0: 2e3f 81bd 5f3b a2be 0e6f cdbd bc00 d5bd
000000c0: 0aa6 eebd 6a76 8e3e 54ad 2d3e adc3 0dbe
000000d0: 4d33 813e 39c8 a43e 4367 0ebc 5032 053e
000000e0: 974e 763d ff0a 13be 50c1 89be f6b5 d0bd
000000f0: d8d6 bbbe 680b f93d 7a2c 6f3e a353 083d
00000100: 7394 85be 4415 c03e 9d83 93be c0d0 3fbe
00000110: 7227 9b3e 10de bebe f5ae e53e 9cc0 b7bd
00000120: 7c1b 0b3e 03c2 bebd 3117 843d 1f7c 76be
00000130: 29f1 c73e a1f6 9a3e 4d7f e43d 7c58 a1be
00000140: c66b 1c3e bcfe b13e 765d 873e 5db0 793e
00000150: 0a0e aebd 3794 443d 5ae3 603d f0fb 9d3c
00000160: 49b8 f5bd 3735 a7bd ce0c 57be 0a07 2f3e
00000170: e72a a1bd 4d48 8e3e 95a4 50be eace 9e3d
00000180: dc0a 8d3c b227 c2bd 68dc fcbd 014a ecbe
00000190: 24e6 a93e 4a10 70bd 9f41 c23d 6a1e db3e
000001a0: 6803 593d 5508 67be 9860 ccbe 2e55 533e
000001b0: dc1e 393d 62a1 d7bd ef04 4cbe aabc b73e
000001c0: e298 37bd 6c52 c8bd aebd 963e 7491 623e
000001d0: fbee f53d 4800 b1be 745a 503d 7fbe 3ebe
000001e0: f982 2cbe 6aca 94be 3542 80bc e4bf 2a3e
000001f0: cc6c 523e 8e9e 963e e49e bbbd ec4d 2cbe
00000200: b676 92bd b92b cc3d c231 e93d fe5a 413c
00000210: 0039 fd3d d6dd 2c3b c67f b0be e454 e93b
00000220: 39df 9bbe ae6a 89bd c91d b13e f0ff 123e
00000230: 5e5f b33d a705 50be ba9c aa3e 9109 173e
00000240: 710e 1a3e 4f30 47bd 7882 8dbd 3d39 3fbe
00000250: 7db7 0f3e ddb5 923e 2523 d4be e794 463e
00000260: b72e d4be b41b 453d c24c 673c cf75 a1be
00000270: 1cc8 943c 11b3 c9be 04d6 15be c8e4 3f3e
00000280: 3fb9 93be b6e6 37be 6079 fc3d 53c8 d63d
00000290: 3f0b 93be 3183 c9bb 696b 7f3e b702 54be
000002a0: 69e4 b5be 9df5 993e 89a8 053e 8def b5bd
000002b0: 4c5b 753d d8be 70be ad49 403e 6821 59bd
000002c0: 60aa 083e c9ec 9dbe a1ad d53d e292 4e3e
000002d0: fd66 913e 831d cc3e b8e3 693e 63f3 b63e
000002e0: 2170 843e 9611 4c3d d3b7 afbe 5a01 e03d
000002f0: 89e7 32be 31b1 db3d f796 72be 7586 413e
00000300: 8807 48be 794b 793d c93a e43b 098e 6dbe
00000310: 4245 a4be 3989 503e 5142 da3d 8c49 253e
00000320: ad33 683d 4a17 2b3e 7457 433d 39f8 cabd
00000330: a449 8abd 33c5 01be 5f25 8abe 44a7 8d3e
00000340: 31c5 ccbe 6cb6 88be 64e8 043d 3dd6 10be
00000350: 3003 6b3e 94a6 233e f572 45be 92ea a4bd
00000360: e698 2b3e 93de e4bd 95ec 803e 0495 eebd
00000370: 8d97 de3d f119 9d3c 8d06 a53e 5a01 54be
00000380: 96aa 243e e6fc 863c 1aed d63d e9b3 41be
00000390: aefd 473c 4a52 5cbd 88be dc3c e445 563d
000003a0: b945 0bbd b216 dd3d 73f3 19be 9fd5 5abe
000003b0: 6610 923d a5a4 7bbe 7847 833e ee84 923d
000003c0: bccc a1bd 1e30 f2bc a510 70be b9e2 ae3c
000003d0: fc1c 71be c6ef 04be edc3 8ebc eed6 fd3d
000003e0: 2cef db3d 015a fabd 85ad 8ebd 186a bcbd
000003f0: d414 51bc 7419 543e c8ef 663e 3f66 853e
0.23434642 0.014561086 -0.2600759 0.045107123 0.10279966 -0.3764569 -0.0715571 -0.043929487
-0.26593685 0.0037365896 0.054753598 0.11846467 0.063802734 -0.26260108 0.27929312 -0.067870535
0.14587075 -0.05831686 -0.2856727 -0.14125519 -0.1118099 -0.3062263 -0.04504352 -0.19412388
0.29373673 -0.1528021 -0.22018963 0.038329136 0.10489418 0.36249852 -0.045806475 -0.23878032
-0.09369008 -0.03729972 -0.12195054 0.20156771 0.33961922 -0.1201381 0.079280086 -0.110290185
0.2612616 -0.057267286 0.27307022 0.28282785 -0.06310879 -0.31685922 -0.100309476 -0.10400531
-0.11652763 0.27824718 0.1696065 -0.13844176 0.25234452 0.32184008 -0.008691612 0.13007474
0.060133543 -0.14359663 -0.26905298 -0.10190956 -0.3668735 0.12160379 0.2335681 0.033282887
-0.2608982 0.37516224 -0.2881135 -0.18731976 0.30303532 -0.37278795 0.44860044 -0.08972284
0.13584703 -0.093143485 0.06449736 -0.24070786 0.39051178 0.30266288 0.11157093 -0.3151282
0.15275487 0.3476466 0.26438493 0.24383684 -0.084987715 0.04799291 0.05490432 0.019285172
-0.1199804 -0.08164447 -0.21000978 0.17092529 -0.07869511 0.27789536 -0.20375283 0.077543095
0.017217092 -0.094802275 -0.12346727 -0.4615021 0.33183396 -0.058609284 0.094851725 0.42796642
0.052981764 -0.22561772 -0.39917445 0.20637962 0.045195445 -0.10528828 -0.19923757 0.35886127
-0.044823535 -0.09781346 0.2944159 0.22125798 0.120084725 -0.34570527 0.050867513 -0.18627356
-0.16846837 -0.2906068 -0.01565657 0.16674763 0.20549315 0.29417843 -0.09161165 -0.168266
-0.071515486 0.09969277 0.11386444 0.011801479 0.123643875 0.0026377342 -0.34472483 0.0071207155
-0.30443743 -0.06709801 0.34593037 0.14355445 0.08758424 -0.20314656 0.33322698 0.14749743
0.15044571 -0.048630055 -0.069096506 -0.18674178 0.14034839 0.28654376 -0.41433063 0.19392739
-0.4144189 0.048122123 0.014117422 -0.31535193 0.018161826 -0.3939443 -0.14632422 0.18739617
-0.2885227 -0.17959103 0.12327838 0.104874276 -0.28719518 -0.0061496724 0.24943317 -0.2070416
-0.35525826 0.300702 0.13052572 -0.08883581 0.05990152 -0.23510301 0.18778105 -0.053010374
0.13346243 -0.30844715 0.10433508 0.20173219 0.28398886 0.39866266 0.22840774 0.35732564
0.25866798 0.04982146 -0.34319934 0.10937758 -0.17471136 0.10727156 -0.23690401 0.18898948
-0.19534123 0.060862992 0.0069650155 -0.23198713 -0.3208409 0.20364846 0.1065718 0.16141337
0.056689907 0.16708103 0.047690824 -0.09910626 -0.06752327 -0.12672882 -0.26981637 0.27666676
-0.39994195 -0.26701677 0.032448187 -0.14144225 0.22950435 0.15981513 -0.19282134 -0.08052553
0.16757545 -0.11175265 0.25180498 -0.11649516 0.1086875 0.019177409 0.3223156 -0.2070364
0.16080698 0.016478013 0.10494442 -0.18916287 0.012206478 -0.053789414 0.026946321 0.052312747
-0.03400204 0.107953444 -0.15034275 -0.21370552 0.07132034 -0.24574526 0.25640464 0.071542606
-0.07900378 -0.02956396 -0.2344385 0.021348344 -0.23546213 -0.12982091 -0.017427409 0.1239451
0.10738978 -0.12224198 -0.0696669 -0.09199923 -0.0127613135 0.20712835 0.22552407 0.2605457

bias f4 [10]
00000000: ce97 5c3d b0df 06bd c9d9 05be d298 983d
00000010: 5c7e d03d 2710 8dbc 4bf6 c13d a24a 683c
00000020: aea4 a3bd d987 67bd
0.05385571 -0.03292817 -0.1307136 0.07451023 0.10180351 -0.017219616 0.09470805 0.01417795
-0.079903945 -0.05652604
