CIFAR10/model/model_150.pth (torch, 588933 bytes, 10 tensors)

weight f4 [32, 3, 5, 5]
00000000: c82d d4b9 82af 943e a7ac 16bd 0ad0 aabe
00000010: d779 1f3d 8e8f 34be 31b6 563e fd61 e03e
00000020: 0669 54be 5150 4ebe 4b01 1dbe 5d72 57be
00000030: fde0 af3e 24ea 863e c161 5fbe 4f1c 3b3e
00000040: a74e c6be 2e5b 023d 7536 733e 755d f33d
00000050: b7e7 833e e0df 9fbd ecdd 60be 9328 c8ba
00000060: c7dc 06bc 14d0 98bd f4f7 773e 6d5e 0a3e
00000070: 5921 9bbe 472a a03d fd8e 9dbe c367 cb3c
00000080: 0cae d33e ea99 4cbd b35d debd b4f7 4ebe
00000090: 6b8e bcbe 6cbf b03e 6bec 2d3e f42b a43c
000000a0: 2594 d03d 1909 f6be 2be7 37be 8e85 353e
000000b0: 25ea 70bd 3d4f 473e a885 a1bc 14ac 96be
000000c0: edd4 bcbd a9c3 823d 4f48 19be 7d65 a33e
000000d0: acef 5fbd 0abf 91be 9dac c33d 25c2 57be
000000e0: e841 fe3d a7c3 db3e d930 a3bd 4205 5bbe
000000f0: 9130 93bd be64 83be daf0 b83e b9c4 d33d
00000100: 3b6f 1dbe be25 b13d 6288 9dbe d15e 473d
00000110: e0d2 793e ada6 bf3d 35af 2d3e 6b22 c13d
00000120: 0b7c 30be 63d9 b23d a2dd 933d 06d0 df3d
00000130: adb3 0abe a9d2 1abd d5a7 4bbd 3297 a1bd
00000140: 6f03 13be af8b 0abe b74b 72be d147 90be
00000150: 2830 8abd 6b8e cdbd e3e7 63be fd27 98be
00000160: dc8f b3bd 2ad0 dbbd 92cf 223e af5d d6bd
00000170: 8aa1 c4bd 13b8 88bd df16 c4bd 6c84 1c3e
00000180: 203f 90bb f23a 1ebc 98ba 5bbd 56e3 9f3d
00000190: 4f66 a0bc a6d4 1c3d 94c4 8bbd 231f 763d
000001a0: 928b a43d f59a 7c3d 7bdc be3c 7f4f 3d3d
000001b0: c612 a83c 4ff2 77bd 2c4d 1bbc 8e1e db3c
000001c0: 5356 d5bc 879a bfbd f754 79bd 2e22 70bd
000001d0: 2402 cb3a bd63 443c 677e 45bd 5d68 f63b
000001e0: 4ada 25be ccac ddbc d858 a5bd 7fb1 94bd
000001f0: 5ff4 49bd 67e0 08be 27dd e33d 7e38 0e3e
00000200: a341 0e3d c70d 8c3c 9f03 bc3d 0edc 303e
00000210: 9108 8d3e c667 973e 65e4 543e 7e3d d73d
00000220: 91e9 7a3e 2ead c33e 9259 903e fedb 6b3e
00000230: a086 05be d983 dd3d 5edc b83d 9f1f ba3d
00000240: 0070 fd3d f933 46bb 6008 903b 35dd b93d
00000250: fd01 163e aeee 50bd 1da1 2ebe a66c 43bd
00000260: bd5d dabd fc4e c0bd 6857 16be 3929 84bd
00000270: cb07 bc3d 58d9 04be 69b3 e03d f11a ae3d
00000280: c5e9 db3d 9eec 43bd da1d 63bd 3bc5 133e
00000290: 2cbf 03be 7483 373d f287 6b3d 307c 8f3d
000002a0: f437 b23d 96ed 6ebd fb16 753d adf2 0abb
000002b0: 9944 d73d 17d7 b63d 9a15 aebd 3e91 98bd
000002c0: c856 bbba 8049 b43d 044f 873d 3735 363d
000002d0: 6ecb 943d 10ac 013e 01da 35bd 00ed f03d
000002e0: 5233 35bd 0b31 ac3d e1b7 af3d d805 83bc
000002f0: d0dc 0d3e 9160 44bd c740 b53c 7af6 d0bc
00000300: 8850 9a3d 7e8d b43d 348d 2ebe ac21 05bc
00000310: 6ddb d1bd fd32 163d 496b c43b 7af1 2ebe
00000320: 53a6 1cbe 8aab e23c 5d4e c23d 64cd d13d
00000330: ad08 d73d d73c 5e3d 2299 fd3d 2e07 9f3d
00000340: 5cc9 bcba a477 98bc c600 49bd 8f3b a4bd
00000350: 5ac7 a03c 6a4e 463e 34e5 f0bc 6e0a ce3d
00000360: 3ed4 febd 282f ddbc f9e2 1a3e 2d24 cd3c
00000370: a04d bbbd 1152 debd 9928 f63d f952 cc3d
00000380: d0a7 b2bd 04dd 143a f41c de3d 1a20 49be
00000390: 08a9 d7bc e43c 0b3e 161f 1a3e d0f9 aebc
000003a0: 1feb 94be 6939 83bd 7ad0 7f3e 36ec 413d
000003b0: 3958 963d d6e2 babe 493c 263d 056f ab3e
000003c0: f1bd 943d 9433 a0bc 45f9 adbe acce 893d
000003d0: 8b27 6e3e 428a 98bc 3209 fabd c82b e4bd
000003e0: 9bff 423d f8b2 3d3e 44aa a9bc ffd3 28bd
000003f0: a099 01be a275 f8bd b3ca a2bd 21e1 c4ba
-0.000404699 0.29040152 -0.036785748 -0.33361846 0.038934555 -0.17632887 0.20967938 0.4382476
-0.20743188 -0.20147826 -0.15332524 -0.2103972 0.3435134 0.2635051 -0.21814634 0.18272518
-0.38731882 0.031825237 0.23751242 0.1188306 0.25762722 -0.07806373 -0.21959656 -0.0015270881
-0.008231348 -0.07461563 0.2421568 0.13512583 -0.3029888 0.07820564 -0.30773154 0.02482975
0.41343725 -0.04995147 -0.108577155 -0.20211679 -0.36827406 0.34521043 0.16984718 0.02004049
0.10184506 -0.48053816 -0.17959277 0.17726728 -0.058817048 0.19463821 -0.019717053 -0.2942816
-0.092203 0.063849755 -0.1496899 0.31913367 -0.05467193 -0.28466064 0.09554408 -0.21070154
0.12414914 0.42922708 -0.07968301 -0.21388724 -0.07186998 -0.25662798 0.36121255 0.10340256
-0.15374462 0.08649777 -0.30768114 0.04867441 0.24396849 0.09357963 0.16961367 0.09430393
-0.17234819 0.087328695 0.072200075 0.10928349 -0.13545103 -0.037798557 -0.049720604 -0.07890166
-0.14356779 -0.13529848 -0.23661695 -0.28179792 -0.06747466 -0.1003693 -0.22256427 -0.2971801
-0.087676734 -0.107330635 0.15899494 -0.104670875 -0.09601124 -0.06675734 -0.09574675 0.1528489
-0.0044020563 -0.009657608 -0.053644747 0.07807033 -0.019580035 0.038288735 -0.06824604 0.060088288
0.080344334 0.061671216 0.023298493 0.04621839 0.020516764 -0.060533818 -0.009478848 0.026747968
-0.02604214 -0.093556456 -0.060872044 -0.058626346 0.0015488309 0.01198667 -0.04821625 0.0075197653
-0.16196552 -0.027059935 -0.08073586 -0.07260417 -0.049305316 -0.13366853 0.11126166 0.13888738
0.034730565 0.017096413 0.09180378 0.17271444 0.27545598 0.2957136 0.2079025 0.105097756
0.24503161 0.38218063 0.28193337 0.23033139 -0.13039637 0.108161636 0.09026407 0.090880625
0.12374878 -0.003024338 0.0043955296 0.09075395 0.14649196 -0.051008873 -0.17053647 -0.047711037
-0.106624104 -0.09390065 -0.1468178 -0.06453175 0.09181174 -0.12973535 0.1097172 0.085012324
0.107379474 -0.047833078 -0.05544839 0.14430706 -0.12865895 0.044803098 0.057502694 0.07006109
0.087020785 -0.05833205 0.05983637 -0.0021201775 0.10511131 0.08927744 -0.08500214 -0.07449578
-0.0014292831 0.088030815 0.06606868 0.044484343 0.07265364 0.12663293 -0.044397358 0.11763954
-0.044238396 0.08407792 0.08579994 -0.015993997 0.13853765 -0.047943655 0.022125615 -0.025508154
0.07534891 0.0881605 -0.17046052 -0.008125704 -0.1024693 0.03666972 0.0059942347 -0.17084303
-0.15297823 0.027669687 0.09487603 0.10244253 0.10499702 0.05425724 0.123827234 0.07765041
-0.0014403271 -0.018611737 -0.049073003 -0.080191724 0.019626308 0.1936585 -0.029406168 0.10060583
-0.12442826 -0.027000025 0.15125646 0.025041664 -0.09145665 -0.10855497 0.12019462 0.09976763
-0.08723414 0.0005678686 0.10845366 -0.19641152 -0.026325718 0.13597447 0.15050921 -0.021359354
-0.29085633 -0.064074345 0.24981871 0.04734441 0.07341046 -0.36501187 0.040584836 0.3348314
0.07262791 -0.019555844 -0.3397924 0.06728873 0.23257272 -0.018620614 -0.12208785 -0.11141163
0.047607046 0.18525302 -0.020711072 -0.0412178 -0.1265626 -0.12131812 -0.07948818 -0.0015020707

bias f4 [32]
00000000: d391 acbe 865b e23d 794f 163e 2e62 d5be
00000010: 9755 37be 438e d8bd 96e2 4dbe 4ebc c5be
00000020: 16f5 5c3e ce42 483d 29bc 27be 7415 35be
00000030: 7763 63be 944f 2fbe e46b 46be 03dc eabe
00000040: 8268 59be f05f d0bd f630 06bf cf02 69be
00000050: bc22 113e 3ffd 573e dfdf c4be 7ba7 31be
00000060: 0f02 b5be ad4f eebd 29c9 27bd 7265 5d3e
00000070: aed0 a6bd 7d22 15be 4016 b6be 51eb 15be
-0.33705005 0.11052613 0.14678754 -0.41676468 -0.17903744 -0.10574009 -0.20105967 -0.38620228
0.21577868 0.048891835 -0.16380371 -0.17683965 -0.22205912 -0.171202 -0.19377095 -0.4587098
-0.21231273 -0.101745486 -0.5241846 -0.22754978 0.14173406 0.210927 -0.3845205 -0.17349045
-0.35353133 -0.11636291 -0.040963326 0.2162073 -0.08145271 -0.14563937 -0.3556385 -0.14640547

weight f4 [32, 32, 5, 5]
00000000: f4b6 edbc d727 e73c cc6a d9bc c59c 92bc
00000010: 4ee3 04bd 9435 69bd 5e9d c53c ccd3 56bd
00000020: a516 093c 57b7 97bc 176f 253b 3ace 3b3d
00000030: 3753 2abd d4ea febc 2fdc 5ebd 1787 03bc
00000040: ceb5 603d 4e29 88bc 3073 943b 1329 26bc
00000050: 6cad ecba 71c1 2cbc 9e3b e53a a688 d8bc
00000060: 70ad 5cbc 1f66 84bd fb68 1c3c da7a 233c
00000070: 799c 7d3c 9422 f1bc 852f 3cbd ce4d 353c
00000080: 0d14 453b 790a 81bc bbb4 1bbd 7710 7ebb
00000090: ca1f a8bb f35f 353c 04c5 a4bc a1b2 0d3b
000000a0: aaed 11b9 91c3 4f3d 78f1 823d f6bc 163d
000000b0: 76de da3c 43d4 22bd 6431 8c3c 8be6 ff3b
000000c0: 00e3 5bbc 7837 313d e6db 653c abd9 223d
000000d0: 771c 90ba ac9f 36bc b37b 143d 4a45 1db9
000000e0: 103e ab3d 1579 273a 10c5 cbbc 1a72 4dbc
000000f0: 80c5 28bd 6b05 693d 9873 01bc 487f 54bc
00000100: 9a54 933c 5d9b b9bc a009 533c 9215 b1bb
00000110: b3cf 2fbd 2c1f 023d 0f6c 1cbd 09bd 16bd
00000120: 1bc0 46bd b23d 83bd eb8b 9abd 7d51 473d
00000130: 917a 41bd d9da 153d c4f3 d0bc fcaf 2ebc
00000140: 0ceb 343d f282 4cbd eec3 d63c 9b78 c8bc
00000150: 882b 2b3c 14d2 a83d 07d5 62bd 0614 be3c
00000160: 8af9 8d3c a955 d73b 72fa 8f3d 942c 87bc
00000170: d61c 9b3d 1d34 fd3c 96b2 983b 072c 07bd
00000180: 1523 86bd 9c06 10bd fad1 1c3b f3bf ddbc
00000190: 6248 eebc 75b5 06bd 2a34 b43b 0c70 91bd
000001a0: 7c4e 62bd d871 edb7 9259 cb3b 274e 73bc
000001b0: e241 86bc a4e4 d63c 8374 feba f30d 2e3c
000001c0: eb68 07bd 99be 9bbd c9d4 edbc f698 683d
000001d0: 73f2 ba3d 4989 6f3d bb2b 373d 497b 883d
000001e0: 71d4 24bd 1bf9 a2b8 1c34 e83a 12ed 4dbd
000001f0: c639 92bd 8110 233d a78b 38bb 9df9 923d
00000200: 2d8a 50bc a360 f23b e652 a33c a6ee 673c
00000210: 91de 913d c74e 73bc c8a3 18bc 0d2e 2a3d
00000220: 9535 433b b5fe aa3d 5e49 b63c 9a8e fe3b
00000230: 4f2d d03c bd0f 2bbd b6f2 103b 4f4e 14bb
00000240: b702 bc3c 80cb 1d3d 96b1 253b d763 0d3d
00000250: 28d5 2ebd 88ad e63b 6873 78bb 0e8d 603b
00000260: b741 9bbc 434e 0e3c d36a 1dbc e165 e93b
00000270: 826a b23c f57a 31bc 8996 02bd be71 e8ba
00000280: 94c6 7bbc 9e0a 5ebd 3e7b e2bc e571 1cbd
00000290: 4e24 8abc 44f7 a13d 974c a23d de07 5c3d
000002a0: e05d a03d 5e98 743d 2298 7bba 10e4 47bb
000002b0: 401c 87bc 3895 dabc c004 6cbd 22e1 a3bc
000002c0: 3739 2ebd ac1b 67bd d4a1 71bd df4e 11bd
000002d0: bde9 23bd 93a1 1dbd 0af8 77bd 56ae 4abc
000002e0: efb7 54bd 4931 20bd 9c40 153c b7f7 0cbd
000002f0: c6ae 283c 5fea cabc bbfd 823d da3e 083d
00000300: d1f3 ae3d b550 933d 4588 b93c a170 0d3d
00000310: e407 513d d2ab 633d ba2b 943d ddd5 4c3d
00000320: 9114 b3bc 1c1b 743c ab7c bdbc a27a 123c
00000330: 92ff efbc 8020 c03c 35cc 6f3c aa78 0d3d
00000340: cff9 5a3c ff1e dc3c ab46 db3b ddb8 d13b
00000350: 2927 243d 8478 183d ce71 813b 0f12 acbc
00000360: 4cba 3b3d 36fb 0a3d 037f 34bc a708 3a3d
00000370: da7d 35bd c391 ecbc 144a 38bd 70b6 24bd
00000380: cad6 50bd c3ca 763d 44b2 503b fdbe fe3c
00000390: 1bb6 373d 80bc 293d ee0c 383b c552 863d
000003a0: ed5d 023d 0fa2 3c3d 778d 313d 2706 113d
000003b0: 3342 9d3d 6f63 1e3d 4188 8a3d 2ac6 8d3d
000003c0: aea0 91ba c166 3c3d 0f19 b8bc 4d6f 483d
000003d0: 9729 7ebb 441b e2ba 15dc a43b e247 09bd
000003e0: ed90 d2bc da67 3bbd 6f9c 68bc ccbe 173d
000003f0: 3a24 a63b 350a d33b 350e 35bc e256 f9bc
-0.029017903 0.02821724 -0.026540183 -0.01789702 -0.032443337 -0.05693586 0.02412289 -0.05244808
0.008367215 -0.01852004 0.0025243217 0.04585097 -0.041583266 -0.031117834 -0.054409202 -0.008027813
0.054860882 -0.016621258 0.004530333 -0.010141629 -0.0018057055 -0.010544167 0.0017489081 -0.026432347
-0.013469085 -0.064647906 0.009546514 0.009978021 0.0154792005 -0.029435433 -0.045943756 0.011065913
0.0030071766 -0.015752064 -0.038014155 -0.0038767138 -0.0051307427 0.011070239 -0.020113476 0.0021621364
-0.00013916814 0.050723616 0.06393713 0.0368013 0.026717406 -0.03975321 0.017113395 0.0078094653
-0.01342082 0.04326579 0.014029479 0.039758366 -0.0010994811 -0.011146467 0.03625078 -0.00014998499
0.08361447 0.0006388587 -0.02487424 -0.012539411 -0.041203976 0.056889933 -0.007901095 -0.012969799
0.017984677 -0.02265709 0.012880713 -0.0054041827 -0.042922687 0.03176801 -0.03818899 -0.03680137
-0.04852305 -0.06408252 -0.075462185 0.048661698 -0.04723603 0.036585663 -0.025506862 -0.010662075
0.04416947 -0.049929567 0.026216473 -0.024471572 0.01044739 0.08243194 -0.05537894 0.023202907
0.017330904 0.006571491 0.070301905 -0.016500749 0.075738594 0.030908639 0.004659961 -0.033000972
-0.0654966 -0.035162553 0.0023928867 -0.027069068 -0.02908725 -0.032887895 0.0054993825 -0.07101449
-0.05525063 -2.8305614e-05 0.006205746 -0.014850176 -0.016388837 0.026232071 -0.0019413385 0.010623443
-0.033059042 -0.07604713 -0.029032128 0.0567865 0.09128275 0.058480535 0.04471944 0.0666414
-0.040241662 -7.7711615e-05 0.0017715725 -0.050274916 -0.07139926 0.03981066 -0.002815941 0.07176516
-0.012728256 0.007396774 0.01993699 0.014156019 0.07122529 -0.014850325 -0.009316392 0.041547824
0.0029786576 0.08349363 0.022251781 0.0077684643 0.02541223 -0.041763056 0.0022117323 -0.0022629683
0.022950513 0.03852415 0.0025282851 0.034519043 -0.04268375 0.0070397295 -0.0037910584 0.0034263763
-0.018952234 0.008685651 -0.009607988 0.0071227406 0.021779303 -0.010832538 -0.031881843 -0.0017734093
-0.015367169 -0.054209344 -0.027646657 -0.038194556 -0.016863015 0.0790849 0.079247646 0.05371844
0.07830405 0.05971562 -0.00095975597 -0.0030500926 -0.016492963 -0.026682481 -0.057621717 -0.020004813
-0.042535033 -0.056422874 -0.058992222 -0.035475608 -0.040017832 -0.038484167 -0.060539283 -0.0123706665
-0.051933225 -0.039109502 0.009109642 -0.034415927 0.0102955755 -0.02476996 0.063960515 0.033263065
0.08542598 0.07193128 0.022647986 0.03453124 0.051032916 0.055583782 0.07234903 0.050008643
-0.021860393 0.0148990415 -0.023130735 0.008940371 -0.02929667 0.023452997 0.014636089 0.034538902
0.013365223 0.026870249 0.006691774 0.0064002112 0.04007641 0.037224308 0.003950334 -0.021004705
0.045831963 0.03393098 -0.01101661 0.045418408 -0.044309475 -0.028878098 -0.04499252 -0.04021305
-0.05098609 0.060251962 0.0031844536 0.03109693 0.044851404 0.041439533 0.0028083879 0.06558756
0.031827856 0.04605299 0.043347802 0.035406258 0.07678642 0.038669046 0.067642696 0.069225624
-0.0011110508 0.04599643 -0.022472886 0.04893427 -0.0038782114 -0.0017250557 0.0050311186 -0.03351582
-0.025703872 -0.045753337 -0.014197453 0.037047192 0.0050702365 0.0064404258 -0.0110507505 -0.030436937

bias f4 [32]
00000000: c050 92bd d6e1 e2bd cae0 24be 1676 1cbd
00000010: d0c1 ae3c 5031 7f3c 7dd6 febc b124 f5bd
00000020: b9b7 cbbd 47a6 a23d 6dc0 343d 35ec bbbd
00000030: b0c3 b2bc 5591 233c ac3d a0bd f443 47be
00000040: cb80 b13a 4b09 76be c51d d6bd 53b8 5fbd
00000050: 8678 d1bc 054a 653c 7529 4dbd 56e3 27be
00000060: 279d 1abe 5f3e 23be 5b1d 67bd a0a8 12bb
00000070: 55cd c8bd 30f2 1dbe 882d 3fbd b3b7 4abd
-0.07144308 -0.11078231 -0.16101375 -0.038198553 0.021332651 0.015575722 -0.031108135 -0.11969889
-0.09947152 0.07941871 0.044128824 -0.09175912 -0.021821827 0.00998338 -0.07824263 -0.19459516
0.0013542412 -0.24026982 -0.10454897 -0.054619145 -0.025570165 0.013994698 -0.050088365 -0.16395316
-0.15099011 -0.15941761 -0.05642448 -0.002237834 -0.09804789 -0.15424418 -0.04667428 -0.049491595

weight f4 [64, 32, 5, 5]
00000000: 59d1 413c 08d0 f6bb 250e a03c 2c65 a6bc
00000010: fa1b 803d ec2e 08bc 3c7d 943b e33f 30bd
00000020: 9211 8cbd 5178 bdbc b6dc dcbc 2a92 403d
00000030: a6b7 acbc bdee cabc d0d8 b9bc 6869 3bbb
00000040: 7c6c 44bd ed0e 873b 0e68 49bd d823 213b
00000050: b47a 2039 703f 5c3a 6dd3 b8ba 540f 7cba
00000060: 7a9c 0ebc f94c f63c 83cf bd3b c84d 773d
00000070: 78f0 7e3d 60fe c33c 9623 f73a 55e4 3bbd
00000080: 99e7 18bd c9e9 433d 5b75 cb3c d816 b3bc
00000090: 0df7 3ebd 2596 083c 34f8 e93c 38a7 43bc
000000a0: 40d9 c2bc b655 b7bc f4e9 173b 3026 aeba
000000b0: 4264 0f3d 6888 a9bb 704c b939 3ab6 d23c
000000c0: 7915 1d3d c0da 453d dbb1 83bd cb00 5fbc
000000d0: dd72 273b 1831 4e39 7f0c 64bc ba92 8f3c
000000e0: 6df7 0b3d 8bda c2bc 89bd 843b b3e6 cc3b
000000f0: a277 bb3b 6270 4cbc ef0a 84bd f0e1 49bd
00000100: fe8c f63a 63c7 ad3b 070e 2c3d fa42 983c
00000110: 1323 57bd 23c9 c53b 1f84 a3bc 65e2 f4bc
00000120: 1abc 82bd 355c 91bd cb66 c9bc d21f aaba
00000130: e3e6 2ebd f104 a63c 860f 79bc a00a ddbc
00000140: 7603 58bc 44d6 54bd 00ad 5cb8 183a 7638
00000150: 3007 0bbc bd3f 0e3d bff9 5d3c 20e0 b6bc
00000160: d197 0a3c 0370 4f3d 3d01 1a3d b5a2 2a3c
00000170: a42f c03c 25d8 4a3c 176e 863d a42c 7cbb
00000180: 25e2 933b 8857 cabc e9e8 8a3b 72cd a7bb
00000190: 8a23 253d 0cdb 813c 53de 543c f9d3 f53c
000001a0: 0c46 3bbc bc41 093c 66f2 833c 4211 51bc
000001b0: 964c f0bc 9eef 863c 7f41 ddbc 5797 69bc
000001c0: 119d 093c 2b2c 6ebc 020c 7d3d cd28 0dbc
000001d0: d363 9a3c 9344 5fbc 4282 05bd cc0a f73b
000001e0: bbcc a43d aef1 513d 8252 1a3d 60d2 283d
000001f0: d69c a53c 615e 8cbc 7777 ca3c 692c 823c
00000200: 3ca9 9cbb 6c01 12bb 5f92 1cbc 43a6 d13c
00000210: 9d97 083b 0e33 5cbd 8d8d 3bbd ca52 323d
00000220: b63a febb c7ce 35bd a98a 62bd 34d7 cdbd
00000230: c5d6 823d 22c6 333d 4d73 eebb 1d9c a2bd
00000240: 1fc7 32bd b75c 773d a247 1d3d 3816 e83c
00000250: 28af 45bd b0e8 23bc 4e51 e53c e35e ffbb
00000260: 0c08 49bd 7123 67bd 11a5 07bd 820e 153b
00000270: e81a 803c 28b2 0ebd 6cf4 d2bc aa05 733c
00000280: adfa 473c 7ea1 a93c 6e50 21bd 1f74 e93c
00000290: 2392 bf3c 79aa b33c 6b73 31bc 99c5 b2bc
000002a0: e4d9 3bbd e461 babc de38 5e3d 7dc2 13bc
000002b0: 5262 c83b ece2 e43c 5e68 2d3c e604 d33c
000002c0: e2c9 913d 1a72 5f3d ac84 d5bc 9212 01bc
000002d0: 627b b0bb f876 203d 0c10 f0bc 19cb 32bd
000002e0: 1ff8 f9bb 43cc 1fbd 8a2c 053d 1dc4 09bd
000002f0: fc3c 83bd 93f9 173b 9f9f 6d3d 6b9f dc3c
00000300: 12ae b8bc 6f2e 47bd 16a6 86bc cc25 393d
00000310: 1962 ec3c 671a db3c ac3d 443c d9be b83c
00000320: 2c63 e1bb f7e3 523d b204 423c 603b e13a
00000330: 4031 78bd b1ed 2a3d ad1a 5abc a778 9b3b
00000340: 451b a73c 8b6b 41bc 9b58 c6bb 1162 5bbd
00000350: 5e36 473b 3660 023d c560 17bd 608a 08bb
00000360: bcb2 22bb fe51 c1bc 1e58 2f3d 06ff 14bd
00000370: a545 d83c 23a2 2fbc 7902 153d 4c67 093c
00000380: d1bf cebc 2f5c 09bd afc1 e339 73dd 56bc
00000390: 88c3 12bb 6564 903c 8ca2 383c 530f 9a3b
000003a0: 2280 593c c48d babc a86f 083d 82b1 67bc
000003b0: 58bf 2dbd 240e 163b 01d0 d1bb 7a96 8b3c
000003c0: eb29 d2bc 7014 3dbd be61 60bd e2d5 323a
000003d0: 20fa 293d 3eb7 03bb 0377 a5bc e1d6 4fbd
000003e0: 5e9a 41bd da0b e0bb 87fa e23c 7afd 85bd
000003f0: 7294 8abb db4e 19bc 1a2e 20bd d643 a33b
0.0118296975 -0.0075321235 0.019537995 -0.020311914 0.06255336 -0.008311968 0.0045315307 -0.043029677
-0.06839289 -0.02312866 -0.026960712 0.047014393 -0.021083664 -0.024772042 -0.022686392 -0.0028596763
-0.04795502 0.0041216523 -0.0491715 0.0024588015 0.000153045 0.0008401787 -0.0014101096 -0.0009615321
-0.008704299 0.030066 0.0057925596 0.060376912 0.062241048 0.023925006 0.001885521 -0.04587205
-0.037330244 0.047830377 0.024836233 -0.021861479 -0.046622325 0.0083365785 0.028560735 -0.0119417235
-0.023785233 -0.022379737 0.0023180218 -0.0013286527 0.035007723 -0.0051737316 0.000353429 0.025721658
0.038350556 0.04830432 -0.064304076 -0.013611029 0.0025550642 0.0001966398 -0.013918995 0.01752602
0.03417151 -0.02378585 0.0040509147 0.0062530874 0.0057210485 -0.012477966 -0.06447398 -0.049287736
0.001881033 0.0053033098 0.042005565 0.018586624 -0.052523684 0.0060359403 -0.019960461 -0.02989311
-0.06383534 -0.07097665 -0.024585148 -0.0012979454 -0.04270066 0.020266028 -0.015201455 -0.026982605
-0.013184419 -0.051962152 -5.2613206e-05 5.8705074e-05 -0.0084856 0.034728754 0.013548314 -0.022323668
0.008459047 0.050643932 0.037598837 0.010414769 0.023460217 0.012380634 0.06563967 -0.0038478756
0.0045130425 -0.024699941 0.004239191 -0.0051209265 0.040317096 0.01585152 0.012992459 0.030008303
-0.011430275 0.008377489 0.016106796 -0.012760462 -0.029333394 0.01647168 -0.02700877 -0.014257274
0.008399264 -0.014536898 0.06177903 -0.008615685 0.018846428 -0.013627189 -0.032594927 0.007539129
0.08046862 0.051255874 0.03767634 0.041216254 0.020216387 -0.017134847 0.024715168 0.015890317
-0.0047809165 -0.002227868 -0.009556382 0.025591975 0.0020842322 -0.053759627 -0.04578929 0.043535985
-0.0077584637 -0.04438665 -0.055308018 -0.10050812 0.0638862 0.043890126 -0.0072769285 -0.079399325
-0.043646928 0.060391154 0.038398392 0.028330907 -0.048262745 -0.0100042075 0.02799287 -0.007793294
-0.04907994 -0.056430284 -0.033116404 0.0022744243 0.01563783 -0.03483787 -0.025751315 0.014832893
0.012205762 0.020706888 -0.039383344 0.028497754 0.023385113 0.021931874 -0.01083074 -0.021822738
-0.045862094 -0.022751756 0.05425345 -0.009018538 0.0061152363 0.027940236 0.010583965 0.025759172
0.07118584 0.054552175 -0.02606424 -0.007877963 -0.005385802 0.039175957 -0.029304527 -0.04365072
-0.0076284553 -0.03901316 0.03251318 -0.033634294 -0.06408116 0.002318953 0.058013555 0.026931485
-0.02254394 -0.048628267 -0.016436618 0.04520206 0.02885537 0.026745988 0.011977594 0.02255194
-0.0068782773 0.051486935 0.01184194 0.0017183833 -0.060593843 0.041730586 -0.013312024 0.0047446075
0.020398745 -0.011805425 -0.006053043 -0.05356032 0.0030397396 0.031830035 -0.03695752 -0.002083443
-0.0024825772 -0.023598667 0.042808644 -0.03637602 0.026400397 -0.010719809 0.03637931 0.008386444
-0.02523795 -0.03353518 0.0004344112 -0.013114321 -0.0022394378 0.017625997 0.011269223 0.004701534
0.013275178 -0.022772677 0.03330961 -0.014141442 -0.042418808 0.0022896612 -0.00640297 0.017039526
-0.025654754 -0.04616207 -0.054780714 0.0006822032 0.041498303 -0.0020098235 -0.02019835 -0.050742034
-0.047266357 -0.0068373503 0.027707351 -0.065424874 -0.004229122 -0.0093571795 -0.039106466 0.004982452

bias f4 [64]
00000000: 65a4 8ebd dcd9 6fbd 4501 8e3c e4bd 72bd
00000010: 911f 9bbc c6d4 a33a 0449 d0bc 13d3 a1bc
00000020: 39d4 71bd c28b 2ebd 3419 5dbd 3bc6 1bbd
00000030: 2cac 20bc 4225 373c b8c3 ecbb 4c8c eabb
00000040: bfa2 5abd 2b5d 22bc fae3 cdbc 25c1 2abd
00000050: 84b1 c5bc 1d72 87bb 9c94 efbc bffa e1bb
00000060: 605b ef3c 486e 1cbb ee1c ecbc 5991 d0bc
00000070: 9856 a6bd 64af d8bc d3ca 97bd 83da 58bd
00000080: 9b8d 8fbb e099 16b9 884f abbd 895f 47bd
00000090: 9e40 65bb 92d9 dabc 195a 1fbc 6a54 0cbc
000000a0: 0628 b3bc 4fbf 3bbd f1db dabd 0357 eebb
000000b0: 471f 763c c003 063c 4583 aebc ebcb 7cbd
000000c0: ae05 d3bc 2893 7f3c bcde 0dbc 2906 56bd
000000d0: 4f6e 89bd 4ef8 55bc f0f9 8a3c 5882 383b
000000e0: 1982 c2bb 7b97 3c3c 4f7c 243d 043c 6bbd
000000f0: 5f11 28bc 0d00 13bc 1da7 f53b 4d0e 78ba
-0.069649495 -0.058557376 0.01733459 -0.059263125 -0.01893595 0.0012499325 -0.025425442 -0.019753968
-0.059040282 -0.042613752 -0.053979114 -0.038030844 -0.009806674 0.011178317 -0.00722548 -0.007157838
-0.053377863 -0.009909908 -0.025133122 -0.041688103 -0.024132498 -0.0041334764 -0.029245667 -0.0068963463
0.029218376 -0.0023869444 -0.028822388 -0.025459932 -0.08121985 -0.02645082 -0.074117325 -0.052942764
-0.0043808944 -0.00014362438 -0.08364779 -0.048675094 -0.0034981142 -0.026715074 -0.009726071 -0.008565048
-0.02186967 -0.045836743 -0.10686482 -0.007273556 0.015022106 0.008179605 -0.021302829 -0.06171791
-0.025759544 0.01559905 -0.008659061 -0.05225197 -0.06710493 -0.013059689 0.016964883 0.0028153863
-0.005935919 0.011510725 0.040157612 -0.057430282 -0.010258048 -0.00897218 0.007496728 -0.000946258

weight f4 [64, 1024]
00000000: baa6 09bc c9f7 b3bc 869a 263c e215 abbc
00000010: f31c b3bc d5d8 a83b 3160 253a 98c5 c53b
00000020: e25e 173d 3064 0e3d 59eb fb3c 6a9d 0ebc
00000030: 95f7 093d 1581 5ebc 179f 37bc 4a03 49bc
00000040: 8688 60bc ef56 3cbd c913 3bbd 056b b0bc
00000050: 6d03 1cbd 81d6 b5bc f45a 193d 942b c0bc
00000060: 5480 253d cb29 b0bb 5759 34bd fd00 0bbc
00000070: e5ca a73b d12a dabc bcfb 37bd 2c63 4bbc
00000080: 0bc9 0b3d 97a2 0dbd 191f 2d3c a187 91bb
00000090: ad43 d5bb 6c0d bf3c b654 b5bb 6386 7a3c
000000a0: c24d 34bd 6fa3 113c cb7b 633d 81a8 dc3c
000000b0: 199a 21bd d1e6 9cbc 482e c73b 23aa 08ba
000000c0: 0df3 3bbc 9663 3e3c 84f8 ec3b e9ac 71bc
000000d0: 2a90 3abc be44 97ba ae15 90bc dffa ae3c
000000e0: 17a3 0bbd fa10 b0bc c6fd 15bd 6196 e1ba
000000f0: 30f1 32bd 3844 20bd 43d5 72bd dced dcbc
00000100: d21a 66bc b895 5fbc 0f2d 35bd b3b9 4bbd
00000110: ee9c 2dbb 96f5 333d d7ec 3fbc d244 efbc
00000120: f1da 8dbc 40b3 273c e833 ea3a 5380 92bb
00000130: 15eb 023d 656f 3cbd 7d19 9fbc c303 81bc
00000140: e60c 033d 71ea 0abd 3115 123d 3bc5 02bd
00000150: a1d1 be3c fc92 b03c 23a5 333c c5b3 a1bc
00000160: 1559 76bc 250e 24bd c1ca 82bb 1419 1ebd
00000170: 85f8 2ebd 6238 883c dffb eabc e8d2 4abc
00000180: 8704 a1bc f260 f4bc e66e c1ba 4e56 c5bc
00000190: 8871 663c bf99 4cbc 0962 01bc 575f 37bc
000001a0: 9340 0f3d 5f1d b03c 1bd7 643d 2404 843c
000001b0: 348d da3c 9222 26bb b3f0 2bbd 2acb e43c
000001c0: b239 b8bb 4568 05bd 0e1d 49bc 0da4 57bd
000001d0: ed81 893c 551b d339 0a58 833c 90bf cc3b
000001e0: 85d2 c73c 7fb3 d73a ce56 42bd fe0a 7b3c
000001f0: 510c ba3c 1609 79bb 41b4 5cbb 8d0c 6abc
00000200: d14c c5bc f9b2 91bc bf90 1b3c 4e63 a83c
00000210: 333f d83c 46b4 db3c e7a0 603d 70fd 17bb
00000220: a565 9b3d 7f6f ca3c 6fde 173d 466e f93b
00000230: 80a9 e43c 4654 d0bc 1261 0ebd f0c0 01bb
00000240: ffb9 4e3d 5af0 e23c 40d1 f33b a14f 723d
00000250: d34f e83c c9c8 6f3d fad7 6e3d 0d1d 293d
00000260: 1b8e 02bc edb3 75bb cf87 8cbc 9e43 67bc
00000270: 3e70 84bc 439f 90bb 01fd 90bc 712b e8bc
00000280: cc85 fbbc 6191 b1bc cc45 f1bb 363e 3b3b
00000290: 61a8 90bc f3b1 11bd 83d0 7ebd a92e bebc
000002a0: 22ac ab3c 9641 bdbc e9e0 a23b 6834 51bc
000002b0: 40a8 6d3c eb64 05bd beb5 8cbc a15e 063b
000002c0: 8e16 72bc 6b3e 613c 9a01 7dbc 6dc1 f73c
000002d0: 0688 113c 3bc8 4d3d ca76 453a c2a0 123d
000002e0: 5579 88bc cae0 6b3b bc7f 2dbd a2cb 1cbd
000002f0: 1495 70bc 249b f6bc 67e4 9dbd 13e2 e53c
00000300: 5781 513c e07d 69bd 5a5d 923c b036 6bbc
00000310: 5a93 0abd 4d6d 473b b197 933c a8d5 7e3b
00000320: b850 d7bc fbf5 55bd 2949 0a3c f730 8ebc
00000330: 3214 bcba 599d f7bc 0c8c 3cbd 05d0 dabc
00000340: 96a6 fe3c e8c5 43bd f897 cd3b 31f3 f23c
00000350: 8ff4 be3c de63 173d a0b0 573d 1a89 103b
00000360: 4a19 083d caaf c43c abfc 623d 2321 4e3c
00000370: 70d0 7b3c 3e18 d13c d875 623d 1f3c 55bc
00000380: 6869 2ebd 8211 74bd 78c8 58bb 7f70 c1bc
00000390: c016 b1bc 3a20 f2ba 10d5 c63c a1c5 3ebd
000003a0: 777c 583d bc4e fabc 7a10 60bc 5ca3 1dbc
000003b0: f48f fcba 4bb8 81bb 880a 623c 659b 48bd
000003c0: 7ea1 1cbd 1345 cebc 3575 42bb a65b ca3c
000003d0: d8f2 e43c 7cbc 8cbd f72a a6ba 25d9 193d
000003e0: 129c 893c d83a 7fbd 3ccb 11bb 843c e23c
000003f0: f77f 81bd a30f 46bd a399 64bd c5e3 04bc
-0.008401567 -0.02196874 0.010168677 -0.020884458 -0.02186439 0.0051528015 0.0006308584 0.006035518
0.03695572 0.034763515 0.030751871 -0.008704523 0.03368338 -0.01358058 -0.011207364 -0.012268851
-0.013704425 -0.045981344 -0.045673165 -0.021535406 -0.038089205 -0.02219701 0.037440255 -0.02345828
0.040405586 -0.005376076 -0.044030514 -0.008484122 0.0051206225 -0.026631745 -0.044917807 -0.012413781
0.034127276 -0.034578886 0.010566496 -0.004441217 -0.0065083117 0.02332183 -0.00553378 0.015290829
-0.044019468 0.008889063 0.05553798 0.026935818 -0.0394536 -0.01915303 0.006078515 -0.00052133406
-0.011471522 0.011620423 0.007231774 -0.014750698 -0.01138691 -0.0011540873 -0.017588463 0.021359859
-0.03409108 -0.02149247 -0.03661897 -0.0017210954 -0.043687046 -0.03912756 -0.059285413 -0.026968889
-0.01404448 -0.013646536 -0.044232424 -0.049737643 -0.0026491242 0.04393538 -0.011714182 -0.02920762
-0.017316313 0.010235608 0.0017868252 -0.004470864 0.031962473 -0.04600467 -0.019421333 -0.015748864
0.031994723 -0.033914987 0.03566474 -0.031926375 0.023293318 0.021554463 0.010964665 -0.019739041
-0.015035887 -0.04005255 -0.0039914553 -0.038598135 -0.042717475 0.016628448 -0.028684555 -0.0123793855
-0.01965548 -0.029831383 -0.0014757782 -0.024089005 0.014065154 -0.012487828 -0.007896909 -0.011192164
0.034973692 0.02149838 0.055869203 0.016115256 0.026678659 -0.0025350195 -0.041977596 0.027928907
-0.005622112 -0.032570142 -0.012274994 -0.052646685 0.016785586 0.0004026542 0.016033191 0.006248422
0.024392376 0.0016456692 -0.047446065 0.015322445 0.022710951 -0.00379998 -0.0033676776 -0.014285219
-0.02408448 -0.017785536 0.009494959 0.020555165 0.026397323 0.02681936 0.05484095 -0.0023191832
0.075877465 0.024711369 0.037077364 0.0076120226 0.027912855 -0.02543081 -0.034760542 -0.0019798838
0.05047035 0.0277025 0.007440716 0.05915797 0.028358376 0.058541093 0.05831144 0.04128747
-0.007968451 -0.0037491277 -0.017154602 -0.014115242 -0.016166802 -0.0044135167 -0.017698767 -0.028341027
-0.030703448 -0.021675767 -0.0073630568 0.0028571016 -0.017658414 -0.035570096 -0.06221057 -0.023215609
0.020956103 -0.023102563 0.004970659 -0.012768842 0.014505446 -0.032566946 -0.017176505 0.002050318
-0.014775885 0.013747792 -0.015442276 0.0302436 0.008882528 0.050239783 0.00075326546 0.03579784
-0.016659418 0.003599214 -0.042358145 -0.038280137 -0.0146839805 -0.030103274 -0.0770958 0.028061902
0.012787185 -0.05700481 0.01786678 -0.0143563 -0.03383193 0.0030430139 0.018016668 0.0038884673
-0.026283607 -0.05223654 0.008440294 -0.017357333 -0.001434928 -0.030226396 -0.046031997 -0.02671052
0.031085294 -0.04779616 0.0062742196 0.029656978 0.023309974 0.036960475 0.052658677 0.0022054375
0.033227243 0.024009604 0.055416744 0.012581143 0.01536952 0.025524255 0.055288166 -0.013014822
-0.042580992 -0.05958701 -0.0033078473 -0.023613213 -0.021617293 -0.0018472739 0.024271518 -0.046575192
0.052853074 -0.030555122 -0.013675803 -0.009621467 -0.0019268976 -0.003958737 0.013796456 -0.04897632
-0.03823995 -0.025179422 -0.0029671912 0.024701905 0.027947828 -0.06871888 -0.00126776 0.0375606
0.016798053 -0.062311977 -0.0022246381 0.027616747 -0.063232355 -0.048354756 -0.055810582 -0.008110945

bias f4 [64]
00000000: bafb 9a3c 6fcf 7b3b a755 103c 23dc d3ba
00000010: 54f4 30bc 3320 273d 8a45 c4bc 915e ae3c
00000020: c4a7 49bc 6f1e 933c aee4 8b3b 430f 71bc
00000030: 6b5c 13bd f60c 11bd 1815 0e3b e118 533c
00000040: 7301 3b3c 9f83 aabc ab75 dc3c f4ab 40bd
00000050: 642a e6bc 9698 c33c 095e b7bc 1a00 b8bb
00000060: 4670 4abb d430 8ebc c4fc 44bd ee14 35bc
00000070: cfc4 02bc cc86 4a3c 626c 033d 6f87 3bbd
00000080: c920 043c ac3b 3c3b 2634 b3bb d052 4dbc
00000090: 4ed5 7b3c 5232 2bbc 4840 bf3c 01ec 26bd
000000a0: 29ad fabb ce8d ba3c 3c1e ff3c a0a2 a1bc
000000b0: a587 45bc ae7d ccbc 84a8 04bc 8fcb ef3c
000000c0: cc46 313c 1fea 283d 8783 edba f57a a33c
000000d0: afca 06bc 8652 473d 4657 17bb 0833 aa3b
000000e0: 05c0 263d e18f ae3b 8a88 95bc cc1c 76bc
000000f0: 1ed8 4bbc fcaa adbc e673 313c 0221 a8bb
0.01891886 0.00384232 0.008809484 -0.0016163628 -0.01080044 0.040802192 -0.02395894 0.021285327
-0.012308065 0.017958848 0.004269204 -0.014713111 -0.03597681 -0.03541275 0.0021680053 0.01288435
0.01141392 -0.020814715 0.026911577 -0.047038987 -0.028096385 0.02387647 -0.022383707 -0.0056152465
-0.0030889674 -0.017357267 -0.04809262 -0.011052353 -0.007981493 0.01236124 0.032085784 -0.045783456
0.008064457 0.002872209 -0.005468863 -0.012531951 0.01537068 -0.010449009 0.023346081 -0.040752415
-0.007650037 0.022772696 0.031142347 -0.019730866 -0.012056266 -0.024962272 -0.008096818 0.029271869
0.010820102 0.0412389 -0.0018120863 0.019956091 -0.0082270345 0.048662685 -0.002309279 0.0051940717
0.040710468 0.0053272103 -0.018253583 -0.015021514 -0.012441663 -0.021199696 0.010830855 -0.005130888

weight f4 [10, 64]
00000000: c49a 543e db6f db3b 652b 88be 98df 993d
00000010: fa0c 053e eb48 babe fb7e b6bd d2a7 60bd
00000020: e457 7dbe a8ef 1bbc 8f94 bb3d bcc6 fe3d
00000030: d7f0 9e3d 88f2 6bbe b122 983e 1512 62bd
00000040: c852 353e 7784 6bbd 958e 8bbe bc15 22be
00000050: acea 0cbe 3906 7fbe 7eff cfbc ff59 41be
00000060: a452 813e 565b 12be 12c9 7dbe ad68 9a3d
00000070: 0926 c73d 2c35 af3e 7a1e 71bd ecc2 6bbe
00000080: 48c8 a9bd f29e c6bc 950b 18be f54f 563e
00000090: 0915 ae3e 5943 d6bd ea98 b33d fd8a e1bd
000000a0: ef25 6b3e b92c 96bd 892a 753e 06e7 843e
000000b0: 541a 4abd f144 98be 9e3d bebd a62d f9bd
000000c0: 53c4 01be e688 863e 249a 2f3e 2c8e d3bd
000000d0: 2d47 4b3e 12b5 9f3e 2b41 87bb 1ef9 ea3d
000000e0: 9999 c53d 2761 09be c0c1 8abe 03d8 a6bd
000000f0: ae6a afbe 5f18 c93d 6b49 493e 6fc5 c53a
00000100: e3ae 77be 4262 a43e 3f35 8abe f5f2 35be
00000110: c39f 803e 89a8 a3be 3f27 d03e 996c 82bd
00000120: 4c37 043e 6aa4 9dbd 1474 923d 28f7 5cbe
00000130: 00b9 ac3e 5739 8a3e a8dd b03d bd2b 86be
00000140: cfeb c43d 44fe 8c3e 4ac9 6b3e f311 5c3e
00000150: f700 8cbd 1718 af3d b9c2 533d 3604 9cbb
00000160: fede b5bd 1781 dcbd bee6 3bbe 7c34 263e
00000170: 8777 3fbd 8ed7 873e cffb 26be 85d4 653d
00000180: ff2c 273d bb71 82bd bf05 0cbe a10b e0be
00000190: 4fbd 913e 3e22 2cbd e8d3 a73d 12ab c73e
000001a0: be70 3e3d 787c 68be 608a c1be 6a8e 253e
000001b0: 2d4c 813d 0d9b d5bd 6ae4 29be 4c14 a13e
000001c0: cf2e 84bd c8a8 b2bd c4b7 813e 82cf 503e
000001d0: eee2 733d 5f7f a0be 1c1c 3b3d 4bf2 3cbe
000001e0: 2908 fbbd b536 88be d757 b3bc 455c 093e
000001f0: 94ed 3b3e 1e8b 893e 90eb 99bd 3cd4 0bbe
00000200: 731b 1abd f025 c63d 08c6 d43d 2dcb 923c
00000210: 4d2b e73d e1f2 ccbc d254 a0be d15c 113c
00000220: e8ee 96be 220f 4fbd b669 943e e6f3 193e
00000230: 5851 af3d 29b7 52be fc2a a83e 57da 043e
00000240: 4b36 263e 71fd d0bc 8165 a2bd d8ff 2bbe
00000250: 688b 043e 340d 793e 0eb8 c2be d0c1 373e
00000260: e811 bebe adc9 493d 995a c43c 480f a4be
00000270: edd5 fd3c 5340 b4be 5d15 21be 422a 303e
00000280: 8c26 91be 812f 31be 0baf 093e 874c aa3d
00000290: e5db 86be d2b3 1c3c 7959 673e 94bf 43be
000002a0: 0479 9cbe 65aa 8c3e 4388 103e ac4b 88bd
000002b0: e9f3 7a3d f989 70be f9f8 263e a812 4abd
000002c0: 8a17 013e 65fb 93be 6281 f03d f2a1 3f3e
000002d0: 6b1b 9b3e ddd4 c53e 7858 643e 3b0e ae3e
000002e0: 3a69 673e d388 343d 4f73 afbe d6a7 a83d
000002f0: 1f28 33be 0a16 a33d c96a 63be d9f9 3c3e
00000300: 2bb6 3dbe 1f2a db3d 062d 8f3c dbcc 78be
00000310: 4c61 a4be c3b5 3f3e fee8 d53d 566d 213e
00000320: ff73 373d cfb2 313e da3d 903d eb03 0cbe
00000330: 26d3 41bd 1177 fdbd a853 86be 12d8 773e
00000340: 143a bcbe d235 5abe 27a4 873d 79b5 12be
00000350: d5ee 543e 5a84 f93d a772 46be ca7e 6fbd
00000360: c7dc 253e 36ab c4bd 28df 5d3e b148 00be
00000370: 0e10 9c3d e753 c23c 4d58 9f3e e7cd 30be
00000380: 2d89 183e b8ec d73b c0c0 003e 22ec 51be
00000390: 1e42 b43b f9b3 44bd 830a 243d 17b9 373d
000003a0: d74c 07bd 1da0 ed3d 4eb9 1ebe 4725 50be
000003b0: bb47 823d d59b 65be 4404 723e 0fe2 d23d
000003c0: 0900 71bd 2f61 42bd 785e 57be b3f8 733c
000003d0: b7b4 51be 0b0d 0cbe 3185 b3bc 77e8 f03d
000003e0: 20e2 c03d 096d f6bd aa4c 4dbd 5a5c c9bd
000003f0: 28f0 5cbc 082e 3f3e 0ff3 713e 047d 823e
0.20762163 0.006696684 -0.26595607 0.0751335 0.12993231 -0.36383757 -0.08910938 -0.054847546
-0.24740559 -0.009517588 0.09159195 0.12440249 0.0776078 -0.23041737 0.29713967 -0.055193026
0.1770736 -0.057499375 -0.2725722 -0.15828604 -0.13761395 -0.24904718 -0.025390383 -0.18881987
0.25258362 -0.14292654 -0.24783733 0.075394966 0.097240515 0.34220254 -0.058866955 -0.23023576
-0.08290154 -0.024245713 -0.14848168 0.20928939 0.34000424 -0.10462064 0.087694004 -0.11012838
0.2296369 -0.07332749 0.23942007 0.25957507 -0.049341515 -0.29740098 -0.09289096 -0.1216691
-0.12672548 0.2627632 0.17148644 -0.103298515 0.1985137 0.31192833 -0.0041276417 0.114732966
0.09648437 -0.13415967 -0.27100945 -0.0814667 -0.34261078 0.098191015 0.19656913 0.0015088747
-0.24187808 0.32106215 -0.2699375 -0.17768462 0.2512189 -0.3196452 0.40654942 -0.063683696
0.12911719 -0.07697375 0.071510464 -0.21578658 0.33734894 0.26996872 0.086360276 -0.26205245
0.096152894 0.2753774 0.23026004 0.21491222 -0.068361215 0.08549517 0.051699374 -0.004761244
-0.08880423 -0.107668094 -0.1834974 0.16230959 -0.04674485 0.26531643 -0.16306995 0.056110878
0.040814396 -0.063693486 -0.13674067 -0.43758872 0.28464743 -0.042024843 0.08194715 0.38997704
0.046494238 -0.22703731 -0.37800884 0.16167608 0.063133575 -0.10429964 -0.1659104 0.31460798
-0.064542405 -0.08723599 0.25335515 0.20391658 0.05954259 -0.31347176 0.045681104 -0.18451802
-0.12257416 -0.26604238 -0.021892471 0.13414104 0.18352348 0.2686395 -0.07515633 -0.1365518
-0.037623834 0.09675205 0.10389334 0.017919147 0.11287556 -0.025018157 -0.31314713 0.008872227
-0.29479146 -0.05055154 0.289869 0.15034446 0.08560437 -0.20577683 0.32845294 0.12973915
0.16231649 -0.025511475 -0.079295166 -0.16796815 0.12943804 0.24321443 -0.38031048 0.17945027
-0.37123036 0.0492646 0.023968982 -0.3204291 0.030985797 -0.35205325 -0.15730806 0.1720362
-0.2834972 -0.17303278 0.1344568 0.08315378 -0.2633964 0.009564357 0.22592725 -0.1911605
-0.30561078 0.2747375 0.1411448 -0.06655058 0.061267767 -0.23490132 0.16305913 -0.0493342
0.12606636 -0.28902736 0.11743428 0.18714121 0.30294356 0.38638964 0.22299373 0.33995232
0.22598734 0.0440758 -0.3426766 0.08235137 -0.17495774 0.07963188 -0.22208704 0.18454684
-0.18526523 0.10701393 0.017477524 -0.24296896 -0.32105482 0.1872168 0.1044483 0.15764365
0.044788357 0.17353366 0.07043047 -0.1367337 -0.047320507 -0.12376226 -0.262357 0.24203518
-0.3676306 -0.21309593 0.066231064 -0.14327039 0.20794232 0.12183447 -0.19379674 -0.058470525
0.16197501 -0.096029684 0.21667159 -0.1252773 0.0762025 0.023721648 0.31122056 -0.17266046
0.14896078 0.0065894984 0.12573528 -0.20500234 0.005501046 -0.048023198 0.040049087 0.04485425
-0.033032265 0.11602805 -0.15500376 -0.2032672 0.06361338 -0.22422726 0.2363444 0.102970235
-0.058837924 -0.047455963 -0.2103213 0.0148908375 -0.20479093 -0.1367685 -0.021914097 0.11763089
0.0941813 -0.120325156 -0.05012194 -0.09832068 -0.013484992 0.18669903 0.23627876 0.25486004

bias f4 [10]
00000000: 6bcb 803d e39b c5bc f682 03be 7f3d 9d3d
00000010: 3894 af3d bfe9 9abc f04b c43d cea2 763c
00000020: 6521 a5bd 2dc4 7fbd
0.06288799 -0.024122184 -0.12842926 0.07677745 0.08573192 -0.018910287 0.095847964 0.015053464
-0.0806301 -0.062442947
