CIFAR10/model/model_50.pth (torch, 588933 bytes, 10 tensors)

weight f4 [32, 3, 5, 5]
000000 2e 05 a8 3c 3a 5d fb 3d 4a e2 89 3c 56 9d b6 bd
       0.020510282 0.12273641 0.016831536 -0.08916728
000010 91 74 f8 bd 53 e9 aa bc ad b0 5f 3d 64 df 3b 3e
       -0.12131608 -0.02086321 0.05461185 0.18346936
000020 c5 fe a9 bc 7f b3 ff bd 6a cc dc bd 4f 85 b5 bd
       -0.020751366 -0.12485408 -0.107811764 -0.08863317
000030 65 9c 08 3e 19 13 3a 3e ad d9 0a be f8 80 39 3d
       0.1334091 0.18171348 -0.13559599 0.04528901
000040 82 2d 27 be ad 92 ee 3d 27 c3 f3 3d 0f ff b8 3d
       -0.16325954 0.1164907 0.11902457 0.090330236
000050 60 ee 2e 3d 51 cd 32 be c3 f8 a7 bd 6b 28 82 3d
       0.0427078 -0.17461134 -0.082017444 0.06355365
000060 77 23 83 bd 30 38 9e bc 27 82 a1 3d f4 c6 2f 3e
       -0.06403249 -0.019313902 0.07886153 0.17165738
000070 dc d6 98 bd 33 33 b2 bd 3c 1f ca bd 88 46 b3 bd
       -0.07462856 -0.08701172 -0.09869239 -0.08753687
000080 6b 8d 2e 3e 4a 13 01 3e 5f 37 4f bd 33 84 f4 bd
       0.17046134 0.12605014 -0.050589915 -0.119392775
000090 6a ca 4e be cb 9b 2b 3e c4 40 b2 3d 53 4d 9c 3d
       -0.20194402 0.16758649 0.08703759 0.07631936
0000a0 da 53 e6 bc 64 3a 80 be 02 bb 91 bd 8e 5f 99 3d
       -0.028116155 -0.2504455 -0.07115747 0.07488929
0000b0 34 2c b8 bd bc 03 a0 3b 7d 40 c6 bd 7e 2c e7 bd
       -0.08992806 0.0048832577 -0.09680269 -0.11287783
0000c0 6f 8a e1 3c 2c a6 47 3d 1a 4e e7 bd b7 07 13 3e
       0.02753183 0.04874246 -0.112941936 0.14358412
0000d0 56 7a 25 bd d2 bd 77 bd ed ca 3b bc 7d 19 e6 bc
       -0.04039987 -0.06048376 -0.0114619555 -0.028088326
0000e0 76 fc 18 3c f3 87 45 3e 75 d3 d7 3d d5 d4 d8 bd
       0.009337535 0.19290142 0.10538379 -0.105874695
0000f0 dd 49 8f bc 99 07 00 be 05 87 34 3e b6 9a 1f 3d
       -0.017491275 -0.12502898 0.17629631 0.038965903
000100 53 4f 27 bd 32 0b 83 bd f3 2d 08 be cc 07 e7 3d
       -0.040847134 -0.0639862 -0.13298778 0.11280784
000110 d9 fb 0d 3e f4 e3 dc 3d 9b 25 27 bd ad f0 08 bd
       0.13865604 0.10785666 -0.040807348 -0.03343265
000120 4d bb 69 bd 83 1d 28 3e 63 68 78 3d 6a d3 6d 3c
       -0.05706339 0.16417508 0.060646426 0.014515737
000130 fe ba 2e be 5a 00 16 bd 77 60 6a bd d5 ec 1d be
       -0.1706352 -0.03662143 -0.057220902 -0.15422376
000140 04 b2 16 be c9 0e 81 bd cb 78 ea bd 02 e5 3c be
       -0.14716345 -0.06301648 -0.11448821 -0.18446735
000150 ca 70 8f bd 9a 0d eb bd 45 d4 2e be 7c 3a 48 be
       -0.07003935 -0.11477204 -0.17073162 -0.1955356
000160 68 01 a6 3b 32 36 f1 bd ad 1a 8f 3d cc e2 f9 bd
       0.0050660856 -0.11777915 0.0698751 -0.12201461
000170 93 66 91 bd e7 ce 36 bd 8b 5d 0b be 17 d3 de 3c
       -0.070996426 -0.04463091 -0.13609903 0.027200265
000180 2e 8e a2 bd e6 6a f8 bc 25 d1 9e bd a0 74 26 3b
       -0.07937275 -0.03032441 -0.07754735 0.0025399104
000190 fe 2a ee bc cc bd 09 3d 0a 87 88 bd cd 1f 80 3d
       -0.029073235 0.03362827 -0.06666382 0.062560655
0001a0 8c bc 90 3d 3f 64 8e 3d 9d 1a 1e 3d 3d c0 82 3d
       0.070672125 0.06952714 0.0385996 0.06384323
0001b0 e4 3c 9f 3c c4 ef a8 bd 3b cc 6c bc d6 a6 49 3c
       0.019438215 -0.08248857 -0.014452989 0.012307843
0001c0 46 5d 27 bd fa 55 e4 bd 38 bf cd bd db 23 86 bd
       -0.040860437 -0.11149211 -0.10046238 -0.06549808
0001d0 f0 99 54 bb f2 8a 70 3a 36 16 87 bd e5 a6 2e bb
       -0.0032440387 0.0009175978 -0.06596033 -0.002664977
0001e0 c8 a8 25 be 4f 1a 9e bc f1 0f 7a bd 23 9c 82 bd
       -0.16177666 -0.019299654 -0.06105036 -0.06377437
0001f0 b6 ab 02 bd 03 f6 87 bd 0e 42 fb 3d 40 45 e0 3d
       -0.031902038 -0.0663872 0.12268458 0.109507084
000200 d7 81 ee 3c 4a f0 94 3d f1 7a fd 3d e6 a2 0f 3e
       0.029114647 0.07272394 0.12376965 0.14026985
000210 3d 4f 4b 3e ab d9 6a 3e 20 a8 4b 3e cd c6 f5 3d
       0.19854446 0.22934596 0.19888353 0.12000809
000220 eb 62 33 3e c7 63 85 3e 75 4c 3d 3e 0f 56 35 3e
       0.17518203 0.26052687 0.18486197 0.1770861
000230 a3 20 43 bd a5 7f ef 3d 27 44 22 3d 92 bd 54 3d
       -0.047638547 0.11694268 0.039615776 0.0519386
000240 85 9b 0c 3e 20 57 fa 3d 2e fe 8d 3d db cf e4 3d
       0.13731201 0.12223649 0.069332466 0.11172458
000250 7e 9a 26 3e 6d b2 5b 3c 85 38 09 be 23 25 bd bc
       0.16269872 0.013409239 -0.13400467 -0.023088997
000260 ae ec 9e bd 2e 2b 99 bd c0 8a 2e be bd 44 4d bd
       -0.07759987 -0.07478939 -0.17045116 -0.050114382
000270 0c 7c a5 3d a7 0c a6 bd 04 b9 f3 3d b9 42 99 3d
       0.08080301 -0.08107882 0.11900523 0.074834295
000280 08 70 d7 3d 77 62 b6 bc 7d 78 b2 3b 43 32 0b 3e
       0.10519415 -0.022263749 0.005446492 0.13593392
000290 d4 85 ef bd 7d 07 6e 3d 5a 7f e2 3d c5 af 03 3e
       -0.116954476 0.05811261 0.11059447 0.1286002
0002a0 f4 f0 eb 3d b9 5a 6e bc 7c db 92 3d fe b0 da bb
       0.115205675 -0.014547997 0.071707696 -0.006673931
0002b0 f8 34 f4 3d 5d df 0c 3e 0e d3 9c bd f4 10 6e bd
       0.119241655 0.13757081 -0.07657443 -0.058121637
0002c0 e8 5b 9f ba 7e 1e c6 3d 4b 1d 80 3d 7e 37 92 3b
       -0.0012158128 0.09673785 0.06255587 0.0044621816
0002d0 f9 78 98 3d d9 38 d7 3d ca 52 81 bb 21 62 e2 3d
       0.07444949 0.1050889 -0.003946637 0.11053873
0002e0 51 ea 80 bd 0b a0 96 3d 69 e5 de 3d c5 83 40 3d
       -0.06294692 0.073547445 0.108836 0.047000665
0002f0 7f 5e 03 3e ea 72 c8 bc d1 15 90 3c 34 43 55 3c
       0.12829016 -0.024468858 0.017588528 0.013016511
000300 7a 3c 00 3e 9d 9b e1 3d fb 82 e5 bd bc a9 dc bb
       0.1252307 0.11016009 -0.11206623 -0.006734101
000310 83 7f eb bd c7 11 48 3d d6 8c 49 3d 10 65 1d be
       -0.1149893 0.04884508 0.049206577 -0.15370584
000320 49 59 ac bd 6b 41 9a 3d 2e bb 04 3e 24 8a e0 3d
       -0.08415467 0.07532009 0.12962028 0.10963848
000330 d5 1f a4 3d 47 40 b5 3d 51 80 0a 3e 73 b3 06 3e
       0.08013884 0.088501506 0.13525511 0.13154392
000340 7e 87 70 bc cd 12 13 bd 1e 49 12 bd 0a 4c 0d bd
       -0.014680741 -0.0359066 -0.03571426 -0.034496345
000350 19 cc ae 3d b7 e1 32 3e bc 92 a1 bb b7 f9 ed 3d
       0.08535022 0.17468916 -0.004930822 0.11619895
000360 a4 03 95 bd 19 8c 20 3c a9 55 1e 3e d5 69 a6 3d
       -0.07276085 0.009799027 0.15462364 0.081256546
000370 36 01 87 bd 4f 94 cb bd b2 af fe 3d 3a 29 fd 3d
       -0.06592028 -0.09940397 0.12435855 0.12361379
000380 d9 ef 97 bd a5 9f a5 3d ec 83 c5 3d 47 57 2f be
       -0.07418794 0.080870904 0.09644303 -0.17123137
000390 ae 9f 75 3c db fb 14 3e 4d 46 2e 3e df 61 74 bd
       0.014991684 0.145492 0.17019005 -0.05966365
0003a0 59 3d 56 be 3a c0 9c bd 0f 24 24 3e ac 33 eb 3c
       -0.2092184 -0.07653852 0.1602938 0.028711163
0003b0 79 d2 9b 3d 1e 6c 42 be 9e 69 e9 3b e3 90 54 3e
       0.07608504 -0.18986556 0.0071231863 0.20758395
0003c0 17 02 92 3d a3 f8 16 3d 13 84 46 be 0f 22 10 bd
       0.07129305 0.036858212 -0.1938632 -0.03518873
0003d0 dd af 00 3e 59 ae f2 3b 73 4c 74 bd 13 f6 92 bd
       0.12567087 0.0074060378 -0.05964322 -0.07175841
0003e0 b3 bb 45 bd 80 d6 24 3e 8c 70 07 3d 02 48 68 bd
       -0.048274707 0.1609745 0.033066317 -0.056709297
0003f0 12 c6 96 bd 3a 15 2d bd 42 4c 59 bd 7e 93 d0 ba
       -0.07361998 -0.04225657 -0.05305124 -0.0015913097

bias f4 [32]
000000 61 e1 86 be f3 0c 90 3d 1b 80 56 3e 2e 37 8b be
       -0.26343825 0.0703372 0.20947306 -0.27190536
000010 35 d5 99 bd 1c 0c 0d bd d9 74 e2 bd 16 db 81 be
       -0.07511369 -0.034435377 -0.11057443 -0.25362462
000020 3d 7c 1c 3e e4 03 16 3e df 6f 04 be e0 ca bc bd
       0.15281768 0.14649922 -0.129333 -0.09218383
000030 65 d3 6a bd 92 3b 1b be b9 2d 05 be 92 42 a5 be
       -0.057330508 -0.15159443 -0.13005723 -0.32277352
000040 3f 31 8e bd 73 67 69 3c 0d 74 c7 be a3 e2 2d be
       -0.06942987 0.014245856 -0.38955727 -0.16980986
000050 de 69 e0 3d e8 ee 28 3e c4 3f 65 be 71 be ab bd
       0.109576926 0.16497386 -0.22387606 -0.08385933
000060 88 d5 82 be a9 33 f7 bc f8 a6 dc bb 51 1b 3e 3e
       -0.25553536 -0.030176 -0.0067337714 0.18565108
000070 cb c1 1e bd e2 a5 c3 3c 4a a1 91 be 2d b3 9c bd
       -0.038759034 0.02388281 -0.28443366 -0.076513626

weight f4 [32, 32, 5, 5]
000000 8c 86 33 3c 95 08 30 3d f0 17 31 bc f4 75 79 3c
       0.010957371 0.042976934 -0.01080893 0.015225876
000010 b2 b0 68 bc 5d e1 fd bc 28 46 15 3d 48 3d d6 bc
       -0.014202284 -0.03099125 0.03644386 -0.026152268
000020 f3 86 07 3d ef f3 60 3c d6 cc ac 3c bb f7 4c 3d
       0.033087682 0.013730033 0.021093767 0.05004094
000030 7d b1 ad bb ea 11 a3 3b a0 d9 d0 bc d3 e1 b2 bc
       -0.0053006993 0.0049765008 -0.025494397 -0.021836197
000040 e1 13 25 3d ed 2e b5 bc 85 97 2c 3c c0 5d 20 bc
       0.04030216 -0.022117103 0.010534172 -0.009787977
000050 0b a7 44 bc 11 4b 71 3b fe 85 8d 3c 25 f6 7f 3b
       -0.012002717 0.0036818425 0.017275807 0.0039056626
000060 10 3c 84 3c 07 e3 d2 bc a5 4d 52 3c 27 3a 69 3c
       0.016141921 -0.02574302 0.012835895 0.014235056
000070 af ff e1 3c 61 1e 68 bc f4 f0 32 bc 49 d6 42 3c
       0.02758774 -0.014167399 -0.0109217055 0.01189191
000080 dd cc c3 3a 39 6e 8d bc 48 87 14 bd 56 10 d9 3c
       0.0014938373 -0.017264472 -0.036261827 0.026497047
000090 4e c7 bd bb 3c bb 05 3c 14 68 c1 bc e6 bf 9b 3b
       -0.0057915812 0.008162316 -0.023609199 0.0047531007
0000a0 3c 81 de ba 88 ff aa 3c bd 0f 22 3d 7e 81 63 3c
       -0.0016975771 0.0208738 0.03956579 0.013885854
0000b0 4c c4 34 3c 74 99 c0 bc 44 93 84 3c e7 d7 09 3c
       0.011033129 -0.023510672 0.016183503 0.008413292
0000c0 8d db 61 bc 7d 42 0f 3d 66 12 bc 3c e3 b2 06 3c
       -0.013785255 0.034975518 0.022957992 0.008221361
0000d0 fe 13 96 3b 94 6e f6 3a 17 30 00 3d bd 5a d8 3c
       0.00458002 0.0018801265 0.031295862 0.026410455
0000e0 77 97 7c 3d 3a f3 98 3c c6 58 43 bb c0 a8 a7 ba
       0.061667886 0.018670667 -0.0029807552 -0.001279138
0000f0 42 72 89 bc 9f 1d 0a 3d d9 ec 91 3b 92 7b 9b 3b
       -0.016778115 0.033719655 0.0044532833 0.0047449553
000100 60 3c 27 3d 68 2d 84 bb 78 12 c5 ba 90 5f ec 3b
       0.040829062 -0.004033733 -0.0015035411 0.0072135404
000110 b2 22 d7 bc 81 22 2f 3d 7f 92 36 3c a0 55 70 bc
       -0.026261661 0.042757515 0.011143326 -0.014668852
000120 62 b0 74 bc 80 a8 de bc 5b 7a 4e bd 09 73 1c 3d
       -0.014934631 -0.027179956 -0.050409656 0.038195644
000130 75 21 ed bb ea 97 60 3d 05 7b b3 bc 8d cb 82 3c
       -0.0072366544 0.054832377 -0.021909246 0.015966201
000140 e6 59 67 3c 51 91 12 bc c5 51 07 3d ed 13 65 bc
       0.014120555 -0.008945779 0.033036966 -0.013981801
000150 64 1f db 3c 29 03 64 3d d4 cb 04 bc c9 bb ca 3c
       0.026748367 0.055667076 -0.008105237 0.024747746
000160 13 63 d1 3c d2 3d bb 3c d7 b2 5b 3d 6f 83 62 3c
       0.025559938 0.022856627 0.05363735 0.0138252815
000170 31 92 96 3d 6b 61 d0 3c ce 48 90 bb 97 a5 b0 bc
       0.073521025 0.025437078 -0.0044032102 -0.021563334
000180 ea 47 16 bc 44 bd 2a bc 87 27 fb 3c 2e e8 05 3c
       -0.009172419 -0.010421101 0.030658497 0.008173032
000190 c3 2f 0c bd 3c bf e8 bc 71 8e 92 3c b6 e5 49 bd
       -0.034225237 -0.0284115 0.017890187 -0.049291335
0001a0 38 ee 18 bd 2c 57 13 bc 7a 3e 11 bb b5 f7 b4 bc
       -0.037336558 -0.008992951 -0.0022162483 -0.022090772
0001b0 df b6 a2 ba e3 95 cc 3c 2e 6b ad 3c 7b 2a 0a 3d
       -0.0012414119 0.024973815 0.021169271 0.03373192
0001c0 ab df f5 bb 22 c5 f9 bc 4a c6 54 3c 18 f2 eb 3b
       -0.00750347 -0.030489508 0.012986729 0.0072004907
0001d0 e7 38 43 3d 71 c4 4d 3c c9 a6 56 3c 83 86 a7 3c
       0.04766169 0.012559042 0.013101288 0.020449882
0001e0 83 f9 b2 bc 4f f0 00 3c 15 2f 6d 3c db bd ae bc
       -0.021847492 0.007869794 0.014476557 -0.021330765
0001f0 d5 ca 43 bd d4 f2 92 3c c6 2f a1 ba db 12 63 3d
       -0.047800858 0.017938055 -0.0012297563 0.055437904
000200 4d 9a 9c bc 50 57 01 3a b3 94 bb ba 71 08 a5 3c
       -0.019116545 0.000493397 -0.0014311284 0.020145627
000210 06 9f 63 3d 7f 4a 6d bc 98 98 34 bc 6f 4c ad 3c
       0.05557158 -0.014483093 -0.011022709 0.02115461
000220 cd 8a 0b 3c a2 76 82 3d a6 dc c6 3c 6a 7a 12 bb
       0.008516979 0.06370284 0.024275135 -0.0022350796
000230 df eb ce 3c c5 25 f3 bc 21 ad cb bb 3c 05 6c 3c
       0.025258956 -0.029681096 -0.006215707 0.014405545
000240 45 13 f0 3c 5f d1 ed 3c bd b8 d5 3b 22 4a d0 3c
       0.029306063 0.0290305 0.0065222667 0.025425974
000250 c9 57 2b bd 62 17 0c 3c cf 4f 9c 3a 63 b0 55 3c
       -0.041831765 0.008550497 0.001192564 0.013042542
000260 1b 1e 9f bc dc 46 a1 3c b5 61 10 bc f3 dd 55 3b
       -0.019423535 0.019687109 -0.008812358 0.0032633513
000270 6f 5f 2d 3c f4 cb 3b bc 86 04 01 bd 34 ce 91 bb
       0.010581835 -0.0114622 -0.031498455 -0.00444963
000280 b6 85 3c 3c ba cb de bc f8 2c 2c 3c ec 50 86 bb
       0.011506489 -0.027196754 0.010508768 -0.004099002
000290 7f 45 a9 3c 46 59 7c 3d d5 90 2a 3d c1 44 cf 3c
       0.020663021 0.061608575 0.04164203 0.02530134
0002a0 91 9a 11 3d 82 d0 af bb d8 d7 87 bc 4a 2b d7 bc
       0.035547797 -0.0053654322 -0.016582415 -0.026265759
0002b0 3d a0 1d bd 35 f6 29 bd da d2 52 bd ae 93 03 3c
       -0.038482893 -0.041494567 -0.051470615 0.008030815
0002c0 1a 62 3b bc 3e ee 90 bc ef 79 d9 bc fd da c2 ba
       -0.011436963 -0.017691728 -0.0265474 -0.0014866289
0002d0 99 41 f8 bc cf e5 d8 bb d1 e2 86 bc 78 03 d0 3c
       -0.030304717 -0.006619192 -0.016465576 0.025392279
0002e0 a7 97 bd bc 1b e7 30 bd d1 d0 7d 3c bc ec 99 bc
       -0.023143603 -0.04318915 0.01549168 -0.018789642
0002f0 9f fd c0 3c 23 57 8a bc a2 30 a3 3c a7 b3 31 bc
       0.023558436 -0.016887253 0.01992065 -0.010846055
000300 c0 6a 25 3d 60 9e 25 3d 34 fe c3 bb 93 b7 a5 3c
       0.040385008 0.04043424 -0.005981231 0.020229137
000310 d9 5e 08 3d 15 4d 0d 3d 5e 6a 67 3d 78 17 a8 3c
       0.03329358 0.03449734 0.056497924 0.020519003
000320 f7 0b bb 3b 7c 8a ec 3c 9e de 8e bc 15 c2 ba 3c
       0.0057082134 0.028874628 -0.017440137 0.022797624
000330 d3 6e cc bc db 86 39 3d 94 79 c4 3c 76 f9 f1 3c
       -0.024955189 0.045294624 0.023983754 0.029537898
000340 4a ca 4c 3c a2 ca 69 3c e3 1d b4 3c 7e c0 1d 3c
       0.012499401 0.014269503 0.021986907 0.009628413
000350 a4 e5 12 3d 0f 60 0d 3d c3 98 c3 bb 3a c4 4d bc
       0.035863534 0.034515437 -0.0059691384 -0.012558991
000360 ae 79 35 3d 3f bc f7 3c be a7 5b bc d4 a9 02 3d
       0.044305496 0.03024113 -0.013406692 0.031900242
000370 e5 6c 2d ba 61 36 80 3c 75 09 57 bb 82 ab 3d bb
       -0.0006615653 0.01565093 -0.0032812033 -0.0028941338
000380 07 16 ef bc 89 9a 1e 3d 68 9c 44 bb 7c 25 7a 3c
       -0.029185308 0.038721595 -0.0030000452 0.015267726
000390 4d 1d 29 3d 6d a4 e0 3c 19 2a c7 bc 6e 2b 55 3d
       0.04128771 0.027422154 -0.024312066 0.05204337
0003a0 cc b3 84 3c bf 8c 14 3d 78 38 ff 3c b5 e4 28 3c
       0.016199015 0.03626704 0.031154856 0.010308434
0003b0 4a bc 46 3d 2d ee 70 3c 32 5d 25 3d 31 b8 18 3d
       0.04851941 0.014705223 0.04037208 0.037285034
0003c0 d6 ba 39 3b 20 0b 51 3d 1a f7 9c bc 1f 4f 3d 3d
       0.0028340123 0.051036 -0.019160796 0.046218034
0003d0 e8 fa 3e 3c 2d d0 ed 3c fb 79 5d 3d dd fb 79 3c
       0.0116565 0.02902993 0.054071408 0.015257803
0003e0 98 3a 89 3b b8 60 ff bb 16 36 c5 bc 5d f2 d9 3c
       0.004187893 -0.007793512 -0.024073642 0.026604826
0003f0 b4 d3 c0 3b c0 62 bc bb 64 48 03 bd 81 4f 15 bd
       0.005884612 -0.0057490766 -0.03205146 -0.036452774

bias f4 [32]
000000 78 6c 9f bc 33 a0 82 bd 51 00 fc bc 1c 6c 8a bc
       -0.019460902 -0.06378212 -0.03076187 -0.016897254
000010 12 46 6a 3c b0 2a 4a 3d ca d9 13 3d 21 e0 f1 bc
       0.014298933 0.049357116 0.03609637 -0.029525818
000020 85 1f 37 bd 16 89 92 3d cc 6b f9 3c 11 79 eb 3b
       -0.044707794 0.07155053 0.03044691 0.007186063
000030 31 fa 0e bd 92 65 3e 3c e6 23 11 bd 84 d6 15 be
       -0.03490657 0.011620896 -0.035434626 -0.14632612
000040 3b be 9e 3c 8e e9 18 be d3 2b ca bd 40 5c 01 3d
       0.019377818 -0.14932844 -0.0987164 0.031582117
000050 6b a9 f1 3c f2 3a c2 3c 1e f8 12 bc 6a 92 98 bd
       0.02949973 0.023709748 -0.008970289 -0.07449801
000060 3f 4a 30 bd b7 93 bd bd ed 1b 09 bd 54 45 6f 3c
       -0.043039557 -0.0925669 -0.033473898 0.014603931
000070 b0 ec 43 bd 49 2d b2 bd 0b f8 32 bd c4 f6 ea bc
       -0.047833145 -0.08700044 -0.043693583 -0.02868212

weight f4 [64, 32, 5, 5]
000000 39 6c 9f 3c 37 d1 91 bc 0a 1f dd 3c b4 03 b9 bc
       0.019460784 -0.017799957 0.02699234 -0.022584774
000010 1d c6 db 3c 64 b5 f8 bb 57 2c 4c bc db 7d f4 bc
       0.026827866 -0.007589983 -0.012461743 -0.029845169
000020 f1 34 47 bd 86 18 a2 bc d5 17 dd bc dc ab 1a 3d
       -0.048634473 -0.019787084 -0.026988903 0.037761554
000030 62 2b 9c bc 64 f7 cd bc c2 e6 12 bc e6 43 34 3c
       -0.019063655 -0.02514238 -0.00896615 0.011002516
000040 a4 a3 f6 bc 21 81 e9 3c 7e 86 20 bd 17 74 a1 3c
       -0.030107327 0.028503956 -0.03919076 0.019708676
000050 f6 78 71 bc 0a ba 03 bb 14 34 bf bb e4 64 0f bc
       -0.014738312 -0.0020099902 -0.0058350656 -0.008752082
000060 9e 80 45 bc 5c 1e 3f 3c de 37 7b 3c 37 5b 13 3d
       -0.0120545905 0.011664953 0.015333144 0.03597566
000070 38 da 82 3c e6 31 90 3a ef 45 56 39 97 8b 48 bc
       0.015973195 0.0011001199 0.00020434683 -0.012240312
000080 25 6f d2 bc a9 09 20 3d 50 1c 0b 3d 93 1c c4 bc
       -0.025687763 0.039071713 0.033962548 -0.023939406
000090 e2 52 e2 bc cb 1a 85 3c 87 08 88 3c d5 fc 5d bb
       -0.027627412 0.016248127 0.016605629 -0.0033872623
0000a0 43 d2 b7 bb ed c4 04 bc 0e 5c 66 3c 84 8c 83 bc
       -0.005609782 -0.008103591 0.0140600335 -0.016058214
0000b0 1b e3 c0 3c ab ad 1b 39 6a 5a ac 3a e3 0d 08 3d
       0.023545792 0.00014846648 0.0013149504 0.03321637
0000c0 b9 e7 bc 3c b1 db ca 3c 38 9f 03 bd bf 1e 17 bb
       0.023059713 0.02476296 -0.032134265 -0.0023059098
0000d0 9c 60 1c 3b 14 cb 5e 3c ba c1 bd 3b 16 9e 8d 3c
       0.0023861295 0.013598222 0.0057909163 0.017287295
0000e0 e0 25 92 3c e1 41 a4 bc 2c 52 59 ba 5b 51 e5 bc
       0.017840326 -0.020050945 -0.00082901376 -0.027992895
0000f0 a9 5f 3f 3c f3 77 c8 bc fe d8 0f bd 8c 2b 02 bd
       0.011680522 -0.024471259 -0.03511905 -0.03177981
000100 df 8e ca bb 5f 49 21 bc 74 64 b4 3c 86 f3 e1 3c
       -0.0061815823 -0.009844153 0.022020556 0.027581941
000110 8d 1a 2f bd 8a a2 a8 3a 7b 70 37 bc 87 ac 06 bd
       -0.04274993 0.0012865823 -0.011196251 -0.03287938
000120 23 12 6d bd 55 b0 69 bd 19 aa a0 bc eb 8e 98 3c
       -0.057878625 -0.05705293 -0.019612359 0.018622836
000130 5c b5 c6 bc 81 f9 b7 bb b9 db a2 bc 26 4b 77 3a
       -0.0242564 -0.00561446 -0.019880163 0.00094335
000140 e4 5e 28 3c 99 ad 66 bc 15 4d 95 3c a4 8e ad 3c
       0.01027653 -0.014079475 0.018225232 0.02118618
000150 89 6a 09 bc 0d 2d 7d 3c 62 16 0a bb 63 27 2e bc
       -0.008387216 0.0154526355 -0.002107047 -0.010629508
000160 29 8c c7 ba 1c 29 6d 3c 30 0b 7e 3c 2b e7 ee bc
       -0.0015224266 0.014475133 0.015505597 -0.029162964
000170 1f e0 a5 3c 5e 44 1c 3c e8 60 1c 3d 22 3b c3 bc
       0.02024847 0.009537784 0.038178355 -0.023831908
000180 9c a6 97 bc 1f 47 71 bc 3f 32 17 3c 1b b0 d7 bb
       -0.018512063 -0.014726429 0.009228288 -0.0065822727
000190 f9 81 9b 3c 7d e8 a1 3c 84 bc 9d 3c 79 f1 01 3d
       0.018982874 0.01976418 0.01925493 0.031724427
0001a0 e6 1c 8f bc 1f 92 74 3b 18 14 13 3d 5b 86 b8 3c
       -0.017469835 0.003731854 0.035907835 0.022525003
0001b0 bc 4a a9 3b d8 26 4f 3d 80 38 b7 bc f1 89 6e bc
       0.0051663797 0.050574154 -0.022365808 -0.014559255
0001c0 95 29 4f 3c 08 b9 c5 3a b5 f7 5c 3d e8 7c c5 bc
       0.012644191 0.0015085051 0.05394717 -0.024107412
0001d0 53 d0 0f 3c cf be dc bb 07 cd 81 bc d2 ce 64 bc
       0.008777696 -0.0067366133 -0.015844835 -0.013965325
0001e0 fc df 59 3d 57 02 0e 3d 03 ea 1b 3d c3 b4 40 3d
       0.053192124 0.0346702 0.038064968 0.047047388
0001f0 1c 2f 3d 3b df 61 9a bc 58 37 5e 38 91 97 bd 3c
       0.002886719 -0.018845497 5.2980467e-05 0.023143562
000200 44 8b 44 3c b7 ed 57 3c 20 b2 e1 bc af db d3 3c
       0.011996094 0.013179234 -0.027550757 0.02586159
000210 57 ca cf 3a bc c0 b2 bc 80 02 d3 3b 1c 95 f0 3c
       0.0015853149 -0.021820419 0.006439507 0.029367976
000220 f9 89 a1 bb d7 fe 5f bc ec 6a cf 3b 9a 88 26 bd
       -0.0049297777 -0.013671598 0.0063298848 -0.040657617
000230 a0 3a 20 3d e3 db 60 3d 0b 90 b3 3c 6e ae 5e bd
       0.03911841 0.0548972 0.021919271 -0.054365568
000240 1f de a2 bc ed 6e ac 3c 0c 5b ad 3c 98 c5 0f 3d
       -0.019881306 0.021048987 0.021161579 0.03510055
000250 6c bb ff bc ba a3 df 3b 2f f4 c1 3c 76 66 b9 38
       -0.0312173 0.0068249376 0.023676006 8.840572e-05
000260 da d1 31 bd c9 f1 22 bd 80 ab 95 bc e1 43 d4 3b
       -0.04341302 -0.039781366 -0.018270254 0.0064778184
000270 7b 3d 92 3c 9f 6c 44 bd 16 f6 12 bd 37 ca 8b 3c
       0.017851582 -0.04795515 -0.035879217 0.017064197
000280 a3 d2 da 3b 05 7c d1 3c a3 91 3d bd 71 6b 6d 3b
       0.006677942 0.025571832 -0.046281468 0.003622737
000290 cd 46 28 3b 60 b9 16 b9 4b d0 91 3a c4 b8 46 bc
       0.0025676966 -0.00014374172 0.0011124698 -0.0121290125
0002a0 47 11 42 bd d5 67 d9 bc a6 a0 f0 3c 57 24 e7 bb
       -0.04737976 -0.026538769 0.029373478 -0.0070538926
0002b0 a9 38 31 bc 56 16 04 3c 96 77 8b ba 0e 47 86 3c
       -0.0108167315 0.008061966 -0.0010640498 0.016391303
0002c0 54 79 4b 3d b7 38 10 3d 82 44 95 bc 28 58 98 3c
       0.049676254 0.035210337 -0.018221144 0.018596724
0002d0 47 fc ce 3c bd 9b 3b 3d 04 f8 95 bc ab 7a 93 bc
       0.02526678 0.04580282 -0.01830674 -0.018002829
0002e0 ec 53 e3 3c 02 46 07 bd 32 52 2d 3d 4b 6e 91 bc
       0.027749978 -0.03302575 0.042314716 -0.017752787
0002f0 1b 82 17 bd fa c9 86 3c b3 5c b3 3c ed e0 82 3c
       -0.036989313 0.016453732 0.021894788 0.015976394
000300 58 a3 c6 bc 14 87 38 bd 13 b5 cd bc 47 f7 16 3c
       -0.02424781 -0.045050696 -0.025110757 0.009214229
000310 90 9c 0a b8 37 e3 82 3b ca f6 46 3c 50 e6 8e 3c
       -3.3047574e-05 0.0039943713 0.0121438 0.017443806
000320 05 7c a5 bb 1a 39 f1 3c 2d b6 0d 3d 94 be b9 3c
       -0.0050501847 0.029446173 0.034597564 0.022673883
000330 c3 9b fe bc f2 79 f6 3c 2f f7 bc bc a8 2a b9 3c
       -0.031080132 0.030087445 -0.023067085 0.022603348
000340 2e 5e 1e 38 d4 99 eb ba ec e1 e7 bb d8 5d 18 bd
       3.7757847e-05 -0.0017974922 -0.0070764925 -0.03719887
000350 9f c4 f5 3c 18 09 1d 3b 75 e8 eb bc fc 98 ce 3c
       0.030000983 0.002396172 -0.028797368 0.025219433
000360 6c 5e 14 3c d8 34 0f 3b 77 59 47 3d b0 ab 08 bd
       0.009055715 0.0021851566 0.048669305 -0.03336686
000370 e2 95 eb 3c 94 f8 77 bc c0 9a 21 3d 1d ab bc 3c
       0.028757993 -0.015134949 0.03945422 0.023030812
000380 fd ce 8a bc 0a 00 03 bd f1 55 b9 3a a2 28 c6 b8
       -0.016944403 -0.03198246 0.0014139992 -9.448944e-05
000390 88 07 9e 3b d5 24 3c 3c 1a 91 4a 3c 81 84 d8 3b
       0.004822675 0.011483391 0.0123636965 0.0066075926
0003a0 e2 ad 9d 3c e1 3d f8 bc ab c5 11 39 44 b6 67 bc
       0.019247953 -0.030302944 0.00013901915 -0.014142577
0003b0 f0 f2 e7 bc db 2b 87 3c b4 41 5c 38 be 92 d1 3b
       -0.028314084 0.016500404 5.251328e-05 0.006395667
0003c0 24 99 d0 bc 02 47 2a bd 41 cf 42 bd 1b 72 1e 3b
       -0.025463648 -0.041571625 -0.047560934 0.00241769
0003d0 09 c2 06 3d 9f ec 1a bb 9e a2 75 bc f8 dc 4c bd
       0.03289989 -0.0023639572 -0.014992384 -0.05001542
0003e0 2c 06 59 bd 8b 4c 7b bc 3e 60 69 3c 24 8a f3 bc
       -0.0529844 -0.0153380735 0.014244137 -0.029728957
0003f0 e5 87 17 3c 84 e5 b5 bc 85 d4 a9 bc 82 62 59 3c
       0.009248708 -0.022204168 -0.02073122 0.013268115

bias f4 [64]
000000 8f 5b 47 bd bd 25 2b bd 4e db 38 3c 3c 4c 20 bd
       -0.0486713 -0.041784037 0.011282755 -0.039135203
000010 c1 cd 62 bc 6e 32 61 3c f0 82 87 bc b0 0c 79 bc
       -0.013843001 0.0137449335 -0.016541928 -0.015200779
000020 3c 6c 35 bd 65 26 6e bc 8b 93 24 bd fd fe 11 bd
       -0.044292673 -0.014535521 -0.04017977 -0.035643566
000030 3b 49 76 bb bf 3e 92 3b bd e5 4a 3b bb 42 1b 3c
       -0.003758027 0.0044630463 0.0030959689 0.009476359
000040 ea 67 e4 bc 46 21 91 bc 1a 62 aa bc f4 3e 27 bd
       -0.027881581 -0.017716061 -0.020798732 -0.04083152
000050 af ca 0e bc 36 01 0c bb 10 8d 02 bc 6a cc 26 3c
       -0.008715316 -0.0021363026 -0.007968202 0.010180572
000060 b6 d9 f9 3c 3c b1 cd 3b a4 83 d7 bc be df 6b bc
       0.03049932 0.0062772315 -0.026307888 -0.014396606
000070 d3 1b 36 bd c5 02 68 bc a8 ff 52 bd 5b b6 39 bd
       -0.04446013 -0.014160817 -0.051513344 -0.045339923
000080 cf b5 73 3c bc 23 27 bb 62 18 5f bd 0d 67 09 bd
       0.0148748895 -0.0025503477 -0.054466613 -0.033545543
000090 2c e9 de 3b c9 92 a4 bc 08 dc 46 bc 02 23 2c bb
       0.0068026986 -0.020089524 -0.0121374205 -0.0026265983
0000a0 fc 4f 02 bd 85 51 12 bd d1 ac a3 bd f4 34 06 bc
       -0.03181456 -0.035722274 -0.079919465 -0.008191336
0000b0 89 d8 e4 3a 52 1d 09 3d de 07 60 3c 8d 47 78 bd
       0.0017459552 0.033475228 0.013673751 -0.06061511
0000c0 f2 99 c4 bc a6 4b ad 3c 47 cc ca bb f8 16 b4 bc
       -0.023999188 0.021154236 -0.0061889025 -0.021983609
0000d0 63 10 71 bd 03 80 fd 3b b0 e6 ea 3c 7d 6f 56 3c
       -0.05885352 0.0077362075 0.028674453 0.013088104
0000e0 77 dc 78 ba b3 f6 20 3d 26 e1 0b 3d a7 2f 45 bd
       -0.0009493301 0.03929777 0.034150265 -0.048141148
0000f0 38 13 85 3b fb 28 32 3c 9e 81 05 3d 80 70 c9 bb
       0.004061129 0.010874028 0.032594316 -0.0061474442

weight f4 [64, 1024]
000000 88 fe cc 3a 9a af 56 bc 3c af 04 3d b2 9d c8 bc
       0.0015639821 -0.01310339 0.03239368 -0.024489257
000010 4c 34 22 3c df 1e d5 b9 d9 a4 2e bb aa f0 8e 39
       0.009900164 -0.00040649527 -0.002664855 0.0002726366
000020 7b 4b cc 3c cc 5c b4 bb 27 a8 01 3c 31 fc 9b 39
       0.024938336 -0.0055042263 0.007913626 0.000297518
000030 a0 e8 d0 3c 40 69 0d bd 67 09 b0 bc ce ef ad bc
       0.02550155 -0.034524202 -0.021488858 -0.021232512
000040 6c 92 8a bc d3 4f 03 bd bb e0 e7 bc 51 8d a4 bc
       -0.016915523 -0.03205855 -0.028305402 -0.020086916
000050 b8 db 3d bd 98 2a 0c bd 5d c1 7d 3d 2b a7 cf bc
       -0.04635212 -0.034220308 0.061951984 -0.025348267
000060 00 77 8b 3c 1c 22 3b 3c 9e 31 fa bc 14 45 e2 b9
       0.017024517 0.0114217065 -0.030541237 -0.00043157546
000070 1e 18 d3 bc d8 2e 14 bd af 32 37 bd a2 30 85 bc
       -0.025768336 -0.036177486 -0.04472607 -0.016258541
000080 e8 0a df 3c 70 7e b9 bc 5c e7 c1 3c 22 73 c5 bc
       0.02722688 -0.022643298 0.023669891 -0.024102751
000090 5c a8 a7 bb 58 cc 99 3b d3 71 51 bb fb cc 8d 3c
       -0.0051165055 0.004693549 -0.0031958714 0.017309656
0000a0 b4 b4 f1 bc f4 22 ca 3c 5a 9b 0e 3d c3 ff 7b 3c
       -0.029505111 0.02467487 0.034816124 0.015380803
0000b0 fd 58 40 bd 96 1b 27 bd 19 84 d0 bb 68 8d 56 bb
       -0.046959866 -0.040797792 -0.0063634035 -0.0032738093
0000c0 30 49 fd bc 1c 30 4c 39 8d 69 aa 3c 31 4a ab bc
       -0.030918688 0.00019472878 0.020802284 -0.0209094
0000d0 2a 36 81 bc b0 f6 53 3b e7 58 01 bd 91 d9 72 3c
       -0.015772898 0.0032343082 -0.031578925 0.01482238
0000e0 93 9d af bc 13 d5 14 bd 61 fa 22 bd f5 f4 c3 3b
       -0.021437442 -0.036336016 -0.03978956 0.005980129
0000f0 12 1a f7 bc 96 a7 c6 bc 08 94 3d bd 47 85 be bc
       -0.030163798 -0.024249833 -0.04628375 -0.023256911
000100 dc cb 03 bc f5 9c ea bc 89 17 22 bd 89 c7 11 bd
       -0.008044209 -0.028639296 -0.039573226 -0.035590682
000110 e3 ed 77 ba 67 df 70 3c 8e a6 bc bc 64 9b a4 bc
       -0.000945775 0.014701701 -0.023028638 -0.020093627
000120 ea 73 d5 bc 5e 16 b7 3b a9 81 29 bc 05 02 6b bc
       -0.026056249 0.005587383 -0.010345855 -0.014343743
000130 65 53 9f 3c 65 12 b8 bc de 8e 53 bc 55 04 b7 bb
       0.019448945 -0.022469709 -0.01291248 -0.005585233
000140 16 4e f9 3c 8e 31 87 bc d4 71 09 3d ef e9 93 bc
       0.030432742 -0.016503122 0.03355582 -0.018055884
000150 59 6e 02 3d e1 c1 0a bc cf 7f 96 bc 71 99 32 bc
       0.031843517 -0.008469076 -0.01837149 -0.010900841
000160 ff 9d e1 bb 9a 30 34 bd fe c3 98 bc c7 5d 02 bd
       -0.0068852897 -0.043991663 -0.018648144 -0.031827714
000170 c7 37 03 bd f9 f3 07 3c 6a 34 ba bc 5b 79 36 bc
       -0.032035615 0.008297914 -0.022730071 -0.011137332
000180 77 2c 5d bc f2 49 06 bc 04 50 da 3a 5f ab e6 bc
       -0.013499371 -0.008196341 0.0016655927 -0.028157888
000190 ff a7 c5 3c 0e b6 2a bb 70 37 30 3c 5f 67 1b bc
       0.024127958 -0.0026048454 0.010755405 -0.009485095
0001a0 9c d2 18 3d d2 27 76 3b 53 d9 22 3d 13 d7 3b bc
       0.037310228 0.0037560356 0.039758038 -0.011464852
0001b0 2f 4c 01 3c be e8 1f bc 7f b8 45 bc 4a 5b e8 3c
       0.007891699 -0.00976008 -0.012067913 0.028363843
0001c0 2e 1d d2 3a f0 dd 06 bd 90 91 3c bc 50 fa 3c bd
       0.0016030425 -0.0329265 -0.011509314 -0.046137154
0001d0 2b c6 ce 3b f5 55 7d 3c 95 da 1e 3c 41 cc a0 bb
       0.0063102446 0.015462388 0.009695669 -0.0049071615
0001e0 02 24 0d 3c db fc 93 3c d7 68 ec bc 62 da 5a 3c
       0.008614542 0.018064907 -0.028858585 0.013357731
0001f0 ce 1f 18 3c 3b 70 82 3c a8 18 8c b9 d3 01 ea bb
       0.009284927 0.015922656 -0.0002672125 -0.0071413307
000200 29 0f f1 bb 61 a0 80 bc c7 19 5b 3c 17 c7 eb 3c
       -0.0073565436 -0.015701475 0.013372845 0.028781457
000210 61 1f 53 3c 31 cc a4 3c 37 6b 2e 3d a1 9f 3f bc
       0.012885899 0.020116897 0.042582717 -0.011695773
000220 91 f7 65 3d ba 93 31 b9 6f bc 9c 3c d7 48 e0 bc
       0.0561443 -0.00016935068 0.01913282 -0.027378483
000230 04 c0 10 3c e3 49 34 bd e0 99 38 bd 72 12 77 bc
       0.008834843 -0.044015776 -0.04506862 -0.015080081
000240 c0 81 1e 3d 80 2a ea 3c 20 d2 b5 3c 10 60 1f 3d
       0.038697958 0.028584719 0.022194922 0.03890997
000250 80 f5 99 3c d5 00 d6 3c d8 ae db 3c a9 28 23 3d
       0.018793821 0.026123444 0.02681677 0.0398337
000260 bc bc 0d bd 7a 34 e7 bc f6 89 1b bd 09 1c 40 bc
       -0.03460382 -0.028223265 -0.037973367 -0.011725434
000270 91 52 44 bc 9a 60 07 3c ff 6c 92 bb 47 de 8f bb
       -0.011982576 0.008262778 -0.0044685598 -0.004390511
000280 a8 8f 9c bc 5a c1 25 bc ef 32 a7 3b 63 51 e6 3b
       -0.01911147 -0.010116899 0.0051025073 0.007028745
000290 5e 7c 1a bc 75 ce 09 bd 68 a6 30 bd 0a 6d a7 bc
       -0.0094290655 -0.03364416 -0.043127447 -0.020437736
0002a0 32 04 99 3c 50 65 94 bc a5 5d df 3b 42 62 45 bc
       0.018678758 -0.018114716 0.006816583 -0.012047352
0002b0 51 49 d9 3c 6d cd 92 bc 40 6d 3c bb 40 5a 94 ba
       0.026524218 -0.01792022 -0.0028751642 -0.00113184
0002c0 4c e4 96 3b fb df 2f 3c e3 17 99 bc 3a c0 cc 3c
       0.004604852 0.010734553 -0.018688148 0.024994005
0002d0 75 7e e2 3c 11 f7 d4 3c e6 04 f7 bb d6 8f 15 3d
       0.02764819 0.025996717 -0.0075384257 0.036514126
0002e0 b7 3b 85 3b 2a 6e 88 3b a0 2f 06 bd 55 75 f2 bc
       0.0040659565 0.004163523 -0.032760262 -0.029596964
0002f0 98 14 a1 bc 72 e4 f8 bc 87 c2 60 bd f4 51 a3 3c
       -0.01966314 -0.030382369 -0.054873016 0.01993654
000300 67 5a ce 3b 6b 76 b1 bc ce 5c 4a 3c 13 06 aa bb
       0.006297398 -0.021662911 0.012351228 -0.0051887124
000310 d0 cc 26 bd 51 6b 41 3c 73 4e 4b 3c af ef 74 ba
       -0.04072267 0.011805371 0.0124088405 -0.0009343577
000320 6f 8c 98 bc 6b 7f 2e bd 0e 60 1a 3c ed 3e 94 bc
       -0.018621651 -0.042601984 0.009422315 -0.018096412
000330 83 50 64 bc 2f ce 86 bc 2a 70 23 bd 95 e1 fd bc
       -0.013935211 -0.016455738 -0.03990189 -0.030991355
000340 a6 bf d9 3b 63 9d 2a bd e3 02 0c 3c 1e 66 1a 3c
       0.0066451607 -0.041654002 0.00854561 0.009423761
000350 14 7c 0c bc 91 17 98 3c d1 89 3b 3d d1 86 e7 bb
       -0.008574504 0.018565925 0.04578573 -0.007065632
000360 8d ec 1e 3d 66 f7 e1 3c 6c 21 5c 3d 4e 52 08 3d
       0.03879981 0.02758379 0.05374281 0.033281617
000370 bd de f2 ba 46 3a a5 ba 71 e7 e5 3c d8 5f 6d bc
       -0.0018529516 -0.0012605868 0.028064461 -0.014488183
000380 62 a5 ef b9 86 27 08 bd d4 86 f9 ba 59 82 a1 bb
       -0.00045708852 -0.033240817 -0.0019037374 -0.0049288687
000390 13 72 e6 bc 49 e0 c2 bc 2d 51 17 3d 0b 57 7e bc
       -0.028130567 -0.023788588 0.03694265 -0.015523682
0003a0 81 84 34 3d c9 8a 93 bc 4a 76 c1 bc f4 db ee 3b
       0.044071678 -0.018010514 -0.023615975 0.007289404
0003b0 84 0e f3 3c d6 77 a7 3c 8e a0 52 3b 21 44 75 bc
       0.029670008 0.020442884 0.0032139155 -0.0149698565
0003c0 7a 10 1a bd 9c 40 9e bb a7 a6 da 3b 54 86 90 3c
       -0.03761337 -0.0048294794 0.0066726985 0.017642178
0003d0 88 c6 f3 3c dd b9 27 bd ac f7 69 3a ee 5e b2 3c
       0.029757753 -0.040948737 0.00089251506 0.021773782
0003e0 88 ce 1f 3d 30 b7 3d bd 48 d3 87 3c 99 cb bc bb
       0.039015323 -0.04631728 0.016580239 -0.0057615754
0003f0 38 36 2f bd a8 21 2b bd 36 f3 5d bd 1b 9b 9c bc
       -0.042776316 -0.041780144 -0.054187022 -0.019116929

bias f4 [64]
000000 03 a0 a0 3c 73 13 31 3c 4b 9e 1c 3c b2 23 a4 bb
       0.01960755 0.01080786 0.009559224 -0.005009138
000010 47 7d ae bb 7e 17 14 3d 8f 01 a8 bc 52 6e 95 3c
       -0.005324993 0.036155216 -0.020508556 0.018241081
000020 44 14 83 bc 37 7b 4b 3c 35 52 86 3b 07 8b 8b bc
       -0.016000874 0.012419513 0.0040991553 -0.017034067
000030 da 6b f9 bc 70 b4 19 bd d2 f5 33 3b 87 a5 1e 3c
       -0.030446935 -0.037525594 0.0027459753 0.0096830195
000040 6e 72 86 3c 78 8e 53 bc 8e b8 f7 3c 37 ae 47 bd
       0.016411986 -0.012912385 0.03023937 -0.04875013
000050 8d 7e ed bc 48 fb 98 3c 7c 63 c3 bc da 31 e0 bb
       -0.028991008 0.018674508 -0.023851149 -0.0068418803
000060 50 12 f2 bb 10 69 4f bc 3c ef 4c bd f5 09 4c bc
       -0.007387437 -0.012659326 -0.05003284 -0.012453546
000070 dc 5d 32 bc 3f 46 70 3c a9 b8 10 3d 70 0e 28 bd
       -0.010886636 0.0146651855 0.035332356 -0.041029394
000080 5a bf cf 3b c3 1d 21 3a af b9 38 bb fb d2 92 bc
       0.0063399496 0.00061460974 -0.0028186848 -0.017922869
000090 f5 d1 78 3c 64 bd 8f bc 7f 1c ca 3c 08 9f 1f bd
       0.015186776 -0.017546363 0.024671791 -0.038970023
0000a0 0a cb 20 bc d3 17 d6 3c 10 61 0b 3d 81 30 33 bc
       -0.009814033 0.026134407 0.034028113 -0.010936857
0000b0 c3 5a 78 bc 9b cb e2 bc f9 ce 3f bc e0 df 02 3d
       -0.015158358 -0.027684977 -0.011707061 0.031951785
0000c0 ca 5a 73 3c 9c ea 27 3d 93 d0 f1 39 86 2c 7c 3c
       0.014853189 0.040995225 0.00046122502 0.015391475
0000d0 df 14 70 3b 50 4f 44 3d 55 d6 f2 bb c8 e2 49 3c
       0.0036633534 0.0479272 -0.0074108043 0.012322135
0000e0 98 a6 0e 3d 36 20 9d 3a ae 41 5d bc 46 4e 45 bc
       0.034826845 0.0011987749 -0.013504429 -0.012042588
0000f0 cc 82 61 bc 2e 7f 93 bc 4a 51 83 3c dc 82 3f bb
       -0.013764095 -0.01800498 0.016029973 -0.0029222285

weight f4 [10, 64]
000000 c6 42 26 3e 56 80 f8 ba da db 59 be 9f 5f e2 3d
       0.1623641 -0.0018959146 -0.21275273 0.110533945
000010 0d 18 b2 3d 27 85 8e be 66 e9 f9 bd 71 1f 9a bd
       0.086959936 -0.27835962 -0.1220272 -0.07525528
000020 c3 2a 45 be c2 36 4f 3c f9 c0 00 3e 78 19 99 3d
       -0.19254594 0.012647333 0.12573613 0.07475561
000030 b2 d6 7c 3d 36 fb 41 be b1 26 90 3e 9e f8 aa bc
       0.061728187 -0.18943486 0.2815452 -0.020870503
000040 19 04 3f 3e 72 9f 4d bd 8b aa 55 be 96 a3 3c be
       0.18653907 -0.050200887 -0.20865838 -0.18421778
000050 f7 99 0d be 07 48 35 be 5e ec 17 bd cb 12 07 be
       -0.13828264 -0.17703258 -0.03709065 -0.13190763
000060 86 0f 2e 3e b6 e6 e8 bd a0 d5 7d be 34 8b 8f 3d
       0.16998109 -0.113721296 -0.24788523 0.07008973
000070 f6 b3 9d 3d 68 1c 92 3e e0 8b 09 bd de 0b 41 be
       0.077003404 0.28537297 -0.03358066 -0.18852183
000080 a3 bb 84 bd 09 3f 63 3c 99 14 00 be 2c 00 15 3e
       -0.06481101 0.013870009 -0.12507857 0.14550847
000090 59 e0 84 3e 00 4f b4 bd 71 e8 ac 3d 73 c5 07 be
       0.25952414 -0.088041306 0.08442772 -0.13258915
0000a0 e6 95 21 3e 19 79 a2 bd 65 8d 49 3e c9 f6 5f 3e
       0.15779838 -0.07933254 0.19682844 0.21871485
0000b0 38 eb 1e bd 91 b1 8d be b9 8b 1a bd 02 65 be bd
       -0.03879854 -0.27674535 -0.037730906 -0.092966095
0000c0 88 e9 b7 bd 83 87 61 3e 1b 03 2d 3e cf c1 9a bd
       -0.089800894 0.2202435 0.16895716 -0.07556497
0000d0 c9 35 09 3e 16 04 82 3e 44 f9 8e bc 15 a7 a9 3d
       0.13399424 0.25393742 -0.017452843 0.082838215
0000e0 bb fa ff 3d 5b a0 ca bd 70 b4 6c be 86 2c 38 bd
       0.12498995 -0.09893867 -0.23115706 -0.044964336
0000f0 d7 0f 87 be 74 28 a8 ba f7 4d 3a 3e 37 75 01 bd
       -0.26379272 -0.0012829439 0.18193804 -0.031605925
000100 28 6f 6a be 8d 8d 75 3e 4c 03 65 be b9 98 0c be
       -0.22893965 0.23979779 -0.22364539 -0.13730134
000110 35 07 38 3e af 3c 63 be fe cc 98 3e 2c d8 5a bd
       0.179715 -0.22191118 0.29843897 -0.053428814
000120 3f a2 b7 3d da 3f 99 bd fa 50 a2 3d 23 d7 0f be
       0.08966493 -0.07482882 0.07925601 -0.14046912
000130 d8 35 7d 3e 56 10 62 3e fa 84 aa 3d d8 e1 58 be
       0.24727571 0.22076544 0.083261445 -0.21179903
000140 0d 48 96 3d 3f 56 37 3e 52 5e 22 3e 15 f4 2d 3e
       0.07337961 0.17903994 0.15856293 0.16987641
000150 d1 28 7f bd ac 23 0f 3e 04 8e d0 3c 05 b6 56 bc
       -0.062294785 0.13978451 0.025458343 -0.01310492
000160 40 6e a5 bd 32 0f d6 bd eb 9a f8 bd b9 1e 03 3e
       -0.08077669 -0.10452117 -0.12138923 0.12804689
000170 67 00 b9 bb b0 ce 34 3e f7 89 12 be 7e cd 54 3d
       -0.0056458 0.1765697 -0.14310442 0.051953785
000180 3f d0 9f 3c cd e5 12 bd 06 dc 1b be 2d 11 96 be
       0.01950848 -0.035863686 -0.15220651 -0.2930998
000190 d1 a6 55 3e ef c6 cb bc df b0 c0 3d 80 c9 90 3e
       0.20864417 -0.024875132 0.094087355 0.28278732
0001a0 41 eb a0 3c dc ea 31 be 17 ca 99 be 1f bf c4 3d
       0.019643428 -0.17374748 -0.30036995 0.09606766
0001b0 f2 d0 a9 3d 9f a7 6d bd f5 a1 06 be 1d 43 6a 3e
       0.08291806 -0.058021184 -0.13147719 0.22877164
0001c0 a0 95 9f bd 6d 49 9c bd ea 64 4f 3e c2 05 2d 3e
       -0.077922106 -0.07631192 0.2025334 0.16896728
0001d0 4a 64 14 3d ee db 6f be 9d 65 80 3d 05 eb 1b be
       0.036228456 -0.2342374 0.06269381 -0.15226372
0001e0 28 9d 65 bd 24 2c 3a be bb 75 50 bd aa 89 e7 3d
       -0.05605808 -0.18180901 -0.050893527 0.11305554
0001f0 98 87 1c 3e cf 58 5e 3e dc e6 df bd 19 71 00 be
       0.152861 0.21713565 -0.10932705 -0.12543143
000200 3c 27 13 bd bf 79 c4 3d b7 09 70 3d 40 02 c7 39
       -0.03592609 0.09593534 0.058603015 0.00037957914
000210 9b 62 84 3d 0c e7 1e bd e1 84 38 be 29 a5 26 3c
       0.0646412 -0.038794562 -0.1801944 0.010171213
000220 1b d0 4d be d0 78 36 bd 61 c3 36 3e e0 4a e6 3d
       -0.20098917 -0.04454881 0.17847969 0.1124475
000230 2f 24 b7 3d fd 38 1b be 27 21 4a 3e 4f 66 c2 3d
       0.08942448 -0.15158458 0.19739209 0.0949217
000240 58 09 c8 3d 5b 75 b0 bc f2 82 7f bd a5 71 f1 bd
       0.09767407 -0.021540334 -0.06238074 -0.11789254
000250 b0 19 01 3e 54 ef 54 3e ff f0 90 be 2c 34 b2 3d
       0.12607455 0.20794421 -0.28308865 0.08701357
000260 0a c0 8f be 7b cf 83 3c 98 4d 50 3d dc 39 7b be
       -0.28076202 0.016090145 0.05085525 -0.2453379
000270 04 ac 41 3d c4 b0 88 be 2d df de bd 4d bf 15 3e
       0.047283188 -0.2669736 -0.10882411 0.14623757
000280 6a 24 47 be b2 61 15 be 99 da 9f 3d 92 09 1f 3d
       -0.19447485 -0.14588049 0.07805366 0.038827486
000290 4d e6 25 be 0e 65 18 3c 61 93 2e 3e 52 1e ce bd
       -0.16201134 0.009301437 0.17048408 -0.10064377
0002a0 be 39 61 be 18 5f 3f 3e 99 5d b7 3d b8 81 fe bc
       -0.21994683 0.18688619 0.08953399 -0.031067714
0002b0 d4 ce 95 3d aa 3c 42 be 92 bb c6 3d 55 84 21 bd
       0.0731484 -0.18968454 0.09703745 -0.039432842
0002c0 d3 fc 97 3d 0b 3d 5d be 80 e6 b2 3d e6 79 1a 3e
       0.07421269 -0.21605317 0.08735371 0.15085563
0002d0 1e 4b 6a 3e f5 65 8d 3e 6f cf 2a 3e d1 c7 87 3e
       0.22880217 0.2761685 0.16680692 0.26519635
0002e0 bc fb 32 3e 8c 76 02 3d 4e b0 84 be 4c 94 78 3d
       0.17478842 0.031851336 -0.2591576 0.060688302
0002f0 b6 18 fd bd 09 b8 fe 3d 70 d1 1f be 18 84 19 3e
       -0.12358229 0.12437446 -0.15607238 0.14991796
000300 aa c1 1b be 6a 18 c2 3d 8f e5 22 3d b5 7b 40 be
       -0.15210596 0.09477313 0.039769705 -0.1879719
000310 a1 46 91 be 26 1e 2c 3e 27 50 13 3d 29 d6 dd 3d
       -0.28374198 0.16808376 0.03596511 0.108318634
000320 98 09 29 3c bd de e0 3d 1a 17 88 3d ce 0b cd bd
       0.010317229 0.10979984 0.06645031 -0.10012017
000330 22 c8 92 bd 34 68 13 be ad f2 62 be 5f 91 39 3e
       -0.071670786 -0.14395219 -0.22162886 0.18121861
000340 74 15 8a be e5 b4 1c be dc c2 52 3d 21 3f f1 bd
       -0.26969492 -0.15303381 0.051455364 -0.11779619
000350 60 1e 14 3e 07 13 9d 3d 69 7b 32 be a2 c4 40 bd
       0.14464712 0.07669645 -0.1742989 -0.047062524
000360 82 2f 16 3e 05 9e 35 bd 4d a0 33 3e be 03 05 be
       0.1466656 -0.044340152 0.17541619 -0.12989709
000370 2d c1 97 3d 6f d5 d0 bc 7a d6 88 3e 5e 4b 0f be
       0.07409892 -0.025492398 0.26726133 -0.13993594
000380 b6 f6 05 3e 58 5b 01 3c 87 f6 de 3d 0a 6b 15 be
       0.13082394 0.007895313 0.10886865 -0.14591613
000390 45 7c df bc 50 4f 19 bd 9b e1 05 3d 70 e4 d7 3c
       -0.027280936 -0.037429154 0.032685857 0.026354045
0003a0 22 13 37 bd ce 50 04 3e 11 3c a9 bd 2d 79 2b be
       -0.04469598 0.1292145 -0.0826341 -0.16745444
0003b0 a5 d8 6e 3d 91 b0 09 be 52 74 38 3e 28 d3 8f 3d
       0.058312077 -0.13446261 0.18013123 0.07022697
0003c0 72 bc 6f bd ab 08 0e bd bd 77 2d be 00 a0 cd bc
       -0.058529325 -0.034676235 -0.16940208 -0.025100708
0003d0 8f e9 0d be 6a d1 9d bd fe 50 a9 bb 84 e1 a0 3d
       -0.13858627 -0.07705958 -0.0051671257 0.07855514
0003e0 65 92 9d 3d dd a9 8b bd 97 39 25 bd ee c8 cc bd
       0.07693938 -0.06819508 -0.040338125 -0.09999262
0003f0 6a 2b 08 bc 23 93 fa 3d ac 6b 32 3e 13 5e 48 3e
       -0.008311132 0.12235095 0.17423886 0.19567136

bias f4 [10]
000000 39 24 8b 3d b8 5d 90 bc 96 db fb bd 69 6c 8d 3d
       0.06794018 -0.017622814 -0.12297742 0.06905443
000010 d2 ab 87 3d 07 70 96 bc b9 8c cc 3d 22 35 6f 3c
       0.06624569 -0.018363966 0.09987778 0.01460007
000020 ab 8d 8e bd d5 fe 89 bd
       -0.06960615 -0.067380585
