NN/LeNet/best_model.pth (torch, 250805 bytes, 10 tensors)

c1.weight f4 [6, 1, 5, 5]
000000 a0 7f 18 bd 47 55 17 3f 74 7e a4 3e 74 83 23 3e
       -0.037231088 0.591145 0.32127726 0.15968114
000010 69 fd b5 be 0c 81 75 bc ff 7c 69 3f af 8f 99 3f
       -0.355449 -0.01498438 0.91206354 1.1996974
000020 e8 6f 01 3f ce a7 d8 be f3 e9 fe be 0a ba f1 3e
       0.5056138 -0.42315525 -0.49787864 0.4721225
000030 47 14 6e 3f 4c 54 49 3e da f4 99 be f9 b1 f9 be
       0.9299969 0.19661063 -0.3006962 -0.48768595
000040 94 04 b6 3e e7 f8 fd 3e fe b2 10 be c8 60 a3 be
       0.35550368 0.4960396 -0.1413078 -0.31909776
000050 e6 66 79 bf 7b b1 14 bc 30 ab 87 3d 46 15 b9 be
       -0.97422636 -0.009075518 0.06624448 -0.36149043
000060 d8 4f 09 bf 60 65 7c 3f 0d 10 df 3f b3 50 eb 3f
       -0.53637457 0.98592186 1.7426773 1.8384002
000070 71 f4 9e 3f a8 da 25 3e 66 d4 cd 3f b5 48 67 40
       1.2418348 0.16196692 1.6080444 3.6138127
000080 ce 23 78 40 3c f6 4a 40 68 b4 c6 3e dc 22 9f 3e
       3.8771853 3.171279 0.38809514 0.31081283
000090 b3 90 21 40 bb 78 82 40 9c 92 22 40 4e 02 21 3e
       2.5244567 4.0772376 2.5401983 0.15723535
0000a0 ad 70 85 be d2 db 9f 3d 51 ff 03 3f 8d 72 23 3f
       -0.26062527 0.07805599 0.51561457 0.63846666
0000b0 eb 15 9b be b5 07 5e bf 93 63 13 bf 1e 22 11 bf
       -0.3029016 -0.8673051 -0.57573813 -0.56692684
0000c0 05 4d 98 b9 08 14 3d be 42 d0 68 bf 9c d5 36 3e
       -0.00029049083 -0.18464673 -0.90942776 0.17854923
0000d0 3d 30 aa 3c bb f0 26 bf 6c 4f 27 bf 75 06 6a bf
       0.020774955 -0.65211076 -0.65355563 -0.914161
0000e0 2d 4f 44 3f c1 ea 01 3f 79 69 46 3e 30 04 00 bf
       0.7668331 0.5074883 0.19376172 -0.5000639
0000f0 8f 59 58 bf ee 3b a9 3f d4 1c 94 3f 3f 2e 04 3f
       -0.84511656 1.3221414 1.1571298 0.51633066
000100 8b 10 87 be bb 0c 4e bf b9 5b 8f 3f f8 b7 95 3f
       -0.2637981 -0.80488175 1.1199867 1.1696768
000110 9f b7 59 3f a9 4f a9 be 50 3d 6b bf ca 98 6e 3f
       0.8504581 -0.33068588 -0.9189043 0.9320189
000120 0a 81 8f 3f 29 54 b0 3e 7c df 24 bf 06 63 24 3f
       1.1211255 0.3443921 -0.6440351 0.642136
000130 51 1e cd 3e a3 bb fd 3e 24 db f8 3e 0f ac 07 3f
       0.40062192 0.49557218 0.4860469 0.52996916
000140 10 0d 04 3e e0 08 6c be ae a2 85 be 10 0b 3e be
       0.12895608 -0.2305026 -0.26100677 -0.18558908
000150 62 62 90 3e 0f 6e 70 be a7 dc 8a bf c9 37 a3 bf
       0.2820006 -0.23479484 -1.0848588 -1.2751399
000160 7b fe 56 bf 20 47 2d be f0 fb e1 3c d7 6d 41 bf
       -0.83982056 -0.16921663 0.027585953 -0.7555823
000170 a6 05 87 bf 33 65 aa be bd 5f 36 bd 87 25 58 3e
       -1.0548599 -0.33280334 -0.044524897 0.21108066
000180 8c ba cf be fc 16 95 be 28 29 24 be 64 71 40 3e
       -0.4057201 -0.29119098 -0.16031325 0.18793255
000190 a9 81 32 be 0d 37 69 3f 31 c9 b5 3e 84 a0 f9 be
       -0.17432274 0.91099626 0.3550506 -0.48755276
0001a0 89 bf 87 bf cf 4b d9 3d f3 b8 bd 3f 72 b9 07 3f
       -1.0605327 0.106101625 1.4822067 0.5301734
0001b0 07 ce 17 bf f7 a3 8f bf dc 34 3e 3d f3 9c b5 3f
       -0.5929875 -1.1221913 0.04643713 1.4188522
0001c0 04 b7 4a 3f 32 ee 6a be 28 1b 9c bf b8 90 24 3d
       0.7918551 -0.22942427 -1.2195787 0.040177077
0001d0 c9 48 9f 3f 1e e0 5f 3f 3f 09 96 be 3c 76 4f bf
       1.2444087 0.8745135 -0.2930393 -0.81039786
0001e0 91 28 8f be b7 98 2a 3f 89 66 e8 3e f2 f5 ef be
       -0.27960637 0.66639274 0.45390728 -0.4686733
0001f0 ff 70 31 bf be 5c 55 3f b0 44 cb 3f 47 14 fb 3f
       -0.69313043 0.8334464 1.5880337 1.9615563
000200 24 fb a2 3f 4c 0e 88 3e f9 ef b9 3e 82 b9 fb 3f
       1.2732892 0.26573408 0.36315897 1.9665987
000210 9e 86 82 40 35 9c 40 40 2d 68 00 3f 28 26 37 be
       4.078933 3.0095341 0.5015896 -0.17885649
000220 bd 7c ae 3e aa 33 c8 3f d2 56 b9 3f 09 c3 44 3e
       0.34079543 1.5640767 1.447962 0.19215025
000230 58 60 ef be 4d 4f 8b be 65 1e 46 bd 75 2b 98 bd
       -0.46753192 -0.2720894 -0.04836883 -0.07430164
000240 9d 7b 15 be 00 1f ef be 06 77 90 be 69 52 b0 be
       -0.14597936 -0.4670334 -0.28215808 -0.34437874
000250 f9 c5 11 be 66 42 ab be
       -0.14235677 -0.33449095

c1.bias f4 [6]
000000 1d cd da be d8 32 2f bf aa 29 de be e0 64 32 3e
       -0.42734614 -0.68436956 -0.43391162 0.17421293
000010 4d b5 28 bf 18 db aa be
       -0.65901643 -0.3337028

c3.weight f4 [16, 6, 5, 5]
000000 e1 28 ea 3d 39 1e ad be 36 6c 2a bf 47 cf 9d be
       0.11433578 -0.3381212 -0.66571367 -0.30822203
000010 17 1c 70 3e 8d f5 72 bd 50 65 62 3c ee a8 a4 be
       0.23448215 -0.059316207 0.0138181 -0.32160133
000020 fd 15 87 be 05 c1 2e 3e 19 33 e7 bd c0 e2 7c 3e
       -0.26383963 0.17065819 -0.11289043 0.24695873
000030 27 1b 9b 3d 3e 58 8a be 6e 5e 92 3d 43 55 20 bd
       0.07573538 -0.27020448 0.07146917 -0.039143812
000040 45 37 4c 3e 35 94 5e 3e bb ec a8 be 75 a3 7e 3d
       0.19942959 0.21736224 -0.3299311 0.062167604
000050 9d 42 49 3d 0d 46 80 3e ce f7 5e 3e 0f 30 d2 be
       0.049135793 0.25053445 0.21774217 -0.4105229
000060 55 e0 47 bd 83 0c 7c 3e 25 28 06 be 24 cf 24 bf
       -0.048797924 0.24614148 -0.13101251 -0.6437857
000070 00 ee b3 be ec de 8d 3e 5e 4d 15 3e 1b 64 9c 3e
       -0.35142517 0.27709138 0.14580294 0.30545124
000080 37 0b 56 be 3b 79 9e be a0 a0 91 3e ae ba ab 3e
       -0.20902716 -0.30951867 0.2844286 0.33540863
000090 95 83 bd 3e d9 90 85 bc 30 dc 86 be 7b 80 36 3e
       0.37014452 -0.01630442 -0.26339865 0.17822449
0000a0 c3 52 93 3e 73 82 bd 3e b4 51 1b 3e 71 c8 85 bd
       0.2877408 0.37013587 0.15167886 -0.06532372
0000b0 6f 05 4c 3e d1 8d 12 3e 81 da 3d 3e 9c 54 10 be
       0.19923948 0.14311911 0.18540384 -0.14094776
0000c0 5f 34 7d be 11 e1 54 3d 77 d7 82 bd 3f 65 d4 bd
       -0.24727009 0.051972453 -0.06388753 -0.10370874
0000d0 f1 f3 cc be b0 a3 46 be d9 e4 ad 3d 78 c5 cf bd
       -0.40029863 -0.1939838 0.08490915 -0.10145086
0000e0 27 13 a9 3e 34 22 aa bd 9c ab 96 be 3a 4d cf bc
       0.33022425 -0.08307305 -0.29427803 -0.02530538
0000f0 e1 d1 42 be 94 f6 61 3e 18 cc c5 3b 20 6f 97 be
       -0.19025375 0.22066718 0.0060362928 -0.2957697
000100 91 3c aa 3d ac cd 16 be a6 68 74 3e 0a 69 27 3e
       0.083123334 -0.14726895 0.23868045 0.16348663
000110 3f ac d7 be f3 a2 15 bd 13 f3 d7 bd d4 c1 53 3e
       -0.421236 -0.036532354 -0.105444096 0.20679408
000120 0e f8 36 bc f6 e7 61 bf 31 bb 12 be cf 4e 11 3d
       -0.011167539 -0.8824457 -0.1432922 0.03547555
000130 75 ea 4c 3e 09 05 c6 3e ab 92 2d 3e 77 5d d5 be
       0.20011313 0.38675717 0.1695048 -0.4167287
000140 ac 91 07 3d 96 0f 04 bf fb d0 30 be 35 98 a6 3d
       0.033097908 -0.5158628 -0.1726722 0.081345
000150 de ff 1b be 72 e2 2b bd 25 19 fa be 4e 8d 83 be
       -0.15234324 -0.041964002 -0.4884731 -0.25693744
000160 7a b4 2f 3e 62 65 9f be 50 ce 19 3c 0a f6 e6 be
       0.1715869 -0.31132036 0.009387568 -0.45109588
000170 41 cb f6 be c8 bc 15 3d 8a 75 b6 be b1 37 39 be
       -0.48201945 0.03655699 -0.3563655 -0.18087651
000180 e2 93 fb be 34 12 ee bd 93 71 1b 3f e9 34 0e 3e
       -0.49136263 -0.11624566 0.60720176 0.13887371
000190 29 a9 e6 3d b9 85 3b be 0d 77 67 bf d0 93 6d bf
       0.112627335 -0.1831273 -0.9041603 -0.9280367
0001a0 9e de df 3e 34 17 ca bd 04 1f 9c 3d c8 fd 70 be
       0.4372453 -0.09867707 0.07623103 -0.2353431
0001b0 6b d1 2f bf fa 5d 95 3e 57 46 fb bd 3b d7 16 3e
       -0.6867892 0.2917326 -0.12269276 0.14730541
0001c0 dc f9 b8 3e 5a 7a 02 bf f1 03 25 3e 85 75 86 be
       0.36128128 -0.50967944 0.16114785 -0.26261535
0001d0 18 07 81 3e f8 09 e4 3e c3 a4 0b bf 9e 20 e6 3d
       0.25200725 0.44538856 -0.5454828 0.1123669
0001e0 71 0d 4f be ad 0f 97 3e 41 1e 12 3f 9b 99 38 bf
       -0.20219971 0.29504147 0.57077414 -0.72109383
0001f0 90 b5 4c be cf 95 eb 3d 5f 81 f2 be 7e f4 4a bf
       -0.19991136 0.11503183 -0.47364327 -0.79279315
000200 c7 08 51 be 4a c2 b4 3e 78 00 b1 3d 0a ed 18 bd
       -0.20413505 0.3530448 0.086426675 -0.037335433
000210 7a 88 07 bf c1 d7 21 be 75 82 86 3e b5 77 af 3e
       -0.5294262 -0.1580496 0.26271406 0.34271017
000220 ed f2 03 3f 46 66 01 be b4 db 5a be ff e1 99 3e
       0.5154255 -0.1263667 -0.21372873 0.30055234
000230 85 61 53 3e 74 d0 e4 3e b6 5c 8d bd 61 98 ae bd
       0.2064267 0.44690287 -0.06902449 -0.08525158
000240 0a 44 40 3e 21 af aa 3d a3 57 77 3e 2c 41 37 be
       0.18775955 0.083341844 0.24154525 -0.17895955
000250 e7 72 69 be 6b 3f 79 3d 5d 26 9c 3e 2b 38 84 3c
       -0.22797738 0.060851496 0.3049802 0.016140064
000260 18 2b a5 3d be c6 23 3e e3 ff 0d 3e e1 80 82 bd
       0.0806486 0.15993783 0.13867144 -0.06372238
000270 07 4a ea bb a6 52 88 bd 05 09 18 be 0f 25 18 bd
       -0.007149938 -0.06656389 -0.1484719 -0.037144717
000280 28 91 51 be 5e cb 87 3d 92 4d 0d be b0 01 a9 be
       -0.20465529 0.06630586 -0.13799122 -0.330091
000290 12 29 44 be 29 71 cd bd e4 64 7c 3e 0b 20 77 3e
       -0.19156292 -0.10031349 0.24647862 0.24133317
0002a0 9f 44 36 be ef 7b 96 be 32 cd 7f bd 06 87 8a 3e
       -0.17799614 -0.2939143 -0.06245155 0.2705614
0002b0 69 00 84 3e 01 f3 eb bb e1 fc 97 be b0 bd 88 3e
       0.25781563 -0.007200599 -0.2968512 0.2670722
0002c0 74 13 2a be 2f b0 51 be a4 99 ca bd 48 4d 0f 3e
       -0.16608983 -0.20477365 -0.09892586 0.13994324
0002d0 c3 53 80 bd d8 76 46 be 28 f5 00 bf 6a a3 ef be
       -0.06265976 -0.19381273 -0.5037408 -0.46804363
0002e0 d3 6a 92 be a4 90 fb bb 74 7e 9a 3c 12 e0 93 be
       -0.28597125 -0.0076771546 0.018859126 -0.2888189
0002f0 02 f0 1c bf 8d f3 c6 be 58 5e ae 3d e8 8b 3d 3e
       -0.6130372 -0.3885769 0.085140884 0.18510401
000300 15 8e 40 3e a8 bc 8d be 4e 13 d8 be b3 8b a9 3e
       0.188042 -0.27682996 -0.42202228 0.33114395
000310 3a e4 97 3e b6 d1 8a 3e f2 2c 08 be ae be cf be
       0.2966631 0.27113122 -0.13298395 -0.40575165
000320 75 e3 29 be 9b 31 21 be 7e a4 b0 bd 14 7a 33 3b
       -0.16590674 -0.15741579 -0.086251244 0.0027385997
000330 d4 11 45 be 3e 76 a5 be b2 8c 26 be 76 1b c3 bd
       -0.19245082 -0.32316774 -0.16264609 -0.09526722
000340 5c fe 6b be 6c fd 47 be 4a 7c 38 be 7b 80 51 3e
       -0.23046249 -0.19530267 -0.18016163 0.20459168
000350 6e b3 d4 3d 28 d1 92 be cc 80 c0 be 9e 21 de be
       0.10385786 -0.286752 -0.37598264 -0.43385023
000360 08 42 39 3e 77 b3 92 3e b7 84 73 be 24 61 98 be
       0.18091595 0.28652546 -0.23781095 -0.29761612
000370 ff 6f cd be 13 c6 1c 3e 7e 00 48 3e 95 db b9 bd
       -0.4012451 0.15309934 0.19531438 -0.09075085
000380 eb a3 0e be 8d af 45 3d 78 c2 49 3e 05 18 86 3e
       -0.13929717 0.04826312 0.1970309 0.261902
000390 47 04 7f 3e d0 f4 48 3e e8 f7 b4 3e 27 b1 84 3e
       0.24903975 0.19624639 0.35345387 0.25916407
0003a0 ff c8 b0 3e e9 de f1 3e 03 e4 b4 3e e7 1e d7 3d
       0.34528348 0.4724038 0.3533021 0.10503941
0003b0 3f e1 b7 bd a7 35 b2 3c 94 e2 b2 3e 3f b2 b6 3e
       -0.08978509 0.021754099 0.3493849 0.35682866
0003c0 86 52 64 3e 91 93 3a be 50 23 73 be 94 c9 4d 3e
       0.22297105 -0.18220355 -0.2374394 0.20096427
0003d0 0a 72 c8 3e 0d 72 9c 3e 41 da 4b 3d d7 22 8b bc
       0.39149505 0.30555764 0.04976869 -0.016984386
0003e0 97 34 41 3e db 8e ae 3e 73 21 40 3e ca 88 44 bb
       0.18867718 0.34093365 0.1876276 -0.002998876
0003f0 da fe 90 be 26 9b 5e 3d b4 55 15 3e 59 d4 49 be
       -0.28319436 0.05434718 0.14583474 -0.1970991

c3.bias f4 [16]
000000 31 57 75 3c e0 58 f4 3d 69 4f 8f 3d 01 0d 23 3c
       0.014974401 0.11931014 0.06997568 0.009951831
000010 d8 fa 6d bd 7e b4 14 bd a4 fa 60 3d 6c a7 7d bd
       -0.05810055 -0.036304943 0.05492653 -0.061927244
000020 f6 e3 c6 3d 8a 5f db bd 38 0b 9f bd 95 66 99 bb
       0.09711449 -0.10711582 -0.07765812 -0.004681418
000030 0c 91 15 be 4b 59 e5 bc 8d a7 c1 3d b2 49 e1 bc
       -0.14606112 -0.02799668 0.09455786 -0.027500961

f5.weight f4 [120, 400]
000000 81 f0 85 3e 3b c9 34 be be 8a 80 bd 52 e1 6b 3d
       0.26160052 -0.17654888 -0.06276463 0.05758793
000010 7f 0c 65 3d 93 01 d0 bd 2b c9 9a 3d 2c 5d bf bd
       0.05592012 -0.1015655 0.07557901 -0.09343943
000020 89 78 d6 bd 33 6f 0e bd 41 21 02 3e c2 f3 c7 3d
       -0.10472209 -0.034774017 0.12707998 0.0976329
000030 bf 25 a2 bd 91 8b b3 bd aa 05 8e 39 c3 0e 42 3e
       -0.07917356 -0.087668546 0.0002708857 0.18950944
000040 62 fb e1 bc 05 97 13 bd 71 e5 7a 3d af 40 f1 bb
       -0.027585689 -0.036032695 0.06125397 -0.007362447
000050 a3 57 f0 3d 7d 27 1f 3e aa c4 67 3e 78 ad 13 bd
       0.117354654 0.15542407 0.22633615 -0.036054105
000060 1c ad cb bc 39 be 76 bd b0 4e 7f bd 99 c1 45 be
       -0.024862818 -0.060240004 -0.0623309 -0.19312133
000070 a1 3f a8 bc e6 64 24 3e 21 f2 f6 bc 1e ba ad bd
       -0.020538153 0.16054115 -0.030144753 -0.08482765
000080 21 2b ef bd 06 10 ce 3c 40 b4 21 bc ff db 35 3e
       -0.11678148 0.025154125 -0.009869635 0.17759703
000090 7a 6c 6d be f2 e0 0b be 33 ce 26 be f6 0f a9 3d
       -0.23185912 -0.13660029 -0.16289596 0.082549974
0000a0 5f e8 33 3e 7d 29 9f be a0 81 1b bd 54 b2 13 bd
       0.17569111 -0.3108634 -0.037965417 -0.03605874
0000b0 74 0e 9a bd c0 c9 87 3e 60 63 a2 bd aa 5c 38 3d
       -0.07522288 0.2652111 -0.079291105 0.045010246
0000c0 59 3d 0e 3e 2d 40 9c be ff 80 4d 3e da d6 59 3d
       0.1389059 -0.30517712 0.2006874 0.053183414
0000d0 ec 87 fc bd 11 32 61 be 1d 05 e4 3d 89 2b c0 bc
       -0.123306125 -0.21991755 0.11133788 -0.02345826
0000e0 bc 8d 24 3e d0 a2 2b 3d 4e 27 67 3c 46 aa 09 bc
       0.16069692 0.041903317 0.014108492 -0.008402413
0000f0 b0 e5 76 be fb 11 05 bc 1a c2 51 3d 54 b1 0b be
       -0.24111056 -0.008121963 0.0512105 -0.13641864
000100 62 16 9f bd be bb 4d be ef ec a5 bd 81 68 01 be
       -0.07767941 -0.20091149 -0.08101832 -0.12637521
000110 04 d4 9e 3d 95 0f 73 3c 40 1c 0e be ca 7f 90 3e
       0.077552825 0.014835258 -0.13877964 0.28222495
000120 fd a2 d0 be 70 d0 74 3d 0a 38 86 3d 5f ff fa 3c
       -0.4074935 0.059769094 0.06553657 0.030639349
000130 1a 2a f9 3c 3e 74 2f be f9 c4 3b bc 72 0f 1b 3e
       0.030415583 -0.17134187 -0.011460536 0.1514261
000140 5d c9 19 be e3 a0 e0 3c 9e a6 5b 3b 3e 7a 8c 3d
       -0.1501822 0.027420467 0.003351606 0.06859253
000150 1c f9 29 bd 81 80 ef 3d ee 4f 54 3c 18 8c 8a bd
       -0.041497335 0.11694432 0.01295851 -0.06765002
000160 46 4c 43 3b f1 53 0d be 48 c5 88 3c 2f 09 de 3d
       0.0029800101 -0.13801552 0.016695634 0.108415954
000170 d9 90 84 bd 3e 4c 27 be 35 5f b7 bd 14 a9 bc 3d
       -0.0647294 -0.16337678 -0.08953706 0.092119366
000180 d9 d7 14 be e6 8f 92 3d ec 89 3f 3d 06 d4 7e 3b
       -0.14535464 0.07156353 0.046762392 0.00388837
000190 ca cb 44 3d a6 71 45 3d 77 1d 12 bd 40 1d 2b bc
       0.04804591 0.048204087 -0.03567263 -0.010443985
0001a0 bf 8b b1 bd a4 a9 58 3c 7c da 2e 3d 1b c7 20 bd
       -0.086692326 0.013224039 0.04268883 -0.03925238
0001b0 94 d2 06 3c 3e 24 06 3d 0f 5e a8 b9 1e d7 fc bb
       0.008228917 0.032749407 -0.00032113536 -0.0077160737
0001c0 f8 71 8b bc 0a 21 de 3c f1 30 d5 3d 8a 27 02 bd
       -0.017022118 0.027115364 0.104097255 -0.03177599
0001d0 91 78 4e 3d 90 af 6d 3d 4b 06 65 3c c7 99 43 bc
       0.05040795 0.058028758 0.013978551 -0.011938519
0001e0 c2 9f 03 3e 01 db c2 3c 90 7e 98 3c c8 b8 e7 3c
       0.12853912 0.02378607 0.018615037 0.028286353
0001f0 0d b9 c8 3d c3 53 25 bd 14 4f d4 bd 67 e0 62 bd
       0.09800921 -0.040363085 -0.103666455 -0.055389788
000200 13 23 a3 3d 6b 3a 6f 3d e4 a7 be bc f9 2a fd bc
       0.07965674 0.05840532 -0.023273416 -0.03090428
000210 c8 11 55 bc 64 e5 1b 3d ba 64 9f 3d e7 c7 a3 3d
       -0.013004728 0.03806056 0.07782884 0.07997113
000220 eb 97 9f 3c 53 b7 7b bd 94 c3 ac 3a 57 b2 4b 3c
       0.01948162 -0.06145413 0.0013180845 0.012432656
000230 f1 c4 87 3d 06 7f 17 be 2b 2b de 3c 4c 69 9f bd
       0.066293605 -0.1479455 0.027120193 -0.07783756
000240 a6 36 11 bd 66 e4 04 bd 21 d4 0b 3e f5 02 51 3e
       -0.035452507 -0.03244438 0.1365514 0.20411284
000250 70 51 2d bc 74 e1 49 be 4d 63 57 3d 24 a7 aa 3c
       -0.010578498 -0.1971491 0.052584935 0.020831652
000260 bc 7d 7b bd 8e 7f f3 bc c3 ef e2 bd 8d 7e 99 3c
       -0.061399207 -0.029723909 -0.11080887 0.018737102
000270 50 2f b9 3d 81 13 72 3d 22 bf 04 be ba 55 e6 3c
       0.09042227 0.05910063 -0.12963536 0.02811705
000280 ba 14 d5 bd 74 50 87 bd 58 47 83 bc 65 5c 8b 3d
       -0.10404344 -0.06607142 -0.01602523 0.06804732
000290 02 66 20 3c 98 90 90 39 64 2f 02 3d 63 cc 92 be
       0.009789946 0.0002757355 0.031783476 -0.2867156
0002a0 f5 9e 23 3d a7 2e 69 3c 66 0a ac 3d ea 80 de 3d
       0.039946515 0.014232314 0.08400421 0.10864432
0002b0 e4 27 1d be e6 ca 1f bc 4b ff a7 3e d9 57 16 3c
       -0.15347248 -0.009752965 0.3281196 0.009176218
0002c0 55 ed b0 bd 16 f6 6f be d3 7a ae bb 82 ff 96 bd
       -0.086390175 -0.23433718 -0.0053247004 -0.07372953
0002d0 97 a0 25 3d 44 2a e0 bc 5b fc 0b be 85 8d 85 3c
       0.040436354 -0.027363904 -0.13670485 0.016302833
0002e0 21 bc 47 bd 6e d3 e9 3b 1a 2a 96 3c ea e1 a5 3c
       -0.048763398 0.0071358 0.018330622 0.020249326
0002f0 75 e1 12 3d 0c 4a a0 bd 8c 2d 17 3e f1 cc c5 bd
       0.035859544 -0.07826623 0.14763469 -0.0965823
000300 9f 6b 99 bd fd 24 ed bb f4 c1 45 3d 67 1e ef 3b
       -0.0749123 -0.0072370754 0.04828067 0.0072973254
000310 23 f1 94 bc 21 0e 32 3e 6d 4f 15 3d 38 d9 d9 bd
       -0.01818139 0.17388202 0.0364527 -0.10637134
000320 37 01 89 3d 4c cf ba bd 32 94 57 be 8a ef ce bd
       0.06689685 -0.0912157 -0.21052626 -0.10104282
000330 d4 d7 bf 3d a6 e1 8b bc e3 e9 78 3c f9 e0 14 be
       0.09367338 -0.017075371 0.015192482 -0.14538945
000340 bd 72 45 bc a1 80 be 3b 73 99 ab 3d 4c 10 9b bd
       -0.0120512815 0.0058136736 0.083788775 -0.07571468
000350 65 2a 9a be ca e9 f7 bd 60 b0 89 bc bc af 28 bd
       -0.3011047 -0.121051386 -0.016807735 -0.04118322
000360 5a 21 b2 3c 2a bf 33 bd 30 44 a2 bb 36 90 92 bd
       0.021744419 -0.04388348 -0.0049519762 -0.07156412
000370 00 bb 40 3a 78 93 05 bb bb 10 25 bd 3f 27 21 be
       0.0007352084 -0.0020382088 -0.04029916 -0.15737627
000380 1d 8c 8c 3d bf 4e c7 bc 72 f2 c6 bd 69 ab 6e bd
       0.06862662 -0.024329541 -0.097142115 -0.05826894
000390 c9 40 a8 bd 6f 5d 6d 3d 83 27 81 3d b9 58 31 bc
       -0.08215482 0.057950433 0.063063644 -0.010824376
0003a0 3a d8 97 bd bf 3f 9e bd 10 cc b6 3b 53 e1 97 bc
       -0.07414289 -0.07727002 0.0055785254 -0.01854006
0003b0 31 41 a9 3d df b7 10 bd a1 e3 6e bd 83 23 66 bc
       0.082643874 -0.035331603 -0.058322553 -0.014046553
0003c0 fd bd a0 bd db 5a 5e 3c 7c 16 26 bd 57 91 91 bd
       -0.078487374 0.013571466 -0.040548787 -0.071077995
0003d0 61 26 f5 3c fb 08 45 3d e1 8e 07 bd 85 14 c6 bc
       0.029925527 0.048104268 -0.033095244 -0.024179706
0003e0 42 4d d0 ba 65 c2 f7 bc 6f a0 45 bd 3e 04 1f bd
       -0.0015892165 -0.030244062 -0.048248705 -0.038822405
0003f0 0f 50 66 3c 55 7d e8 3b b0 4f c0 3d d4 64 dc bd
       0.014057173 0.007095019 0.09390199 -0.10761419

f5.bias f4 [120]
000000 42 64 0c bd a3 36 37 3e fb dd 68 bd a9 42 89 3c
       -0.0342753 0.17891936 -0.056852322 0.016755419
000010 21 48 b8 bd 47 0f 40 bd 96 2c 96 bd c9 27 62 3d
       -0.089981325 -0.04688957 -0.07332723 0.055213723
000020 da f4 b0 3d d5 2c 90 bd d2 dc 09 bc aa 7f 39 bd
       0.08640452 -0.07039801 -0.008414464 -0.045287766
000030 9a 4e 25 bd a1 94 48 3e c1 47 00 bd 65 b6 00 bd
       -0.040358163 0.19587947 -0.03131843 -0.031423945
000040 53 a1 e9 3d f8 2e d9 3d 54 81 b4 bd 92 8f 4b bd
       0.11407723 0.10604662 -0.0881373 -0.049697466
000050 7f 80 52 bd 8b 09 30 bc e8 4a 34 3d fd d5 1e 3e
       -0.051392075 -0.010744463 0.04401675 0.15511318
000060 94 13 8f 3d 72 e1 9a 3d 6c 5e 9c bd 0c eb 9e bc
       0.06986156 0.075625315 -0.07635197 -0.019399188
000070 9f ca fd 3b a0 65 b0 3d 6a a6 e7 bd 97 ee 09 3d
       0.0077451016 0.086131334 -0.11311038 0.033674803
000080 6c 5a 92 bc 2a 52 c3 bd 8e 45 f3 3d c0 f5 89 3c
       -0.017865382 -0.09537156 0.11878501 0.016840816
000090 db 11 d0 bd d3 8e 1b bd 23 56 df 3b 57 f7 0b 3c
       -0.10159656 -0.037978005 0.006815688 0.008542857
0000a0 87 26 4a bd 0d 48 87 bc 97 21 20 bd dc d4 a3 bd
       -0.04935315 -0.016513849 -0.039094534 -0.07999584
0000b0 1a 27 01 bb 0a 6a e9 bd cf d1 93 bd f8 8e 17 be
       -0.0019707144 -0.113971785 -0.07217752 -0.14800632
0000c0 0f 81 ef bd 54 63 c2 bd 03 76 35 3e 83 64 03 bc
       -0.11694538 -0.094916016 0.17720799 -0.008019569
0000d0 37 b6 46 bd c1 87 c6 bd 71 b7 c6 bd ea 82 b9 bd
       -0.048513617 -0.09693862 -0.097029574 -0.09058173
0000e0 5f 8a d9 3c 2d b2 ea bd 2c 7d 41 3d 57 3b da 3d
       0.026555238 -0.114597656 0.047238514 0.106558494
0000f0 4e 9f 63 3e 3b c6 cc bc 72 89 86 bd 7f b4 c1 bc
       0.22228739 -0.024996867 -0.06569184 -0.023645638
000100 70 ce b1 bd fd 02 37 3e 91 5c 1c be d4 9e 89 bb
       -0.08681953 0.17872234 -0.15269686 -0.004199842
000110 dc d5 ce 3d 40 ed f1 3d 73 2f 62 bc 84 73 55 3d
       0.10099384 0.1181283 -0.013805258 0.052112117
000120 49 04 34 3c 73 87 56 bd 24 1a 79 bd 89 cf ae bd
       0.01098735 -0.05237527 -0.060815945 -0.08535678
000130 a9 11 8f 3c fe de 95 bd bf 10 8b bd 13 69 04 3e
       0.017464476 -0.07317923 -0.067903034 0.12930708
000140 58 91 7c 3c ac ef 9a 3d 18 ed 11 3d 16 97 f0 3b
       0.015415512 0.07565245 0.0356265 0.0073422296
000150 fb 35 d6 3c 6b 97 f3 3d 8a 3b e2 bd 49 5e a4 3d
       0.026148787 0.11894115 -0.110465124 0.08025796
000160 c0 55 6b bc 5f e7 f6 3d 66 de 2d 3c ca 3c 9c 3c
       -0.014363706 0.12055849 0.010612106 0.019071955
000170 ec 89 f6 bc 02 a9 4e bc bf 66 af bd a0 ad d0 3d
       -0.030095063 -0.012613537 -0.08564519 0.10189366
000180 87 10 54 3e 21 f7 09 3e 49 fd 8b 3d 09 69 78 bc
       0.2070943 0.13473178 0.0683542 -0.015161761
000190 65 38 00 be f1 09 e6 3a 13 78 2e 3e 9c 8b b4 bd
       -0.12521513 0.001755057 0.17037992 -0.08815691
0001a0 32 f7 1c bd 0f 94 15 3e f2 28 6d bc 77 00 1f 3d
       -0.03832168 0.14607261 -0.014475094 0.038818803
0001b0 3e fa d8 3d 68 a1 de 3d df da 0d be c7 29 40 3d
       0.10594605 0.108706295 -0.13853024 0.046914842
0001c0 b5 21 0e bd c9 f1 dc 3a de cf 8f 3d da 92 fa bd
       -0.034700114 0.0016856726 0.070220694 -0.12235041
0001d0 48 8f 67 3d a5 1c c5 3d b1 6d 8e bd fc 26 5c 3d
       0.056533128 0.09624604 -0.06954516 0.053748116

f6.weight f4 [84, 120]
000000 d7 f7 1f bc 6f 55 a2 bd 29 e5 b3 3c f7 55 ae 3d
       -0.0097636795 -0.079264514 0.021959858 0.0851249
000010 61 a5 26 be ab 6c b3 bc 58 78 37 3d b8 a2 f7 bd
       -0.16274025 -0.021902403 0.044792503 -0.12091583
000020 4f f8 8d 3d 3d f0 4a 3c 7c b6 27 be 55 00 de bd
       0.06932127 0.012386379 -0.16378206 -0.10839907
000030 d8 8f 18 bb 5f 44 80 3d e8 20 0c 3d 45 54 37 be
       -0.0023279097 0.06263041 0.03421107 -0.1790324
000040 f4 fb 30 3d 21 30 f2 bc 54 f8 98 3d 5d a2 6b 3c
       0.04320903 -0.029563965 0.0746924 0.014381972
000050 5e 44 dd bd 2d 2d 48 bc a7 4c 87 bd 95 1a 30 be
       -0.10804056 -0.012217802 -0.06606417 -0.1719764
000060 d7 39 ac bd 2d 1f e3 bd 99 25 99 bd 1f 0a 8b bc
       -0.084094696 -0.11089931 -0.07477874 -0.0169726
000070 91 f3 d4 3c 4a bd c6 3c 95 a3 02 bd 62 d8 5c bc
       0.025995048 0.024260182 -0.031894285 -0.013479324
000080 2b 6c 17 bc 8e a2 31 bc 22 e2 da bd dd b5 f5 bc
       -0.009242098 -0.010841979 -0.10687663 -0.029993946
000090 9b f7 39 3c 64 cb 78 3d d1 94 f8 3d 52 4a f8 3c
       0.011350538 0.060740843 0.121377595 0.030308876
0000a0 b8 33 4f bd 8f ba 03 be 61 d5 ad 3d 1d 2d 11 be
       -0.050586432 -0.12864135 0.084879644 -0.14177366
0000b0 ae 28 0f bd 0f fe 26 3d 74 91 54 bd 16 80 97 3c
       -0.034950905 0.040769633 -0.051896527 0.018493693
0000c0 65 f1 e4 3d 6d 74 6d 3d ff bd 0f 3d 21 5d 5a 3d
       0.11178855 0.05797236 0.035093304 0.05331147
0000d0 58 b7 fb bc 44 45 2c be 0e 75 33 bd 5d ee 1d 3d
       -0.030727074 -0.16823298 -0.043812804 0.0385574
0000e0 f7 ab 06 be 9b 2f 1f be 27 f4 89 3d 72 6e 05 3e
       -0.13151537 -0.15545504 0.067360215 0.13030413
0000f0 39 1d a1 3d 0d 23 d7 3d 4e 5b 9e 3c 8e 18 09 3d
       0.07866902 0.10504732 0.019330647 0.033470683
000100 56 58 ca 3b 99 db 66 3e 3e 56 72 bd db ae ce 3d
       0.0061750812 0.22544707 -0.05916428 0.10091945
000110 03 08 6f 3e ed 9f cf 3b bd 1a 16 be 03 e1 3b 3d
       0.233429 0.0063362033 -0.14658637 0.045868885
000120 6a 36 26 be d9 26 1b bd 82 5c 97 bd ad 0a 92 3d
       -0.16231695 -0.037878845 -0.07390691 0.071309425
000130 1e 0c c9 bc f5 9f 93 3d 77 26 6a 3c 61 b8 ac bc
       -0.02454191 0.07208244 0.014291397 -0.021084012
000140 ec f1 10 3e be 45 5c bd b0 78 11 3c fc 04 ab 3d
       0.14154786 -0.05377745 0.008878872 0.0835056
000150 6f 63 3e 3d c7 d2 38 be 88 13 ee bd 2d ba 5b bd
       0.046481546 -0.18049155 -0.11624819 -0.053644348
000160 ea 45 bb bd de aa a4 bd a3 ec e9 3c 78 e9 0f 3c
       -0.091441944 -0.08040403 0.02855522 0.008783691
000170 c3 27 74 3d e5 30 51 3d 65 0c 60 3c 6a 4a 6d 3e
       0.059608232 0.05107202 0.01367483 0.23172918
000180 df e0 27 3e a9 53 4c bd 96 e8 a2 3d ba 35 cf bc
       0.16394375 -0.049884472 0.079545185 -0.025294174
000190 51 7d d4 bd 55 a4 02 3c c8 ee 75 39 74 b1 fd bc
       -0.10375465 0.00797375 0.00023453974 -0.030968405
0001a0 79 9e 04 3e ca 44 d7 bd ca db b9 3d 94 0b 3d bc
       0.12951078 -0.10511167 0.090751246 -0.011538405
0001b0 23 fc 03 be 21 de 22 3e 71 e0 58 be 71 24 da 3c
       -0.12889151 0.15905048 -0.21179368 0.026628705
0001c0 74 68 70 3c 61 30 a7 bd 23 8f c0 3d c1 33 87 bd
       0.014673341 -0.081635244 0.09402301 -0.06601668
0001d0 7a b6 d4 bd c9 48 7f 3d 40 6a 28 be 72 2d 3e 3e
       -0.10386367 0.062325273 -0.16446781 0.18572024
0001e0 23 22 83 3c dc 67 9a bd cc 6b 7e bd 11 37 c1 3d
       0.016007489 -0.07539341 -0.06211452 0.09434331
0001f0 2a 6f 01 3e 2f ec b3 3c 8d 61 3a 3d a4 e2 32 3e
       0.12640062 0.021963207 0.045503188 0.17469269
000200 52 34 1b bb e9 a7 8c 3d fd 38 0d 3e 83 d0 96 3d
       -0.0023682308 0.06867964 0.1379127 0.07363989
000210 0e f0 b1 bd 3a 16 f0 3d 2b d5 9e 3d 1b a4 18 3d
       -0.08688365 0.117229894 0.07755502 0.03726588
000220 b8 03 41 bd fd 67 c8 3c 9d 2c 10 3e 5e 67 f2 bd
       -0.047122687 0.024463648 0.14079519 -0.11836122
000230 38 d7 11 3e 38 18 20 3e 1c 5c 4c 3b 4b d0 32 3e
       0.14242256 0.15634239 0.003118283 0.1746227
000240 32 99 07 3e a6 15 08 3e 63 6d a5 3d bb 32 eb bd
       0.13242033 0.13289508 0.080775045 -0.114842854
000250 3c 88 62 be c2 9b 7d 3d f4 51 89 3d e8 fb 5e bd
       -0.22122282 0.06191612 0.067050844 -0.054439455
000260 86 78 87 3e 93 5b 31 bd 71 0a 94 bd e7 14 d5 bc
       0.2645914 -0.043300223 -0.07228554 -0.026010944
000270 e8 4b 24 bd 26 45 18 3e ab a0 a8 3d 8e 72 cb 3c
       -0.040111452 0.14870128 0.0823377 0.024834897
000280 19 02 18 3d b1 02 99 bd 19 96 f1 bd 9c 3b ad bd
       0.037111375 -0.074712165 -0.11796207 -0.08458635
000290 42 67 9e 3b 31 95 38 3c c5 6b 4b bc f2 59 ae bd
       0.0048340866 0.011266039 -0.012415831 -0.085132495
0002a0 f1 b8 d0 3d e8 b5 83 3d 08 30 bd bd b5 b5 44 3e
       0.10191525 0.0643118 -0.09237677 0.1920994
0002b0 85 fd c3 bb 1d 88 6a bc 9f 57 2b 3e 7c 7b 1d 3e
       -0.0059811496 -0.0143146785 0.16732644 0.15379137
0002c0 30 5c 46 3e 75 6f eb 3e 6b 1f a7 3c d0 ed 48 bd
       0.19371104 0.45983472 0.020400723 -0.04905492
0002d0 9e 37 4c bd d1 51 49 3e ea 8f 2c 3d b3 34 66 bc
       -0.04985773 0.19660117 0.042129435 -0.01405065
0002e0 ae 3b 85 bd 68 72 34 be 9d 02 05 3d 81 7b 3c bd
       -0.065055236 -0.17621768 0.032473195 -0.04601622
0002f0 68 6c 1e be 4d 11 d0 3b 46 68 31 3b d6 73 2b 3e
       -0.15471041 0.0063497187 0.0027070208 0.16743407
000300 d1 10 63 bc 47 a6 0c 3e ff 0f 35 3c 09 11 ed bd
       -0.01385899 0.13735305 0.011051177 -0.11575515
000310 68 dc 15 bd f3 fd cb bd ba 7b e5 bd db a8 8c 3c
       -0.03658715 -0.09960546 -0.112052396 0.01717036
000320 49 e1 8b 3d e3 00 89 3d c9 10 1b bc 2e 23 8d bd
       0.06830079 0.06689622 -0.009464451 -0.068914756
000330 d5 df 80 be 92 05 2a 3e 7d 86 bc 3e ff dc 67 bb
       -0.2517077 0.16603687 0.36821356 -0.0035379527
000340 6d a1 fd 3d 45 6e 40 bd e8 a1 ed 3d aa 70 22 3e
       0.12384305 -0.04698016 0.11603147 0.1586329
000350 76 37 9d 3d 97 6e b1 bd fe 8e 1a bd 40 53 18 be
       0.07676594 -0.086636715 -0.037734024 -0.14875507
000360 6f 7f 8d be b4 82 2e bd 7b 53 f9 3c 71 36 25 be
       -0.27636287 -0.042605117 0.030435314 -0.16134049
000370 fd 38 3c 3e e9 19 27 be a1 a3 63 bc b3 3e ee bc
       0.18381114 -0.16318478 -0.013893993 -0.029082632
000380 5b 62 38 bd e3 58 15 3d 8f 7f 06 bd 5b ba 4f 3e
       -0.045015674 0.036461722 -0.032836493 0.20285933
000390 d6 59 df bc 8e 0a 1c be 07 68 e6 3d ea df ff 3b
       -0.027264517 -0.15238401 0.112503104 0.007808675
0003a0 c3 c2 81 bc b7 e9 9d 3d 77 93 02 bd 06 51 1f 3c
       -0.01583994 0.07710593 -0.031878915 0.009723907
0003b0 5e 89 ec bd 4f 18 32 bd 31 80 bf 3c 72 46 b8 be
       -0.11549638 -0.043480214 0.023376556 -0.35991246
0003c0 b8 f5 a3 3d f6 d9 10 3e 82 64 36 3e f0 6c 1c 3d
       0.080058515 0.14145645 0.17811778 0.03818983
0003d0 2d ab 1b 39 5a ce ee bd 37 ba 3e bd 6a 29 83 be
       0.0001484572 -0.11660452 -0.046564307 -0.25617534
0003e0 cc 82 7c be 92 55 81 bc b9 00 c8 bc 3c 85 59 bc
       -0.2465927 -0.015787873 -0.024414407 -0.013276394
0003f0 44 1f b4 3d aa ce 3b 3e 84 21 ee 3d 08 a1 4f be
       0.08795026 0.18340555 0.11627486 -0.20276272

f6.bias f4 [84]
000000 ff 01 be 3d b4 3e 69 be 65 e2 1e 3e 17 04 9e bd
       0.092777245 -0.22777826 0.1551605 -0.07715624
000010 10 0e 2f bd 3b 6c 01 3d 00 58 d6 3d 81 31 dd bd
       -0.04273802 0.031597357 0.104660034 -0.10800458
000020 1f 3f f5 bc 63 0d 39 be 94 07 29 3e 46 bd 7d bd
       -0.029937325 -0.18071513 0.16506797 -0.061948083
000030 3b 9c 94 bd ac 8e f8 b9 fc c0 5f 3d c5 45 16 be
       -0.07256361 -0.00047408545 0.054627404 -0.14675052
000040 a3 c3 c4 bd 0d b7 b0 bd 39 72 07 3e c4 d6 5f bd
       -0.09607627 -0.08628664 0.13227166 -0.054648176
000050 ad 22 6a be 63 33 02 be 9d c8 eb 3c c7 aa 50 3d
       -0.2286479 -0.12714915 0.028782183 0.050944116
000060 7b 78 76 3e 23 16 a5 3e 2b e2 27 3e ac f8 d1 bd
       0.24069397 0.3224345 0.1639487 -0.102525085
000070 77 a8 95 bd dc 90 19 3c b3 7f aa bd dd 06 a8 bd
       -0.07307523 0.009372916 -0.08325138 -0.08204434
000080 59 ef 82 3b cf 55 a1 bd c1 bd 41 bd cd ab 85 3c
       0.0039958176 -0.07877695 -0.047300104 0.016317273
000090 c0 b3 eb bc 82 7d 9c bd 9e ab 32 bd f2 5e 40 3e
       -0.028772235 -0.07641126 -0.0436207 0.18786219
0000a0 73 b1 33 3e 6f f1 0f be 0c b7 bd 3d 69 a9 15 3e
       0.1754816 -0.14056943 0.09263429 0.14615406
0000b0 1a 63 1a 3d fd 81 0c be ac 26 03 bc ef c7 35 be
       0.037692167 -0.13721462 -0.008004826 -0.1775205
0000c0 08 3b 19 be 94 ea be bd 8f 2a d0 bc e1 6c 3e bc
       -0.14963925 -0.09322086 -0.025410919 -0.011622638
0000d0 ac 58 1c be e6 9c 1a bd 7e 06 08 be a2 52 3c be
       -0.152682 -0.037747286 -0.13283727 -0.18390897
0000e0 a1 2e 91 3d f9 32 05 3d 01 51 ad 3d 09 a7 19 3e
       0.07088972 0.032519314 0.08462716 0.15005125
0000f0 1d 0f a8 bd 02 7c e2 3b f2 2c 51 be 12 87 c6 3c
       -0.08206008 0.0069117555 -0.20427302 0.024234328
000100 5e 2e 05 3c cd 14 c4 bd 91 fb 8d be 6a 55 f4 bc
       0.008128731 -0.0957428 -0.27730992 -0.029825885
000110 59 c8 28 be 2c ec 4a 3d fd a6 06 3d 5b a6 33 3e
       -0.16482677 0.049541637 0.032874096 0.17543928
000120 a9 76 45 3d e2 6b 08 3d 70 0a d5 bd 0a 83 80 3d
       0.048208866 0.03330601 -0.104023814 0.06274994
000130 88 7a 36 3e 90 14 78 3e ea 63 17 be 9a 9b 15 3d
       0.1782018 0.24226594 -0.14784208 0.036525346
000140 cb 9c d3 bd e5 e3 a1 3d cc 6d 19 3c 2b 2c 50 3e
       -0.1033264 0.079047956 0.0093645565 0.20329349

f7.weight f4 [10, 84]
000000 94 9f f6 3d 64 fa e6 bc af c2 14 3e 71 57 1d bd
       0.12042156 -0.028195567 0.14527391 -0.03841347
000010 d1 ef 9e bd 8a 8f 40 bd a1 7d 91 3d 8d 95 08 3e
       -0.07760585 -0.04701189 0.0710404 0.13338299
000020 34 b5 89 bd 54 6f 00 3e fe ec 50 3e 20 bc 15 bd
       -0.06724015 0.12542468 0.20402905 -0.036556363
000030 60 8c 4d be 8c 8c af bd 3f 19 06 3e 96 54 5f bd
       -0.2007308 -0.08571729 0.13095568 -0.054524027
000040 77 f1 a5 b9 7c c5 01 be 1a 52 43 bc 90 2c 25 3c
       -0.00031651158 -0.1267299 -0.01192143 0.010081425
000050 ed 38 ea bb 8a 6c 28 3d 09 55 5d 3c ba bd ca bd
       -0.0071478994 0.041119136 0.0135090435 -0.09899469
000060 8b f4 1e 3e 6c 61 b3 3d 9d 5b 10 3e 18 b0 46 be
       0.15522973 0.08758816 0.14097448 -0.19403112
000070 4a db cd bd 10 85 27 be 1f 2a e6 bd 66 52 ca bc
       -0.10051592 -0.16359353 -0.11238503 -0.024697494
000080 9c 9e 04 3c 44 28 95 bd 4c ae 82 be 7e 7f 06 be
       0.008094456 -0.07283071 -0.25523603 -0.13134572
000090 ef 4f 1e 3d ea 44 a9 bd ee 0b d7 bd dd ab 5e be
       0.03865045 -0.082650974 -0.10500322 -0.21745248
0000a0 c7 87 d9 bc 75 c3 17 3e 86 c3 5a 3c f6 a8 e3 3c
       -0.026554001 0.14820655 0.0133522805 0.027790528
0000b0 ec a8 d7 3d 23 2c cc 3d 4a 41 15 3e 40 d8 b2 bd
       0.10530266 0.09969356 0.14575687 -0.08732653
0000c0 cf cd de 3d ad d5 f8 bd 2c bd f1 3d 41 1f e7 bd
       0.108790986 -0.121501304 0.1180366 -0.11285258
0000d0 b2 28 fe 3d c6 24 a2 bd e3 9c 3a 3e 88 74 fd bc
       0.12410106 -0.0791717 0.1822391 -0.030939355
0000e0 b7 bc 56 bd f7 df 49 bd cb cf 30 3e e1 68 ac bc
       -0.052426066 -0.049285855 0.17266767 -0.021046104
0000f0 28 e8 41 be 9f 76 b2 bd b9 4e b7 3d 4d 41 83 3d
       -0.18936217 -0.087140314 0.08950562 0.064089395
000100 06 99 21 be 25 ff c7 bc 55 e7 0b be 06 cf de 3d
       -0.1578103 -0.024413655 -0.13662465 0.1087933
000110 86 ac ce 3d 30 68 31 3e e6 b5 bb 3d 5b 26 f8 bd
       0.100915 0.173249 0.09165554 -0.12116691
000120 94 68 b9 3c ce ce 0e be a6 e5 99 bd 93 3c 8f bd
       0.022632875 -0.13946077 -0.07514505 -0.069939755
000130 8d 20 86 bd d8 cd 45 3e 8e f0 c2 3d ee ae 31 be
       -0.06549177 0.19316804 0.095185384 -0.17351887
000140 f5 0a dd 3d dd 38 ba bc 56 1e 55 3d ad 2b 1b be
       0.107931055 -0.022732193 0.052030884 -0.1515338
000150 f0 ec 0a bc c9 ce a0 3e 3f d3 02 be 8a ae 08 3e
       -0.008479342 0.31407765 -0.12775896 0.13347831
000160 f8 06 08 be 2a 94 24 3e 56 49 dc bd 2f e5 54 3e
       -0.13283908 0.16072145 -0.10756175 0.20790552
000170 59 c2 11 3e 6a f3 aa 3e ed 7b 97 be 64 6d 35 3b
       0.14234294 0.33388835 -0.29586735 0.002768361
000180 06 89 62 be 63 65 e0 bd 0d 8b df bd b0 bf f1 bc
       -0.22122583 -0.10956838 -0.10915194 -0.029510349
000190 77 31 52 3e 2f 47 35 be 38 d3 74 bc ba a4 03 bd
       0.20526682 -0.17702936 -0.014942937 -0.032139517
0001a0 4b b4 87 3d b5 53 17 3e 46 ed b3 3d 69 99 27 be
       0.06626185 0.14778025 0.08785491 -0.16367115
0001b0 79 19 57 be 7c 5f 8d be 60 3f 1d bd b2 30 9e bd
       -0.21005811 -0.2761191 -0.038390517 -0.07724132
0001c0 61 f9 f3 bd 89 e6 1d 3e 84 b2 cc 3b 14 dc 15 3e
       -0.119127996 0.15419973 0.0062468667 0.14634734
0001d0 82 dc 1c be b6 1b 9c bd 34 c6 36 3e 74 14 32 be
       -0.15318492 -0.07622473 0.17849046 -0.17390615
0001e0 95 9b 36 be db 0e 11 bd 24 db 82 3d d4 c0 b4 be
       -0.17832787 -0.035414558 0.06389454 -0.35303366
0001f0 49 5c 94 be 82 e7 e5 3d 6c 8a 4a be 7d 03 00 be
       -0.28976658 0.11225797 -0.19779366 -0.1250133
000200 49 b4 2c 3d 4c 2c 42 be c0 21 0b 3d 53 76 54 bc
       0.04216412 -0.1896221 0.033967733 -0.012967664
000210 6c f4 98 3d 9f 95 b7 3e 7d 79 8e be 49 f7 cd 3d
       0.07468495 0.3585634 -0.27827063 0.100569315
000220 72 3e 3a 3e 6e 49 9f 3d 42 8c 8e 3e 6b 6d 50 be
       0.18187883 0.077776775 0.27841383 -0.2035424
000230 43 36 1e 3e 6b 09 74 be 26 c4 3c 3e 6b 80 a5 bd
       0.15450387 -0.23831718 0.184342 -0.080811344
000240 0b 38 9a bd 9b 94 75 3c 7e e2 d8 3d 31 a5 58 be
       -0.075302206 0.014989044 0.10590075 -0.21156766
000250 4c a3 da bd eb e9 19 be 14 a4 e6 3d 12 4b 98 bb
       -0.10675678 -0.15030639 0.11261764 -0.004647621
000260 15 44 7b 3d ea 73 d9 3d 21 ef f9 3d d9 26 35 be
       0.061344225 0.10617812 0.12203813 -0.176906
000270 72 4d 1e be d6 7a 58 3d a2 f2 b0 3d 15 17 5d be
       -0.1545923 0.05285152 0.086400285 -0.21590836
000280 a2 06 2c be 4b 36 5e 3d fa 6c de 3b e2 13 ff 3d
       -0.16799405 0.054250997 0.0067878934 0.12454964
000290 5a 01 54 bc a4 7d f3 3d b3 17 90 3c 08 3e 06 bc
       -0.012939775 0.118891984 0.017589426 -0.0081935
0002a0 fd c4 da 3d 3b 48 14 be f3 93 2d 3e e3 ab d7 3a
       0.10682104 -0.14480679 0.1695097 0.0016454424
0002b0 c7 42 39 bd 87 3d b2 bd 4a 0b 7d 3d 26 8f 60 3d
       -0.0452297 -0.08703142 0.061778344 0.054824017
0002c0 e7 ef 3b 3e 68 a3 d0 bd 48 b3 06 3e 53 d9 87 3c
       0.18353234 -0.10187417 0.13154328 0.01658312
0002d0 a5 1b 33 be be 1d 04 be 74 70 6d 3d e4 1b 49 bd
       -0.17491014 -0.1290197 0.05796857 -0.049098864
0002e0 40 e0 a4 ba 73 8c c3 bd 2e c3 66 bd fe fc 40 3e
       -0.0012579039 -0.09548273 -0.05633848 0.18846509
0002f0 d7 51 49 bd 79 a2 8f bd 7e fc 48 3d f0 e6 ae 3b
       -0.049150314 -0.07013411 0.04906892 0.0053375885
000300 3e c0 a5 3d 5d c8 41 3e 65 0a 04 3d d5 6a 3d be
       0.08093308 0.18924089 0.032236475 -0.18497784
000310 41 fb 6e be b3 8a dc 3d fe 45 73 3d 69 f2 fc bd
       -0.23338033 0.10768642 0.05939292 -0.123509236
000320 ab 25 23 bd d4 86 3b bd d6 78 76 bd f1 49 61 be
       -0.039830845 -0.04578288 -0.060173832 -0.22000863
000330 e3 a7 b3 bd 25 64 3e be b0 20 2a 3e 6c 65 2a 3e
       -0.08772256 -0.1859289 0.16614032 0.16640252
000340 08 35 40 3e 1a 9e 7a 3d b4 17 48 3e 22 18 29 bd
       0.1877023 0.061185934 0.19540292 -0.04128278
000350 0c 61 a9 bd 0a b7 96 be 58 42 4c ba 46 d2 00 be
       -0.08270463 -0.29436523 -0.00077918684 -0.12580213
000360 88 f6 90 bd 32 e2 4f bd 2e 5f 22 3d 91 1f e8 3d
       -0.07078272 -0.050752826 0.03964155 0.11334146
000370 cd 27 fc 3d 82 66 8f bd ec b1 15 be 3b 66 18 3c
       0.12312279 -0.07001974 -0.14618653 0.009301717
000380 af 52 34 3e a9 a8 9b bd 0c 10 0d 3c 71 3a f1 bd
       0.17609666 -0.07600529 0.008609783 -0.11778725
000390 18 20 b0 bd 32 ac b3 3b 77 82 a4 3d 54 d9 99 3c
       -0.085998714 0.0054831738 0.08032697 0.018780388
0003a0 ca 14 e7 bd 0f 0c a6 bd 4a 67 20 be ef de c2 bd
       -0.11283262 -0.08107769 -0.15664402 -0.095151775
0003b0 2d 85 1e be 61 66 96 bd 7b 5a c4 3d a6 12 52 bd
       -0.1548049 -0.07343746 0.0958757 -0.051287316
0003c0 bf 3a 0b be 2c 73 f3 3c 3b e7 47 be 49 a5 a1 3d
       -0.13596629 0.029718004 -0.19521801 0.07892854
0003d0 e4 4b bf 3c 4b 95 10 3d 44 6a bb bc e4 2d 10 be
       0.023351617 0.035298627 -0.02287782 -0.14080006
0003e0 3d bb cf bc 9f 07 fd bd e5 c2 1f be 5d 05 62 3e
       -0.025357837 -0.12354969 -0.1560169 0.22072358
0003f0 b3 d0 b5 3d 91 fc 8d bd e1 81 95 bc 23 a6 3b bd
       0.08877697 -0.06932939 -0.018250408 -0.045812737

f7.bias f4 [10]
000000 f5 9e 89 3c d8 4e be bd 32 4e e8 3d 2b 72 78 bd
       0.01679943 -0.09292382 0.113430396 -0.060655754
000010 d8 2f af bb 31 ba 9f bc f7 cb 3c 3e bf 1d 3f bd
       -0.0053462796 -0.019497963 0.18437181 -0.046659227
000020 5b 6f 22 3e 27 74 5e be
       0.15862791 -0.21723996
