NN/LeNet/best_model.pth (torch, 250805 bytes, 10 tensors)

c1.weight f4 [6, 1, 5, 5]
00000000: 3425 a33e ad49 a33d d53f edbd 530e a03e
00000010: 774b 503f 67fb c73e 6653 01bf d632 8cbf
00000020: 8085 48be 98ff 573f 0bc1 9f3e e3e0 a9bf
00000030: 31ce f9bf 38c7 6fbf a51f 363f ff1a 033f
00000040: 0387 4ebf 81dc cdbf baad 2dbf c52b 113f
00000050: d2b6 383f 54b0 e4bc 835a 61bf 5bba 31be
00000060: c0ee 353f b150 4ebe 45aa 58bf 8304 b4bf
00000070: f598 18c0 d0c0 14bf 381d 043f fcf2 c4be
00000080: 7bf5 f1bf 37dd 3bc0 3b93 7fbe 7aa5 413f
00000090: 0c29 63be dd7e 19bf 726a d7bf ae81 d6be
000000a0: 7557 a93e 844a 49bd e76b 3fbd 9dd0 5cbf
000000b0: 304f 0b3b d8de 603f ef13 a73e 3479 d43e
000000c0: de62 03bf dd53 083f b8e5 cbbe 1217 24bf
000000d0: 430d 8ebf 4e52 d7be fef6 30bf 782d f43e
000000e0: 713a 2b3f f494 0e3f 6034 3e3f 014f 94bd
000000f0: 3057 a63f fc08 8340 7598 9840 2420 1f40
00000100: 1442 7b3e 6a8a af3d 4744 f43f 6975 3640
00000110: 51e9 823f 0514 e0be 0545 ffbe 4ef1 03bf
00000120: aa84 433e f667 28be 358a 52bf 83e6 1abf
00000130: b82b 74bf 8bd5 93bf 0901 2dbf a773 0abf
00000140: 620b 19be f840 0ebf 71a8 81bf 0912 dcbe
00000150: 8378 3dbe 0903 c63e 12f9 fe3e 189c 1a3e
00000160: 97b3 c13e 2453 a83d 2f32 0d3f c584 ce3f
00000170: 7da0 b73f 4781 b33f 915f 453e 5e20 1d3f
00000180: 416d ac3f b478 c63f 999f 973f 2829 c73e
00000190: 719a 103f b9ee 9d3e 25b8 c9bd f1bf 2abf
000001a0: 8d91 07bf ac32 653f bc66 ff3e 275a 1abd
000001b0: 7848 19bf 7ee0 1dbf 5a3f 493f 39fd 063f
000001c0: 3467 82be 435f 6dbf 57f2 18bf cab9 473f
000001d0: d4a9 3d3f 66c0 37be e67e 47bf f439 c0be
000001e0: a72c 593f 0f99 563f 9b8e 333e 34ee 51bf
000001f0: 5df5 ddbe 7b03 313f 9331 ea3e 9b57 183f
00000200: 2c5a e33e 48d4 a7bd 322e 893f 23b3 1b40
00000210: 6e24 3240 72d3 1a40 3bd7 593f caad a93e
00000220: 4660 ff3f 1ae7 7e40 4d6f 7640 fd56 4d3f
00000230: 213c 2fbe 032e 073d 15c7 d73f 53c4 ee3f
00000240: 31c3 dc3d f4ef 4dbf c73c 00bf 01a0 f4be
00000250: c755 afbd a493 11bf
0.3186432 0.07973037 -0.115844406 0.3126093 0.8136515 0.39058992 -0.5051788 -1.0953014
-0.19582176 0.8437438 0.31201968 -1.3271755 -1.951605 -0.9366336 0.71142036 0.5121307
-0.8067476 -1.6082917 -0.6784321 0.5670741 0.7215396 -0.027916111 -0.88028735 -0.17356245
0.7106743 -0.20147969 -0.8463481 -1.4063877 -2.3843358 -0.5810671 0.51607084 -0.38466632
-1.890304 -2.935377 -0.24958508 0.7564312 -0.22183627 -0.59959203 -1.682936 -0.41895813
0.33074537 -0.04914333 -0.046733763 -0.8625582 0.0021256916 0.8784003 0.32632396 0.4149872
-0.51322734 0.53252965 -0.398237 -0.640977 -1.1097797 -0.4205498 -0.6912688 0.4769094
0.6688605 0.55696034 0.7429867 -0.07241631 1.2995358 4.0948467 4.7686105 2.4863367
0.24536926 0.08571322 1.9083337 2.8509161 1.0227453 -0.43765274 -0.49857345 -0.51540077
0.19093576 -0.16445908 -0.8224214 -0.6050798 -0.9537921 -1.1549543 -0.67579705 -0.5408272
-0.14945748 -0.55567884 -1.0129529 -0.4298251 -0.18503003 0.3867419 0.497994 0.15098608
0.3783233 0.08218983 0.551547 1.6134268 1.4345852 1.4023827 0.19274737 0.61377513
1.3470842 1.5505586 1.184558 0.38898587 0.5648566 0.30846193 -0.09849576 -0.6669913
-0.5295647 0.89530444 0.49883068 -0.037683632 -0.59876204 -0.6167067 0.7861229 0.5273014
-0.25469363 -0.9272348 -0.5974478 0.78017867 0.7408726 -0.17944488 -0.77928007 -0.37544215
0.8483376 0.838273 0.17534868 -0.82004094 -0.4335126 0.69145936 0.45740947 0.59508675
0.44404733 -0.08194786 1.0717223 2.4328086 2.7834735 2.4191556 0.8509404 0.33140403
1.9951255 3.9828553 3.8505433 0.8021086 -0.17112781 0.033002865 1.685763 1.8653663
0.10779417 -0.80444264 -0.5009274 -0.47778323 -0.085612826 -0.56865907

c1.bias f4 [6]
00000000: afde bc3d 0505 743e 00de e9be 8f3d babe
00000010: 14ea b1bd 18aa f2be
0.09222161 0.2383004 -0.45677185 -0.3637509 -0.08687225 -0.47395396

c3.weight f4 [16, 6, 5, 5]
00000000: 0618 203e cc7d a4be 950c 2fbf b109 063e
00000010: 6fcc 0e3f bc33 8abd e7d0 e9bd 8911 30bd
00000020: 4051 48bd 9709 1c3f 25fe 23bd 5493 0ebe
00000030: b3a9 99be 9c81 5dbf 36f8 813e 631d 31bd
00000040: f2fc 0cbe 3c4e 00bf cd44 54bf ff71 2dbe
00000050: 77b2 2cbe 1d90 00be 9613 81be d563 05bf
00000060: 0b0c f8bd aee5 44be 69e3 4abf 24ba 36bf
00000070: af06 953e 460b 073f 1513 49bc 5193 0cbf
00000080: 2fd7 063c 289d d03e 5b6a e53e 0546 23bd
00000090: e33f 22bf d25b c0be be2b 10bd 91ac fb3e
000000a0: 45fa efbd 6719 1fbf 7068 04bf 25ec e7be
000000b0: 145c 223e 6f89 0b3e cd25 a23c 7be3 3ebe
000000c0: 51de d2be 30e2 90bd 9cf9 653d 8836 2d3e
000000d0: 7950 1e3e 99c5 413d 5022 9abd 5f06 813d
000000e0: 7c7c c43d 9d34 cd3d 0a95 a43b 5336 f7bd
000000f0: 9359 36bd ee73 1bbd 7d75 393d f7e3 43bd
00000100: aeea c13c 251c dbbd d81c ecbd a7b2 f0bc
00000110: f69b 6cbc 5de5 173d f88a fcbd 256d a2bc
00000120: c8e6 0fbe 2d40 4fbd ac97 553d f83e 76bd
00000130: 0499 c03d 972b 91bc 9ec6 823d 64fc 30be
00000140: 9da4 56bd d06b 6fbd 904a 57bc 5a2a 0b3d
00000150: 1738 9fbd 440a 75be 16a3 35be 7e15 a2bd
00000160: 5a3c 1cbd 78b5 d13d ceba 34be bfdc 01be
00000170: 4240 87bd ebc5 713b 1051 f63d 1ebe 543d
00000180: fe6a f4bd 0fcf 64bd 3642 b43b 9dc7 e73d
00000190: d9df 2ebf 3071 8dbf 5472 17be cd8e 343f
000001a0: 0d6d a43e a182 05bf b98e 80bf 0915 7fbe
000001b0: 8cf3 2b3f dc10 de3e 291b 28bf f4aa 92bf
000001c0: c785 0fbf cb3c 0d3f 3d62 fa3e 6c82 1ebf
000001d0: a6ef 82bf 9e39 5fbf 77a4 5f3e f03c b23e
000001e0: 112c 5bbe e68a 05bf e738 70bf 0d91 6b3d
000001f0: 754b eb3d 9893 0f3d 9c8f 1a3e aa54 873d
00000200: 4e83 b039 cd42 29be 3c0e de3b f09f b03d
00000210: b4cb c63d c93f 703b 7439 f1bd 1101 523c
00000220: 94a1 81bc 3081 413d 77a1 173d e7a8 833d
00000230: bf0f 113a 8d76 f33c 4c4a 393d e98d 3fbc
00000240: 2e6d d63c c9a9 18be 6564 9cbc 434d 79bd
00000250: 972b 0abc d6b6 bd3d afe2 b63d 69fa da3e
00000260: eb4b f43e e9fa 2fbd cfdd 0abf 0b73 c53e
00000270: 14e9 a23e 0907 4a3e 64b7 9ebd 479b 02bf
00000280: b6be 8d3e 2cbf a83e 7736 b83e cd03 403d
00000290: d8a9 fdbe 775d 763d daf0 ec3d fdd7 4a3e
000002a0: a86b dc3c 88a5 d4be 85c7 7f3e 1ff1 bb3e
000002b0: 698d 6d3e 7b0b 88be 6154 4ebf 797f bd3e
000002c0: e715 353f 489b 2f3f f3fa 8abe 57b7 bbbe
000002d0: c9bd 8d3e a9eb bd3e d572 8a3e 8271 02bf
000002e0: 6c4a b8be 82eb 4d3e 6222 973e 8416 583e
000002f0: 7190 f5be 27d5 67be 59c0 433e c0c3 3b3e
00000300: 3d57 863e 494d e0be 7b81 9bbe 24e4 d13d
00000310: ce3d 2b3c 8261 1f3d e8d6 0dbf 4a5e a4be
00000320: 817b 17be 3bac 8ebe db2e b6be 8f2a 43bd
00000330: be79 753e 8809 80be bd08 e5bd 821f e9bd
00000340: 613d a13d 9bf9 6e3e 2ade 37be 3b2e ebbd
00000350: 4fec 0fbe cd87 673d b2aa c13e 5824 86bc
00000360: c276 02be ce2a e8bc e239 b13d 3401 b33e
00000370: 4295 88be bec4 87be 1114 87bd d1f8 ae3e
00000380: 14d8 c73e b130 01be 8164 1ebe 495a 39be
00000390: 8a2c 1a3e 94a1 413e cc60 78be 6e3e 44be
000003a0: 91dd 18be 7876 8a3d 8223 793e e06a 833d
000003b0: 2fcf 91bd c7a7 82bd ef7f 10bd 5037 913e
000003c0: 6775 b2bd 7c70 50be 13d6 d6bd 19ee 2e3e
000003d0: 9b3a c53e 486f c0be 39a5 ccbe caaa 5bbe
000003e0: cf75 e43d 20a6 df3e 2216 823e ebbf cf3e
000003f0: 6036 02be 1c1f 19bf 587b 10bc 2f7e 253e
0.15634164 -0.32127225 -0.68378574 0.13089634 0.5578069 -0.06748149 -0.11416798 -0.042985473
-0.04890561 0.6095213 -0.040037293 -0.13923389 -0.30012283 -0.86525893 0.25384682 -0.043240916
-0.13768366 -0.50119376 -0.8291748 -0.16938017 -0.16864954 -0.12554975 -0.25210255 -0.52105457
-0.12111672 -0.19228241 -0.7925325 -0.7137778 0.29106662 0.52751577 -0.012272616 -0.54912287
0.008230015 0.407449 0.44807705 -0.039861698 -0.63378733 -0.37570053 -0.035197966 0.49155095
-0.11717657 -0.62148136 -0.5172186 -0.4529735 0.15855438 0.13626646 0.019793415 -0.18641464
-0.4118524 -0.07074392 0.05614625 0.16915333 0.15460385 0.047307584 -0.07526076 0.06300043
0.09594056 0.10019801 0.0050226497 -0.120709084 -0.04451902 -0.037952356 0.04527806 -0.047824826
0.023671474 -0.106987275 -0.11528939 -0.029382063 -0.014441481 0.037083972 -0.12331194 -0.019827435
-0.1405288 -0.050598312 0.0521466 -0.060118645 0.094041854 -0.01772098 0.063855395 -0.1728378
-0.05240308 -0.058452427 -0.013140336 0.033975936 -0.0777437 -0.23929697 -0.17737994 -0.079142556
-0.038143493 0.102396905 -0.17649385 -0.12681864 -0.06604053 0.003689165 0.1202718 0.051939122
-0.1193447 -0.05586153 0.005501057 0.1131737 -0.68310314 -1.1050167 -0.14789706 0.70530397
0.3211445 -0.5215245 -1.0043555 -0.24910368 0.671685 0.43372238 -0.65666443 -1.1458421
-0.56063503 0.5517089 0.48903075 -0.6191776 -1.0229385 -0.8719729 0.21840082 0.34812117
-0.21403529 -0.5216507 -0.93836826 0.057511378 0.11489002 0.035052866 0.15093845 0.06607945
0.00033667166 -0.16529389 0.006776599 0.08624256 0.09706822 0.0036659113 -0.117785364 0.012817637
-0.015824117 0.047242343 0.03701922 0.064287 0.00055336574 0.029719615 0.04523687 -0.011691549
0.026175108 -0.14908518 -0.01909084 -0.0608647 -0.008433244 0.09263389 0.08929955 0.42769173
0.4771417 -0.042963896 -0.54244703 0.38564333 0.3181845 0.19729246 -0.07749823 -0.51018184
0.27684563 0.32958353 0.35979053 0.046878625 -0.49543643 0.06014773 0.11569376 0.19808955
0.026906803 -0.4153254 0.24978454 0.36707398 0.23198475 -0.2657126 -0.805975 0.37011316
0.70736545 0.68596315 -0.27144584 -0.36663315 0.27683857 0.37093857 0.27040735 -0.5095445
-0.3599428 0.2010937 0.2951842 0.21102339 -0.47961763 -0.22639905 0.19116344 0.18336391
0.26238433 -0.43808964 -0.30372223 0.102485925 0.010451747 0.03891135 -0.55406046 -0.32103187
-0.14793207 -0.27865776 -0.35582623 -0.04764801 0.23972222 -0.25007272 -0.11183307 -0.11382963
0.07873035 0.23337404 -0.17955843 -0.11483427 -0.14054988 0.056525994 0.37825543 -0.016374752
-0.12740615 -0.028340723 0.086536184 0.34961855 -0.26676375 -0.2651729 -0.06595624 0.34174207
0.39032042 -0.1261623 -0.15468027 -0.18100847 0.15056053 0.18909293 -0.24255675 -0.1916444
-0.14928271 0.06760877 0.24329951 0.06416869 -0.07119595 -0.06379657 -0.035278257 0.28362513
-0.08713799 -0.2035541 -0.1049005 0.17083015 0.38521275 -0.375849 -0.39969805 -0.2145187
0.11155283 0.4368143 0.2540751 0.4057611 -0.12716055 -0.59813094 -0.00881847 0.16161416

c3.bias f4 [16]
00000000: f21c 09bb a165 d2bd bc27 d6bd beb9 8cbd
00000010: 6114 81bd e8ff 273d 8991 b93c f8ac 74bb
00000020: 8a3f 2d3c 07dd eabd 6ac4 b4bc 6bf7 f1bd
00000030: d3bf f43b fa39 a93c 38a9 e0bd 1d8e 103d
-0.0020921794 -0.102732904 -0.104567975 -0.06871365 -0.06302715 0.041015536 0.022652404 -0.0037334543
0.010574231 -0.11467939 -0.022066314 -0.11814769 0.0074691563 0.020657528 -0.10969776 0.03529178

f5.weight f4 [120, 400]
00000000: 6dbd 30be 95e0 79be 6280 273d 0eba 7f3e
00000010: 026e 783e 65d7 403d f0df cfbd 212e adbe
00000020: 2a26 493c e91b 2d3d 1031 bd3d c122 b63c
00000030: 846e 4bbe c932 5f3e a1df 21be 5bc5 05bd
00000040: 4c14 8bbc 1b90 1bbd faa2 983d 46e7 8c3c
00000050: 2262 08be e9d8 4c3d 5cb5 593c 499a 0bbe
00000060: 456e cdbd 6c03 423d 05dd f9bc 8b4f 3abd
00000070: 7556 efbd 8dd5 04be b49a a7bc 140a c63d
00000080: 575a 183c 465c 7bbc 1000 3fbe e972 883c
00000090: 108c 8abd 4eb1 b83d b030 463d 5fd1 9dbd
000000a0: 1183 83bc 328a 893d ceca 373d c6a4 7abd
000000b0: 994c 1a3e e06c 0dbc 0802 79be b807 73be
000000c0: 72a2 323d 07f8 ce3d 0109 f93c dd9c c9bd
000000d0: b40d b43c 9e75 bb3d 3ab6 003e 1c7f af3d
000000e0: 2686 063c 4ff1 343d e4c1 4c3d 9ac7 61bd
000000f0: 69ac 923d a00d 5bbc 9a1d 8f3c 0cf0 df3c
00000100: a571 aebc 2da3 5b3d 6d02 27bb 9ade 443d
00000110: 8c1f 343d fd7a 6cbd 102f 1abd c771 9fbd
00000120: 8fa3 d23c 3b8d b3bd c9e9 0a3d 684e 3abe
00000130: b0a5 1e3e 75c9 aebe ff07 8bbd 7836 b63c
00000140: 4715 46bc 215f 51bd 1692 4d3e 80ec 0f3e
00000150: 50aa 8a3d 1580 4abe c9be cbbd 980f 5d3e
00000160: 5199 dc3d e2af 9a3d 1037 f7bd 1c2b 903c
00000170: 4d7f ac3c e929 263c cd70 8f3a 15c0 86bd
00000180: 36c5 003e 16f6 1e3e 8c47 7fbc 36d8 02bd
00000190: 8824 0dbe 4399 d83d 3cfa fa3e f30f 0e3d
000001a0: 17b8 21be 4f5a 953e 5045 00be e1f3 533e
000001b0: 9979 0dbe 0a45 0d3d c4ff 8ebd 072a 453c
000001c0: 21d8 613d 1c98 35bd dafc 42be 60fa ae3d
000001d0: f5ca dbbd d158 9cbc 3d50 59bc fed6 52be
000001e0: d539 96bd 1102 1bbd a4be 113e 4336 58be
000001f0: 9cb9 80bd 4e8e 8b3d bc0b 01bd 78ab 9b3c
00000200: 79f7 373e 3aa0 5cbd 56dc 27be 3f8a 433e
00000210: 5988 e4bc 705b a7bd 3dc3 ac3d c8ff 82bd
00000220: c6fd d03e 5a87 f93e 276e 9b3d 13e3 44be
00000230: 948f a5be 441d f93e bebf b93e 6219 08be
00000240: c695 22be 77d2 c53c 001d 783e 9e19 eb3e
00000250: 5b72 6e3d bf6a d8bd f278 c53d e3fd 68bd
00000260: 2110 543d d048 1fbd e101 02be 2b29 31bd
00000270: 5650 4cbd a98d 183d c679 11bd d7f2 d03b
00000280: 5662 5e3e 1d72 20be 5f67 353e 661a f23d
00000290: 16b9 1abc 24af 2b3e df87 aebc e4c9 d13d
000002a0: b105 de3d 3f46 1bbd e0ca cb3d 5ae3 24be
000002b0: cafc 873e 6e2f 84be 764c dc3d 9503 1c3b
000002c0: b5c3 52be fdf1 513c cd62 65be 18e7 89be
000002d0: b6c8 103e 6640 10be 8a13 62be bb0d 8abd
000002e0: 73f5 7a3c 5a9e 8d3e 5cf5 6f3e 2a05 36bd
000002f0: 6d18 5a3e 09cb f5bc 3f3d f4bd 145a fc3d
00000300: 7aa2 1d3e 3834 603c d18b 923d e6a3 e4bd
00000310: 64fa 073e d293 673e 9182 77bd cea7 6f3d
00000320: 94f1 4dbd 19fd 5e3c 5dd3 61bd 2c35 a03d
00000330: 0270 72be 861a 6cbd 2d1e 613d 46a7 863e
00000340: 65f0 963d 77c1 e0bd 3dfb c53c a0c4 01bd
00000350: 3010 7b3e 837e 413e 2dd6 2fbd 71b8 df3d
00000360: 2339 75bd 6aff 5a3b f4e8 2e3d 2e46 1abe
00000370: 3f9a 8e3d 8430 0dbe 8201 e43d f133 32bd
00000380: 09a2 05be 3040 753c aa4e 483d 5676 b13d
00000390: ad7e 6f3d f5de 9f3d 7c0d 253d 14e2 373c
000003a0: f618 4e3d 6a82 493c 79ef 8a3d e0eb 1bbd
000003b0: df66 233d ed85 923d 2876 7c3d 295d 8f3a
000003c0: b81d 53bd fbd1 5a3c e833 483d 0185 90bb
000003d0: 670a a6bb 7141 9d3c 8d93 cebd 081d 843d
000003e0: 662f a5bd 2fd3 8ebc ac3d 87be ba9b bdbc
000003f0: 4c2f 383e dd8a a33e aa7e bb3d 4968 84bd
-0.1725976 -0.24402077 0.04089392 0.24973318 0.24260715 0.047080416 -0.101501346 -0.33824256
0.012277165 0.042262945 0.092378736 0.022233369 -0.19866377 0.21796717 -0.15807964 -0.032658916
-0.016977452 -0.037979227 0.0745296 0.017200124 -0.13318685 0.05001155 0.013287868 -0.13633074
-0.10030798 0.047366545 -0.030500898 -0.045486014 -0.11686412 -0.12972088 -0.02045951 0.09669891
0.009298882 -0.015341824 -0.18652368 0.016656356 -0.06764996 0.09018193 0.048386276 -0.0770595
-0.016053708 0.06715812 0.044871144 -0.061192296 0.15068282 -0.008631915 -0.24317181 -0.23733413
0.04361195 0.10105901 0.030399801 -0.098443724 0.02197919 0.09153293 0.12569514 0.08569166
0.008210694 0.044175442 0.049989596 -0.055121996 0.07161791 -0.013369948 0.01747017 0.027336143
-0.021294424 0.053622413 -0.0025483624 0.048063852 0.043975398 -0.05773448 -0.03764254 -0.07785373
0.025712756 -0.08767172 0.03391436 -0.18193972 0.15492892 -0.34138075 -0.067886345 0.02224277
-0.012090034 -0.051116113 0.20075259 0.14055061 0.06770766 -0.19775422 -0.09948499 0.2158798
0.1077143 0.07553078 -0.12071049 0.017598681 0.021056795 0.010141828 0.0010943651 -0.065796055
0.1257523 0.15523562 -0.015581023 -0.031944476 -0.13783467 0.10576107 0.4901904 0.03468318
-0.15792881 0.29170462 -0.1252644 0.20698501 -0.13815917 0.03448967 -0.06982377 0.012033946
0.055137757 -0.044334516 -0.19041768 0.08543849 -0.1073207 -0.01908532 -0.013263759 -0.20589826
-0.07335249 -0.037843768 0.1423288 -0.21114449 -0.06285402 0.06814252 -0.03150533 0.019002661
0.17965497 -0.05386374 -0.16392645 0.19095705 -0.027897047 -0.08171737 0.08435676 -0.06396443
0.40818614 0.48736078 0.07589369 -0.19227247 -0.32336104 0.4865514 0.362791 -0.13290933
-0.15877447 0.024148209 0.24229813 0.45917982 0.058214527 -0.10567235 0.09642209 -0.05688275
0.051773194 -0.0388878 -0.12696029 -0.04325215 -0.0498813 0.037244473 -0.035516523 0.006376605
0.217172 -0.15668531 0.17715214 0.11821441 -0.009443542 0.1676603 -0.021305023 0.10243586
0.10840929 -0.03790879 0.09950805 -0.16102353 0.2656005 -0.25817436 0.10756771 0.0023805846
-0.20582469 0.012814042 -0.22400971 -0.26934123 0.14139065 -0.14087066 -0.22077766 -0.067409
0.015317309 0.27659875 0.23433441 -0.04443852 0.2129838 -0.030004041 -0.11925744 0.123218685
0.15394011 0.013684325 0.07155574 -0.11164074 0.1327911 0.22614983 -0.060427252 0.05850964
-0.050279215 0.013610148 -0.055133212 0.07822642 -0.2367554 -0.057642482 0.05496042 0.26299495
0.0737007 -0.109744005 0.024167651 -0.031681657 0.24517894 0.18895917 -0.042928863 0.10923851
-0.059868943 0.0033416399 0.04270263 -0.15065834 0.06963014 -0.13788038 0.111331 -0.043506566
-0.13050093 0.014968917 0.048903145 0.08665149 0.058470417 0.078061976 0.040296063 0.011223335
0.050316773 0.01229916 0.06783957 -0.038066745 0.039893027 0.071544506 0.06163612 0.0010937798
-0.051542014 0.013355727 0.048877627 -0.0044103866 -0.005067158 0.019196244 -0.10086737 0.0645085
-0.08065681 -0.017434685 -0.2641424 -0.023145545 0.17986792 0.31941882 0.09155019 -0.06465203

f5.bias f4 [120]
00000000: 51e1 333d f953 d93d c5a7 443d 86f0 603d
00000010: f502 6c3d 6478 18bc a25f ae3c fe30 4dbb
00000020: d1eb df3d e80f 933d 454c 993d 6a5c 25bd
00000030: 6758 c5bd b9cb 4f3d 433e 9abd f87f 3bbd
00000040: cf8d 4f3d f2fc d9bb 5e11 d7bd bf1e f13d
00000050: ef1e 983d 9217 29bd 8691 a5bd 8bae 76bc
00000060: 1880 063d 06f4 553c b7de 43bd adb9 41bd
00000070: 94c0 ce3d ae58 06bd cb1e 1dbd b941 c73c
00000080: 9232 ad3d 974d 783c 6f7b 42bd 44a4 f0bc
00000090: 4b8f 7ebc cbf9 3f3d 4652 db3d 592f c43d
000000a0: 5a59 efbc ac29 babc ceb4 3cbd ced7 98bd
000000b0: 0a99 80bc 171c bfba 02f3 6fbc 6573 b7bd
000000c0: b315 0b3c e48b c8bd ea91 b23d bc2a 1dbd
000000d0: 909a 8c3d 45e1 b93c 427a 17bd aaf9 e43c
000000e0: b0d3 18bc becc c43c 8ab8 8e3d 966e bbbd
000000f0: 3b03 ce3d 09bd ecbd c6ca 06bd 0fef f03d
00000100: f33c aabd 8e55 853d 93fb eb3c 853d b03c
00000110: 5269 573d 6083 183e ac60 82bc 9087 4c3b
00000120: 8a58 893d 8b42 37bd 1197 2abd fb2a 21bc
00000130: 38d4 1d3d 1775 ea3b de74 aaba 7d0d 00bd
00000140: 3ee4 acbc 4aa6 20bd 6430 ccbd 15d4 c1bd
00000150: 917b 643d f5d4 9e3d 1cff b8bd de14 91bd
00000160: 1f03 9dbc 0a05 823b f729 56bd 241a cbbd
00000170: 8aa6 a43d 421b a63d 00b6 0a3d 288e 213c
00000180: 1496 8dbd bd93 2d3c 2bd6 d73d ea03 563b
00000190: ab4b fbbc b32a 35bd 3a59 88bd 1ce4 29bd
000001a0: 48f9 2abd 5fe8 0d3d b44d e33c 4b65 893d
000001b0: 8be9 d6bc f3bc 583d 4210 8fbb e93c 21bc
000001c0: 2a55 293d 7d92 73bc 5aac cabd d225 363d
000001d0: fd26 453a 224c 8ebc 3f39 8dbd 5bce 95bd
0.04391605 0.1061172 0.04801156 0.05491688 0.057620008 -0.009306047 0.021285836 -0.003130972
0.1093365 0.07180768 0.074852504 -0.040371336 -0.09636002 0.050731394 -0.07531407 -0.045776337
0.05067235 -0.006652468 -0.105013594 0.117734425 0.07427775 -0.041282244 -0.08084397 -0.015056263
0.032837003 0.013058668 -0.04781982 -0.047296215 0.10095325 -0.032799415 -0.038359445 0.024323331
0.08456911 0.015155218 -0.047480997 -0.029375203 -0.015537093 0.04686908 0.10709052 0.09579343
-0.02921741 -0.022724949 -0.046070866 -0.074630365 -0.015697975 -0.0014580515 -0.01464534 -0.08957557
0.00848906 -0.09792307 0.08719237 -0.038370833 0.06865418 0.022690425 -0.03698183 0.02795108
-0.009327814 0.02402341 0.06968792 -0.09151952 0.1005921 -0.11559493 -0.032908224 0.11764347
-0.083124064 0.06510459 0.028806483 0.02151371 0.052590676 0.14893866 -0.015915237 0.0031208731
0.067063406 -0.044741195 -0.041647974 -0.0098369075 0.038532466 0.0071550715 -0.00130048 -0.031262863
-0.021104928 -0.039221086 -0.09970167 -0.094642796 0.055781905 0.07755462 -0.09033033 -0.07084058
-0.019166527 0.003967886 -0.052286115 -0.09917095 0.08039577 0.08110668 0.033864975 0.009860553
-0.06913391 0.010594306 0.10538896 0.0032656142 -0.03067573 -0.044230174 -0.066576436 -0.041477308
-0.04174164 0.034645434 0.027747013 0.06708773 -0.026234409 0.05291457 -0.0043659518 -0.009841182
0.041340984 -0.0148664685 -0.09896155 0.044469662 0.00075207633 -0.017370287 -0.068956845 -0.0731475

f6.weight f4 [84, 120]
00000000: 7b0d bfbe f1ae 9cbd 06c9 c23d ffbf 54be
00000010: f164 34be 6caa d43d f272 70bb b261 b03b
00000020: ed75 cc3d a40a bc3d e245 a73d 6c97 c33d
00000030: f443 a43d 2dfe d83d b24a 3a3e 11a1 77bd
00000040: 07b7 3cbe e928 85bd 5f86 09be 09fa af3e
00000050: 04bd 21bc 32f2 59be c98b 453d 905c 00be
00000060: 5ab7 c73c cf3b 2bbe a6b8 95bd 0464 4b3d
00000070: e5c5 d9bd 5d54 e4bc e9ce 94be 13a9 16be
00000080: cb13 333e 0a0d 593b f50f 27bd ab1a 38bd
00000090: 9037 4c3e 1c86 023e 5a4a ddbd bc42 b53d
000000a0: 39a6 cd3d 04b0 d7bd aaa4 dabe 951e bbbd
000000b0: ff1a 533e 3d85 4ebe 577b 0f3e acb9 a7bc
000000c0: 86dd 87be 83ce 14bc 78f7 3abd 868c 04bd
000000d0: bd16 403c 8ad1 823e 0f06 08be 4ec3 373d
000000e0: 24ae 41be c77e df3c 90c8 ac3e 7832 94bd
000000f0: f2b9 423e 433e e0bd 7be7 82bd 87bd 38bd
00000100: 6507 a63c 41b9 77bd 4870 ca3d c250 1abe
00000110: 1b8a 05bb 3f95 16bd c2eb 5d3e bb7d 1a3e
00000120: 1d7b 203e eac8 41be 2f78 11bc 99af 123e
00000130: 5a69 cdbd 97f7 9bbd 0bba 963d 3d59 64bd
00000140: 9c8f 16bd dea2 553d b382 7bbd fe82 41be
00000150: ae7d d63d 4d37 733d 3845 17bd 3e84 063e
00000160: e22a 1dbe 7239 f73b 52a5 2c3c 1162 4dbc
00000170: 6d30 f73c f35e dfbd aede 353d fbab f6bb
00000180: e0e4 c43d db78 953d 56cd c8bd 47ac 1e3e
00000190: b0fe a93e 454e 8a3c 04c9 0bbb 97cd 083e
000001a0: 7cd3 03be 374d 4a3c ef17 89bc ff30 523a
000001b0: 5597 693d cdd0 233d 3642 b43d 9e0d abbd
000001c0: 563c 64bb d8b8 ffbb da57 27be b578 f23d
000001d0: d19a 733e 2882 a23d eee6 c1be 299c cabd
000001e0: e9d9 4cbe 773f 65be 7cdc 35be e9e3 ba3c
000001f0: 2fc6 37be a86a 083e d50f 3f3c b7ca bd3c
00000200: 519a 8a3d 961d 443d 10a3 b3bc 780d 8bbc
00000210: 94a2 613c da80 963d 0f23 a3bd 9f86 8ebd
00000220: 004e 743d cb95 483e 20d6 68b8 ea7b e8bd
00000230: 1a13 08be 4d5d 4cbe 15bd 373e 7024 473d
00000240: 2457 813e d175 80bd fbaa 8e3d 1d51 cbbd
00000250: a3df c5bd 09a6 983d ae1e a4bc 4264 d43d
00000260: 7e29 773e 8457 40bd 8176 8dbd d3e3 cabd
00000270: 8ee9 ddbd 8efc 8a3a af17 17bc 9e23 8c3d
00000280: 7ea6 f33b 00e2 a6bd 139e 31bd 78d8 08be
00000290: 48df 23be a064 203e 1eb7 753d d6a2 2b3d
000002a0: ddd1 a9bd 9c98 973d ed3e 81bd 5e6a fdbc
000002b0: 7159 053d 2f6e 79be 9606 5ebe 0882 243e
000002c0: 18ef 833d 3d30 213c a9b6 473e 353a 8d3d
000002d0: cb6a 953d 234b ee3d 4dcb a1bc 8e64 43be
000002e0: 54b9 6cbd 1c1a 0fbe 7bae 103d 4247 c2be
000002f0: 8a1c 2fbd e993 b3bd 911d a5bc 1abe 083e
00000300: c6ec 5a3d fd89 513d d5f2 683d fe88 bd3d
00000310: 2f64 1c3e afbc d5bd 6963 e5bc 2178 713d
00000320: 3c20 8abe 1a45 03be 9e59 54bd c0d4 dfbc
00000330: 2742 c2be 0061 943d 9eb2 47be 0049 b03e
00000340: dcc7 65be 5284 8b3c f7d2 253e 74f8 893d
00000350: 24b2 163d 243e 0e3d e9a5 8f3d f559 55bd
00000360: 80cd 39bd be25 9e3d a33f b0be 5e5f a8bc
00000370: e4f0 dc3c 4b25 8bbd 18f4 553c fc48 2abc
00000380: d38d cebc 6091 fd3d c6ed 393d 41d8 efbd
00000390: 884d 1a3c 16b6 b8bc 5d0b 20bd 87db f83b
000003a0: dcd7 b93d f337 873d bd0b 2dbe 8b64 e4bb
000003b0: 38f2 adbd 741d 2d3d de5e 34be a387 b6bd
000003c0: 8c4f 853e 3f5f c53d 9ef6 733e 6371 0bbc
000003d0: f639 313e bad8 c4bd 4bcc 6d3d c1b4 5a3d
000003e0: 4f46 02be 952b 793c e15d efbc b626 8ebe
000003f0: 8ae7 73be eb69 87bd 76a1 6a3d 4950 7abd
-0.37314972 -0.07650555 0.095109984 -0.20776366 -0.17616631 0.10384068 -0.0036689606 0.00538274
0.0998343 0.09181717 0.08167626 0.09550366 0.080207735 0.10595355 0.18192557 -0.06045634
-0.18429194 -0.065019436 -0.13430165 0.3437045 -0.009871725 -0.21283796 0.048229013 -0.1253531
0.024379421 -0.16722034 -0.073106095 0.04965593 -0.106334485 -0.027872259 -0.2906411 -0.14712934
0.17488019 0.0033119344 -0.040786702 -0.044947308 0.1994307 0.12746471 -0.10805197 0.08850619
0.1004147 -0.10531619 -0.42703754 -0.091366924 0.20615767 -0.20168014 0.14011894 -0.020474277
-0.26536196 -0.009082439 -0.04564616 -0.032360576 0.011724171 0.2555049 -0.13283561 0.04486399
-0.18914086 0.027282132 0.33746767 -0.07236189 0.19016245 -0.109493755 -0.06391808 -0.045102622
0.020267198 -0.060479406 0.09884697 -0.15069869 -0.0020376507 -0.036763426 0.21671966 0.15087025
0.15671964 -0.18924299 -0.008878752 0.14324798 -0.1002986 -0.076155834 0.07359704 -0.055749167
-0.03675805 0.052157275 -0.06140394 -0.18897626 0.1047319 0.05937891 -0.036931247 0.13136384
-0.1534839 0.00754469 0.010537462 -0.012535588 0.030174458 -0.10906782 0.044401817 -0.007527826
0.09613967 0.07298442 -0.0980479 0.15495406 0.33202124 0.016883025 -0.0021329531 0.13359676
-0.12873644 0.012347511 -0.016735045 0.0008018165 0.057029087 0.03999405 0.08801691 -0.08352207
-0.0034826002 -0.0078040175 -0.16342106 0.11839429 0.23789527 0.079349816 -0.37871498 -0.098930664
-0.20005001 -0.22387491 -0.1775989 0.022813754 -0.17946695 0.13321936 0.0116614895 0.023167951
0.06767715 0.047879778 -0.02192834 -0.016974196 0.013771672 0.07348795 -0.07965671 -0.06959271
0.0596447 0.19588391 -5.551253e-05 -0.1135176 -0.13288537 -0.19957466 0.17943223 0.048618734
0.25261796 -0.06272472 0.06966206 -0.099275805 -0.09661796 0.07453544 -0.02003416 0.10370685
0.24136922 -0.04695846 -0.069073685 -0.09906735 -0.10835563 0.0010603832 -0.009221955 0.06842731
0.007435619 -0.08148575 -0.043363642 -0.13363826 -0.16003144 0.15663385 0.059989087 0.04190334
-0.08291981 0.07402155 -0.0631083 -0.030934509 0.032556 -0.24358438 -0.216822 0.16065228
0.06442088 0.009838161 0.19503273 0.06895868 0.0729576 0.11635425 -0.019750262 -0.19081327
-0.05779393 -0.13974804 0.035322648 -0.3794499 -0.042751826 -0.08768446 -0.0201557 0.13353768
0.05344846 0.051156987 0.056872208 0.09254645 0.15272592 -0.10436379 -0.028001504 0.058952454
-0.26977718 -0.12819329 -0.051843278 -0.027323127 -0.37941095 0.07245064 -0.19501731 0.34430695
-0.22439522 0.017030869 0.16193758 0.06736842 0.036790982 0.03472723 0.07014067 -0.052087743
-0.045361996 0.077220425 -0.3442355 -0.020553287 0.026970334 -0.067942224 0.013058685 -0.010393377
-0.025214111 0.12381244 0.045392774 -0.11711169 0.009417899 -0.022547763 -0.039073337 0.007594529
0.09074375 0.06602468 -0.16899009 -0.0069699935 -0.08493465 0.042264417 -0.17614314 -0.089125894
0.26037252 0.096373074 0.23824546 -0.00851092 0.17307267 -0.0961165 0.058056157 0.053395037
-0.12722133 0.015208145 -0.02921957 -0.2776391 -0.23818794 -0.06611999 0.057282887 -0.061111722

f6.bias f4 [84]
00000000: e5ff 30bc 4ab0 003d 60d9 6e3d 42d7 b6bd
00000010: 46f7 473d d331 b3bd d802 2dbd a0da 76ba
00000020: e57d 6e3d 9b56 24be f663 713e 9fa6 863e
00000030: c547 9ebd b8a2 05bd 8f45 73bd ea17 ef3c
00000040: 5ade fd3c c048 e13d a408 ccbc 3286 34be
00000050: 5fdd 403c 5a5f 33bd 9bac 563c 0e52 1ebd
00000060: 8941 93bb 8250 2c3d 12f8 b73c 89a2 4b3c
00000070: 85d8 80bd 090c 10be 7a3b 71bd 4e1b 93be
00000080: 7722 16be c1c0 943c 2d9c 75bd 2163 14be
00000090: b0a8 34bd ddd2 7db9 e782 523b 2f58 89bb
000000a0: c352 1b3c 5bf8 a2bc 1096 9dbd 2215 7cbc
000000b0: b652 e93c dea0 bf3d c6d4 51bc f59b 8e3c
000000c0: ca46 913d 89a1 97bc b239 06be 28ca d93d
000000d0: ca80 a93d bc91 0b3e 2ca8 d23d 503a 383e
000000e0: 5d31 2c3e 5613 253e 3adf 3fbc e47c 20bc
000000f0: eafd 1fbc 388f 41bc 856f 9dbc 2fde 34be
00000100: ab17 18be d542 b93d 016f 7a3d 3036 083d
00000110: 0b65 833d 324d 1abe 5df3 2abd f792 e5bd
00000120: 6243 673e 066e 28b9 4c20 52bd 9530 0b3e
00000130: 9654 00be 3176 6e3d 2405 123e a13c c0b9
00000140: 1b54 4a3d 14bf c9bd 336c 9a3c 9885 d33d
-0.0108031975 0.031418122 0.058312774 -0.08927776 0.048819803 -0.087497376 -0.04223904 -0.0009416733
0.05822553 -0.16048662 0.23573288 0.26298997 -0.07728533 -0.032625884 -0.059392508 0.029186208
0.030989815 0.11000204 -0.024906464 -0.17629316 0.011771529 -0.043792106 0.013102676 -0.038652472
-0.0044938964 0.042068966 0.022457156 0.012428888 -0.06291298 -0.14067091 -0.058894612 -0.2873177
-0.14661585 0.018158318 -0.059963394 -0.1449094 -0.044106185 -0.00024206513 0.003212148 -0.0041914205
0.009480181 -0.019893816 -0.07694638 -0.015385898 0.028481822 0.09356855 -0.012807077 0.01740835
0.0709358 -0.018509643 -0.13107947 0.10634261 0.08276518 0.13629812 0.102859825 0.17990994
0.16815706 0.16120657 -0.011710936 -0.009795401 -0.009765128 -0.011813931 -0.019218216 -0.17662881
-0.14852779 0.0904595 0.061141018 0.033254802 0.06415757 -0.1506851 -0.041735996 -0.11209672
0.22584298 -0.00016062715 -0.051300332 0.13592751 -0.12532267 0.058218185 0.14259773 -0.00036666266
0.049396615 -0.098508984 0.018850422 0.10328215

f7.weight f4 [10, 84]
00000000: a437 053e ce72 56bd 8e3a a23d 7dbe 193e
00000010: 5abf 893d 2a5c fcbd 6083 013e 54c0 19bd
00000020: cf07 afbd 83ba 703d 635d 653d f69f 0abc
00000030: 3dbc 94bd 2708 d4bd 6f97 c33d 2a6d c53d
00000040: 4075 cb3d f6bf a638 d2e9 0b3e dd2c bbbd
00000050: bc60 343e 5ed7 a53d cc1b ebbd 62a5 70bd
00000060: 7f1f 2d3d e4da 6cbc 8e83 ed3d 14f8 773c
00000070: 3d9a b3bc 6126 4dbd 8b52 da3c 0244 1abe
00000080: 407b df3b 58b7 243e 8a6c 12be 0656 953d
00000090: 9d90 7bbc db08 93bd c971 14be 6090 a0bd
000000a0: bd93 c5bc 6874 73bd 0263 1a3e 8997 223e
000000b0: 48e2 bbbc 77fe 0b3e 3896 a3bd 1cef a73c
000000c0: 5c70 503d fee6 febc d3f9 14bd 7058 9e3d
000000d0: 6449 6dbc fef1 de3d 6ffb d33d ed63 b4bd
000000e0: 29b1 2a3e 58d3 273e db98 f1bd 4cec 6fbd
000000f0: 62e6 3fbd f21e b2bd 0081 ad3d 0747 0f3c
00000100: dd40 07be e1bb 153c 4afa 103d 597c 15be
00000110: 2b23 133e 6883 2abe c689 8dbd 413f 85bc
00000120: b9c4 49bc a5f8 edbc bb4d e83c 3614 f5bd
00000130: 0dc6 333d 3847 11be 76da 473d 0593 f53d
00000140: 8444 96b9 2776 25be 5dd7 253e 8ffa 4f3a
00000150: 7df1 a73d 4598 a5bd 4d92 6f3e e0f7 c73d
00000160: f6b8 0cbe c632 4a3e 0ede 1f3e 3eef 8a3e
00000170: bd29 2e3d 641c cb3d bec4 67be 4ef0 e3bd
00000180: f1d2 2bbe 1696 8dbd 3023 dd3c c602 253e
00000190: 426f 9a3d 0034 88be e0b4 5c3e 5edf eb3c
000001a0: 1779 073e f5e4 663e 748b a73d c8c0 e33d
000001b0: ccec d93d 6298 9bbd 3378 b93d ad46 d6bd
000001c0: c7ac d93b 0456 d13d c082 383e 97f8 363d
000001d0: c7d9 ad3d 21e5 0e3e 2171 a6bd a003 213e
000001e0: 6e45 b13d d112 3c3e c67e 2b3e 7836 d8bd
000001f0: 7cfd cd3e 9111 c83d 83f8 4f3d 542d 233e
00000200: 38dd 8d3e 672d 843d ba37 24be 68e9 433d
00000210: 91cc 6bbd 82e1 c43d 5e8b 913c b641 493d
00000220: 10b7 98bd 568a 413c 3f68 413e c8cf 5c3d
00000230: e07c 6ebe 84ba 8bbe 6d49 a53e a8c2 ecbc
00000240: 741b 023e 39a8 1e3e 2dec 33be 29ad 3bbe
00000250: 1a80 00be 47d3 733d 976a 3c3e 333f 2abe
00000260: 098a adbc 2c6b 51bd 7c52 d43b 2a2e 693e
00000270: db9a 2f3e bee7 46bd 2174 41be 3b33 edbd
00000280: 6c73 f83d 7447 30be a9f0 1cbe a48e a53d
00000290: 68ae 1b3e 0d9d 43bd 669a 50be 42bf d8bd
000002a0: f215 eebd 38f6 42be 9aba 023e 3536 bcbd
000002b0: e126 98ba 37ae 2abd 7263 56bc f61f 003d
000002c0: b4db 9ebd 5c91 1dbe ccc7 353e e075 b03d
000002d0: 0cf3 e13d 8023 d1bd 1640 a73c 3749 5e3e
000002e0: 2a1b 723d a0db 4f3e da7a f93d c6b6 a8bd
000002f0: e5f2 eb3d 6588 e1bd 3409 0ebe 92f8 31be
00000300: 2035 473c 75aa 893c d3c0 783d 58f9 a7bd
00000310: 61bc e1bd 7192 cdbd f1ae e63d 2553 a5bd
00000320: c01f 04be 0030 02be f561 e83b 9d82 2a3c
00000330: 568b b83c a8ef a2bd 6288 a73d 2d03 b93d
00000340: fb5d a6bd e99b 403d 06a2 acbd 9e04 00be
00000350: ed3e 033e 90bc 0a3e bd01 c7bd a5cd 543d
00000360: 762b d13c c1e9 e93c d7ba 69bd 6cb1 af3d
00000370: 642f 473d 7c34 fc3c f317 c13d 3dfd e03d
00000380: 18cf 893d b677 c43d b4ec 6ebc ae5c bfbc
00000390: 710e e33b c4ea 97bd bfbe 05be 79dc 1abe
000003a0: a9b6 20be 3707 003e 7c46 013d 4e89 abbd
000003b0: d5d9 363e b186 f1bd b622 9a3c 4a1e 5dbe
000003c0: 0a8a 1c3e 68d4 37bc b0bc 09be 9f7d 873d
000003d0: 0b4f f3bd 8b41 f43d 35c6 b73c 3435 683d
000003e0: 7e7d 543b b070 1d3e 55c4 ebbd f6e0 cdbc
000003f0: e8b4 c83d 26b7 4fbd 510c 5b3d 40ad 213d
0.13009506 -0.05235558 0.07921325 0.15014072 0.067259505 -0.123222664 0.12647772 -0.037536934
-0.08546411 0.05877162 0.055997264 -0.008460989 -0.07262466 -0.103531174 0.09550368 0.09639962
0.09934473 7.951252e-05 0.13663414 -0.09139416 0.17615026 0.08097719 -0.11479911 -0.05875147
0.042266365 -0.0144564845 0.11597358 0.01513483 -0.021924132 -0.05008543 0.026650688 -0.15065005
0.0068201125 0.16085565 -0.14299217 0.07291798 -0.015354303 -0.071794234 -0.1449653 -0.07840037
-0.024118299 -0.059437186 0.15076831 0.15878119 -0.022935048 0.1367129 -0.07987636 0.020499758
0.050888404 -0.031116005 -0.036371063 0.07731712 -0.01448283 0.10886 0.103506915 -0.08808122
0.16669144 0.16389215 -0.11796733 -0.05857496 -0.04685057 -0.086973086 0.084718704 0.008744962
-0.13208337 0.009139032 0.035394944 -0.14598216 0.14368884 -0.1665169 -0.06911044 -0.016265513
-0.012314969 -0.029049227 0.028357377 -0.119667456 0.043890048 -0.14187324 0.048792325 0.119909324
-0.00028661278 -0.16158353 0.16195436 0.00079337595 0.08200357 -0.08085684 0.23395653 0.09764075
-0.13742432 0.19745931 0.15612051 0.27135652 0.042520273 0.099175245 -0.22633645 -0.11129819
-0.16779687 -0.06913392 0.026994318 0.16114339 0.07540752 -0.26602173 0.21553373 0.028793033
0.13229786 0.22548278 0.081808954 0.111207545 0.106408685 -0.07597424 0.09056129 -0.10462699
0.006642911 0.10221484 0.18018627 0.044670667 0.08488803 0.13954593 -0.081270464 0.15724039
0.08655821 0.18366553 0.16747579 -0.10557264 0.40232456 0.097689755 0.05077411 0.1593526
0.2770784 0.06453972 -0.16036883 0.047830015 -0.057568137 0.09613325 0.01776665 0.049134932
-0.074567914 0.011812767 0.18887423 0.053909093 -0.23289824 -0.27290738 0.32282582 -0.028901413
0.12705785 0.1549386 -0.17570563 -0.18327774 -0.12548867 0.05952766 0.18400036 -0.16625671
-0.021183984 -0.051127598 0.0064795595 0.22771516 0.17148916 -0.04856085 -0.18891956 -0.11582037
0.1213139 -0.17214757 -0.1532618 0.08083847 0.1520325 -0.047757197 -0.20371398 -0.105833545
-0.116252795 -0.19039237 0.12766495 -0.09190027 -0.0011608267 -0.04167005 -0.013085233 0.03128048
-0.07756749 -0.15387481 0.17751998 0.08616233 0.11032686 -0.10211849 0.0204163 0.21707617
0.059107937 0.20298624 0.12181635 -0.08237986 0.11520938 -0.11012343 -0.13870698 -0.17379978
0.012158662 0.016804913 0.060730767 -0.082018554 -0.110222585 -0.10037697 0.11263836 -0.08072499
-0.12902737 -0.12713623 0.0070917555 0.010407117 0.022527378 -0.07955867 0.0818031 0.09033809
-0.08123394 0.047023688 -0.08429341 -0.12501761 0.12816973 0.13548493 -0.097171284 0.05195393
0.02553342 0.028553845 -0.05706295 0.085787624 0.04862918 0.030786745 0.09428396 0.10985801
0.06728953 0.095931455 -0.014582802 -0.023359623 0.006929212 -0.07417825 -0.13061045 -0.15123166
-0.1569468 0.12502752 0.03156136 -0.08375798 0.17856534 -0.117932685 0.01881538 -0.21593586
0.15287033 -0.011220075 -0.13450885 0.06615757 -0.118803106 0.11926564 0.02243338 0.056691363
0.0032423432 0.15375018 -0.11512057 -0.025131684 0.0980013 -0.050711773 0.053478543 0.039471865

f7.bias f4 [10]
00000000: 7630 82bd cd6c 4bbe bc5c 2f3e 6ae8 6fbd
00000010: 8421 efbd e8cb 8bbd 12e7 db3d 3a82 ab3b
00000020: 0893 e13d 26c3 17be
-0.063568994 -0.19865723 0.17125219 -0.058571257 -0.116763145 -0.068260014 0.107374325 0.00523403
0.11014372 -0.14820537
